learner/models/dqn_model.pth (torch, 5933 bytes, 5 tensors)

0.weight f4 [24, 4]
000000 36 0d 98 bf 40 8d a5 3e 78 04 a4 3d ed 80 bc 3d
       -1.1879032 0.32334328 0.08008665 0.09204278
000010 77 26 60 bf e0 66 11 3f 0a b6 59 be 3f 80 17 3c
       -0.8755869 0.567976 -0.21260849 0.009246885
000020 56 df ab bf d1 9f 82 3f 30 20 c1 be 82 c0 7c 3e
       -1.3427532 1.0205022 -0.3771987 0.24682811
000030 59 35 9c 3f 42 b4 e0 bf 96 51 f3 bd c0 0a 4d 3b
       1.220378 -1.755501 -0.11880796 0.0031286925
000040 94 34 e8 3f 4d 60 ec bf 58 18 cf bf a0 a8 66 3f
       1.8141046 -1.8466889 -1.6179304 0.9010105
000050 9f ae 9e bf a6 a4 1a 3f 08 e8 b2 3d d3 3f 8f bd
       -1.239704 0.60407484 0.08735663 -0.069945954
000060 58 a9 91 bd 9e 6f c6 3f 1c 66 98 bf 5d 09 7b 3f
       -0.07112378 1.5502813 -1.1906161 0.9806116
000070 7e 64 fc bf 21 e8 fb 3d 23 2e 96 be b3 05 01 bf
       -1.9718168 0.123001345 -0.29332075 -0.5039932
000080 40 50 d6 bf 21 74 0c 40 e2 fa 4c bf 9a 5a b9 3e
       -1.674324 2.194588 -0.80070317 0.36201936
000090 eb 77 bc be ac 60 d3 3e 05 c2 0a be d4 85 dd be
       -0.3681024 0.41284692 -0.13550575 -0.43266165
0000a0 ce 07 70 bf 5e d5 03 be c6 de ac 3e f2 8b bc bc
       -0.9376191 -0.12874362 0.33763713 -0.02301595
0000b0 ef 8b a2 be a4 0d 86 bf 3b f4 bf 3e 3f dc 1a be
       -0.31747386 -1.0472913 0.3749102 -0.1512308
0000c0 69 ce 5f 3c 1a 91 06 c0 f3 b5 b3 3e 46 02 50 be
       0.013660052 -2.1026063 0.35099754 -0.20313367
0000d0 5c 47 28 c0 fd 6a 26 40 68 f8 04 bd 75 19 0c bc
       -2.6293554 2.60028 -0.03246346 -0.008550991
0000e0 52 21 86 be 93 29 2a 3f fe a7 00 3d 17 b2 e7 ba
       -0.26197296 0.6646969 0.03141021 -0.0017676976
0000f0 b4 af e0 bf b5 1d 78 3f 9b 33 cd bd 05 1f e1 3d
       -1.755362 0.9692033 -0.100196086 0.10992245
000100 96 47 7d 3e 49 b1 25 bf 5b 01 07 bc aa 84 d7 be
       0.24734339 -0.6472364 -0.008240069 -0.42093402
000110 54 0d a5 bf bc 4e 97 3e 2d fa 12 3c bf fd 6c be
       -1.2894692 0.29552257 0.008970779 -0.23143671
000120 e3 c0 f8 3e 6e aa 34 c0 6e b7 71 bf 7f 4b 2f 3f
       0.4858466 -2.8229022 -0.94420516 0.6847457
000130 be e2 04 c0 51 15 f5 3f 41 b9 56 bf 71 55 03 bf
       -2.0763392 1.914713 -0.83876425 -0.5130225
000140 bc 49 01 40 37 e1 34 c0 bb c4 08 c0 57 86 86 3f
       2.0201254 -2.826246 -2.1370075 1.0509747
000150 a2 cd 0b 3f f0 c6 ee bf 6a 1d 92 3e cc 2c c1 3c
       0.54610646 -1.8654461 0.28538066 0.023580931
000160 43 8a 33 3e 9e 6d af bf 5c dc 4a be fe fd 86 3d
       0.17533211 -1.3705328 -0.19810623 0.06591414
000170 70 a8 b7 bf 6a 42 a4 bd 7e 55 81 bd b1 3c 71 3e
       -1.4348278 -0.0802048 -0.063151345 0.23558308

0.bias f4 [24]
000000 7c 86 9d 3d 74 66 5c be e8 ea 0c bf 06 6b 42 bf
       0.076916665 -0.21523458 -0.5504594 -0.75944555
000010 eb 36 90 3f 80 a3 cc 3d a0 95 1c bf 05 b2 1b bc
       1.126676 0.09992123 -0.6116581 -0.009502892
000020 58 e7 60 be c7 6a 16 bf a4 15 05 3d 9c 6d b0 be
       -0.2196325 -0.5875668 0.03249134 -0.34458625
000030 27 cd cf be 0b 76 c2 3e 5c 3a 8c be 27 d3 ca bc
       -0.40586206 0.37980685 -0.27388275 -0.024758888
000040 1f c5 07 bf ce fb 0c 3d 5f 33 b5 3f a7 5a 89 bd
       -0.5303516 0.034419827 1.4156302 -0.06706744
000050 12 5b b5 3f 4c e9 05 bf 61 13 8e be 23 c2 5f 3d
       1.4168417 -0.5230911 -0.2774916 0.054628503

2.weight f4 [24, 24]
000000 14 a5 a2 be c2 c4 6c bc d7 e6 c8 bf 92 bb 52 3f
       -0.3176657 -0.014451208 -1.5695447 0.8231746
000010 5f 49 b4 bf 0f e9 08 3e 69 b2 97 3e cd 13 96 3f
       -1.4084891 0.13370155 0.29628304 1.1724793
000020 a7 4b be c0 95 5f 24 bf 57 b0 a2 bf 10 a0 c6 3e
       -5.946735 -0.64208347 -1.2710065 0.38793993
000030 f7 95 62 bf a7 68 7b c0 5f f8 b8 bc 82 29 a5 bf
       -0.8851008 -3.9282625 -0.02257937 -1.2903292
000040 cb 24 97 3c af 9f 3b bf f7 5a 8e 39 d3 f2 b8 bf
       0.018450161 -0.7329053 0.00027152125 -1.4449104
000050 7d 3c b4 bf ac e9 4a 3f da b1 8b 3f 4e c2 1c bf
       -1.408096 0.79262805 1.0913651 -0.61233985
000060 30 cf ed 3e df cd 26 bc b9 e0 49 3f 28 12 da be
       0.46447134 -0.010180919 0.78858525 -0.42591977
000070 08 ae 7d bf 42 fa 54 3f 97 d4 2c 40 2e 11 87 3f
       -0.99093676 0.83194363 2.7004755 1.0552118
000080 44 a5 ab 40 6f 40 f1 3d cc eb 0e be 92 bf 00 be
       5.363924 0.11779868 -0.13957137 -0.12573078
000090 95 e5 ac 3c b1 b4 64 41 38 e8 b7 3f bf 1d 73 40
       0.021105567 14.294114 1.4367743 3.7986906
0000a0 84 ee 1b bf 86 ad 8b 3e ef 98 1f bf f6 e5 f1 3f
       -0.6091082 0.27280825 -0.62342733 1.8898304
0000b0 55 55 38 c0 e6 86 7b be e4 b9 0d 3f b8 af 99 3e
       -2.8802083 -0.24563178 0.5536177 0.30016875
0000c0 ca 1e ce 3e 67 16 b4 3e 09 cb d5 3f bc 8c bc 3e
       0.40257865 0.35173342 1.6702586 0.36826122
0000d0 31 13 a6 bf af f9 32 3f 06 8e 9d be 23 65 67 be
       -1.2974607 0.69912237 -0.30772418 -0.22597174
0000e0 b4 67 f2 3f c7 4c 18 bd a0 5f 02 be b5 5b 87 3d
       1.8937898 -0.037182596 -0.1273179 0.066092886
0000f0 0e e9 7e be 77 46 03 41 ff d3 c6 3f 32 54 90 40
       -0.24893591 8.204703 1.5533446 4.5102777
000100 11 0d 0a bf 8f e2 67 3f be 7a 49 be e8 60 f5 3e
       -0.5392619 0.90580076 -0.19675729 0.47925496
000110 e9 4c b0 bf 52 a5 59 bf c5 7e 4f bd 3c 78 0c 3e
       -1.3773471 -0.85017884 -0.050658006 0.13717741
000120 58 51 78 3e b5 4d 4b be ff 05 45 be 02 64 73 be
       0.2424978 -0.19853862 -0.19240569 -0.23768619
000130 3e 6a b6 3e 39 a7 fb 3d 63 61 b5 be ef 46 16 bd
       0.3562793 0.122877546 -0.35425863 -0.03668874
000140 af 4a 32 3e 9b 98 b2 be 08 7a eb bd 21 6f 9e 3d
       0.17411302 -0.34882054 -0.11497885 0.0773604
000150 92 1c 5c be 78 a3 19 be 00 71 75 bf d9 6e 62 3e
       -0.21495274 -0.15003765 -0.9587555 0.22112598
000160 ae 7d 5c be 6a 61 94 3e 37 93 4d be f5 77 3d 3f
       -0.21532318 0.2898057 -0.2007569 0.74011165
000170 96 a7 51 be f2 b4 47 be 2d 8f 85 be 38 d7 c1 3e
       -0.20474085 -0.19502619 -0.26085797 0.3785951
000180 01 e8 8c be f1 7a 07 bf f7 eb 60 3f 56 bc a7 bd
       -0.27520755 -0.5292197 0.87860054 -0.08190219
000190 1d 8d c7 bf 15 2c fb be 55 90 04 be 4c b1 85 be
       -1.5589939 -0.4905707 -0.12945683 -0.2611183
0001a0 3b bd 9d bf cc cb 70 be 88 22 4d be c7 9c cf 3e
       -1.2323374 -0.23515242 -0.20032704 0.405493
0001b0 60 91 0e bf a6 11 da be 0e 73 c1 bf 65 24 ba be
       -0.55690575 -0.4259159 -1.5113237 -0.36355892
0001c0 11 69 6b 3f de a9 e9 be 7c 6f 04 3e 70 07 eb be
       0.91957194 -0.4563741 0.12933153 -0.45904112
0001d0 ba 70 6a 3d d0 b2 1f bf cc 1c 98 bd c7 b2 52 bf
       0.05723641 -0.6238222 -0.074273676 -0.8230404
0001e0 f6 59 e0 3e 42 db 32 bd a6 30 2a 3f 88 cf c2 3d
       0.43818635 -0.04366613 0.6648048 0.0951224
0001f0 59 10 41 bf e1 29 9a 3e 03 23 a2 3f 9d 3e ad be
       -0.7541557 0.30110076 1.2666935 -0.33836833
000200 ab a9 38 3e d4 5b 11 3d 1f b2 a4 bd c8 99 b7 bf
       0.18033473 0.035487965 -0.080417864 -1.4343805
000210 84 7c 16 3e 80 ce cb bf 1f a9 62 bf 44 54 76 3f
       0.14695936 -1.5922394 -0.8853931 0.9622233
000220 77 8d 60 bf 4d 0b b2 bf 57 a7 07 3d 04 3b 61 bd
       -0.8771586 -1.3909699 0.033118572 -0.054987922
000230 80 7f 62 be ef 25 24 bc 5f 12 83 3d c6 91 af bf
       -0.2211895 -0.01001881 0.063999884 -1.3716362
000240 91 aa 78 3d 33 29 43 be f2 08 cc bc 42 22 95 bd
       0.06070954 -0.19058685 -0.02490661 -0.07281925
000250 b9 1e 14 3d 17 31 9d bd f3 ef bf 3c 05 86 3e be
       0.036162112 -0.07675379 0.023429846 -0.18605812
000260 05 13 0f 3c f7 1e c3 bd cc 5d f5 3d 3a 49 13 bd
       0.008732562 -0.095273905 0.11980781 -0.035958506
000270 3a dc d6 bd 6d 7c e1 3d e3 4e f0 bd c4 ad e7 bd
       -0.10491224 0.110100605 -0.117337964 -0.1131244
000280 6d e5 1e be c6 ec 94 bc a7 92 7b 3d 98 5b b1 3c
       -0.15517206 -0.018179309 0.061419155 0.02165012
000290 74 fd d6 bd 24 b9 f4 3b 35 b6 f0 bd 51 18 8d 3d
       -0.10497561 0.0074683595 -0.11753503 0.068894036
0002a0 d9 23 1a 3e a5 9e 0f be 3b 0b bb 3c 85 ee f6 3e
       0.15052737 -0.14025362 0.022832504 0.4822885
0002b0 14 47 44 c0 3e e5 d2 3d 87 82 0f 3e e9 ff a9 3d
       -3.0668383 0.10297631 0.14014636 0.08300764
0002c0 81 de 46 bd a3 4e ee bc 1f d4 33 bd d1 d4 15 3d
       -0.04855204 -0.029090231 -0.043903466 0.03657991
0002d0 38 90 35 bd 9a 1d cc bf 55 ee 36 3e f1 08 9a bd
       -0.04432699 -1.5946534 0.17864354 -0.07521237
0002e0 5d 0a 8d 3c b9 3b 23 3d 2a c3 89 3e 33 50 0a be
       0.017216856 0.039851878 0.2690671 -0.13507156
0002f0 16 3b 7d bf d9 fe 3c bd 81 b7 45 be bc 48 44 be
       -0.98918283 -0.04614148 -0.19308282 -0.19168371
000300 23 76 0c 3f 67 fb a3 be c4 db 55 bf 58 ff 98 be
       0.5486776 -0.32027742 -0.8353846 -0.29882312
000310 f3 7c 2f 3e 9c f2 8d bf b6 d4 1a 40 2c 4e 00 c0
       0.17137508 -1.1089664 2.4192328 -2.0047712
000320 b4 83 cb be 62 05 8e bd 66 14 c8 bf ad cd 60 be
       -0.3974892 -0.069346204 -1.5631225 -0.21953459
000330 84 6d 01 be 7b 75 8d 3e 85 67 12 3f 54 e1 6e 3e
       -0.12639433 0.27628693 0.5718921 0.23328143
000340 83 80 3e 3e 92 1f e9 bc 6c f5 3a bf bf 27 4f bf
       0.18603711 -0.028457437 -0.73030734 -0.8092002
000350 80 d9 8c 3e dc ac d4 3c 6e 99 e3 be 74 30 21 bf
       0.2750969 0.025961332 -0.44452995 -0.6296456
000360 26 60 8c bd a2 f9 b8 3c 53 37 86 be 8f c0 c2 bd
       -0.06854276 0.022579972 -0.26214084 -0.09509384
000370 8f c8 d7 be 32 ce 0e 3f 16 41 09 bc 02 ce 06 be
       -0.42145202 0.5578338 -0.008377334 -0.13164523
000380 b4 b7 dc bd d6 57 29 3e 1f 35 48 be a2 0a 60 3d
       -0.10777226 0.16537413 -0.19551514 0.05469764
000390 96 1f 4e 3d 78 a2 fe 3d a6 b9 f2 bd 49 ce 9f 3e
       0.05032309 0.12433332 -0.11851816 0.3121207
0003a0 ee da 1d 3e 72 10 fc 3d c7 1d 6a 3d 50 65 07 3e
       0.15415546 0.12307824 0.057157304 0.13222241
0003b0 3b 78 0e bf a9 d8 42 be e0 c4 12 3f c6 84 d6 3e
       -0.5565221 -0.19027962 0.5733166 0.41898173
0003c0 9a 49 9d bd 4c 57 d9 bd 3a 86 73 bd 6b 6b b1 be
       -0.07680054 -0.10612354 -0.05945418 -0.34652266
0003d0 e5 ea 82 c0 c4 54 e6 bd 04 f0 23 3d 1a c0 7f 3f
       -4.0911736 -0.112466365 0.04002382 0.999025
0003e0 67 d8 3e 3f 1b c6 1e be a4 5d 86 be e1 00 bf 3d
       0.74548954 -0.15505259 -0.26243317 0.093263395
0003f0 9a e4 b0 3c 1c 43 77 c0 7f bc 57 3f 08 ed d9 3e
       0.02159338 -3.863471 0.84272 0.42563653

2.bias f4 [24]
000000 4b a5 25 bf 49 c4 9a 3e 74 f3 4e 3e f0 6e 6f bc
       -0.6470534 0.3022788 0.20210057 -0.014613852
000010 2f 85 a5 be 3f 13 51 bf 87 27 51 be 31 f0 33 bf
       -0.32328174 -0.8166999 -0.20425235 -0.7028838
000020 2e 01 e5 bd d7 e5 05 be 40 db 61 3f df 32 a0 3e
       -0.11181866 -0.13075958 0.88225174 0.31288812
000030 14 45 f8 3c 78 4b 27 bf 0f 45 9d bd 81 72 75 bf
       0.030306377 -0.6534953 -0.076791875 -0.95877844
000040 f6 8e 06 bf 5e de bd 3e 3b 4f c0 be 59 46 98 be
       -0.5256189 0.37083715 -0.37560448 -0.2974117
000050 db 8d 5a 3f c6 70 0c bd 81 93 5a be 5a 11 f4 bd
       0.85372704 -0.034287237 -0.21345331 -0.11917372

4.weight f4 [1, 24]
000000 6e fa 75 c1 b4 93 a5 c1 50 17 77 c1 ad 7c 0f 3f
       -15.37364 -20.69712 -15.443192 0.56049615
000010 89 8c 84 c0 9e 5d 4f 3f a7 76 38 3d fd 89 dd 3f
       -4.142155 0.81002223 0.04503503 1.7307736
000020 2b b3 90 bf ae c9 e8 be 2b 2f 45 40 71 73 33 c1
       -1.1304678 -0.4546637 3.081004 -11.215684
000030 71 c9 58 c0 f0 e3 24 40 57 49 55 bf 9f 95 25 c1
       -3.387295 2.5764122 -0.8331503 -10.349029
000040 1a 32 90 c1 95 24 38 40 ac b3 70 c0 60 9f 2c bf
       -18.024464 2.8772328 -3.7609663 -0.67430687
000050 33 28 56 40 6b 62 62 bc bc 62 9c bc 5f c1 8c bd
       3.3462036 -0.01381741 -0.019090049 -0.0687282
