learner/models/rl_coach_model_episode_50.pth (torch, 31377 bytes, 24 tensors)

network.0.weight f4 [32, 4]
000000 b5 7a 0c bf 58 04 bd be ed f5 92 be be e7 6e be
       -0.54874736 -0.36917377 -0.2870325 -0.2333059
000010 d1 55 28 bf 0d 26 28 be bd 51 01 bc 5f 5c 33 3c
       -0.65755945 -0.16420765 -0.007893023 0.010947316
000020 69 10 82 3f 6f e7 78 bf bf f6 ab 3d 84 c6 9e bd
       1.0161258 -0.9722814 0.083966725 -0.077527076
000030 0e 15 85 bf 0d 15 86 3f 44 0e 94 bc 2c 0a 91 3c
       -1.039705 1.0475174 -0.018073209 0.017705046
000040 b1 a2 23 bf d5 c9 df be 81 38 8a bc 77 57 ad bc
       -0.6392012 -0.43708673 -0.016872646 -0.02115987
000050 b9 f3 65 3c bc ee b3 3e 85 5e c7 3e c7 fa 25 3d
       0.014035159 0.35143077 0.389393 0.040522363
000060 d1 21 40 3f 04 76 e1 be bb 93 2d 3e 23 d6 72 bd
       0.750516 -0.4403535 0.16950886 -0.059286248
000070 4a 8a 3e bf 5c d3 c7 be e6 a2 83 bd d8 50 2d bd
       -0.7442976 -0.39028442 -0.06427555 -0.042313427
000080 0f fb 00 3f db a2 10 bf 47 0c fc 3d f1 6e 27 bd
       0.50383085 -0.564985 0.12307029 -0.040877286
000090 8e 22 d5 be 7f f8 f0 be 7b d8 55 bd eb 79 70 3c
       -0.41627926 -0.47064587 -0.052208405 0.014677505
0000a0 ce 6b c2 bc ee 3c 63 3d 26 4c 30 3f 6f d5 ff bd
       -0.023733046 0.05547803 0.68866193 -0.12491881
0000b0 9b 30 79 3f d1 e8 6b bf 83 76 69 3d 1f 7e b6 3a
       0.9733979 -0.92152125 0.056997787 0.0013923085
0000c0 a9 c9 40 3f 93 c3 39 bf 7b 08 db 3d 5b eb 48 bd
       0.7530771 -0.7256405 0.10694977 -0.049052577
0000d0 f7 b7 1e 3f 75 9c 1a bf 37 aa f8 3d ba 5e 3f bd
       0.6199946 -0.60394984 0.12141841 -0.046721198
0000e0 a8 5c 80 be 28 1c 5e be a3 24 9d bd d9 be 9b 3d
       -0.2507069 -0.21690428 -0.076730035 0.07604761
0000f0 a0 41 72 3e 59 6b 0f bf 38 45 aa be 42 ba 8c be
       0.23657846 -0.56023175 -0.33255935 -0.27485853
000100 af 5a 38 bf 8a 94 89 be f0 89 1a 3c 73 75 b1 bb
       -0.7201337 -0.2687114 0.009432301 -0.0054156124
000110 06 b3 10 bf 65 92 74 be ee d0 9f 3d 74 91 82 bc
       -0.5652317 -0.2388397 0.07803522 -0.015938498
000120 92 70 38 3f 8c 54 39 bf fa a5 c5 3d ea 72 16 bd
       0.7204677 -0.72394633 0.09650798 -0.036730684
000130 e7 d4 78 bf 13 fd 79 3f dc b0 9a bc 56 55 ba 3c
       -0.97199863 0.97651786 -0.018883161 0.02274577
000140 f7 2f 61 bf a7 53 63 3f 61 6c 93 bc 78 12 b0 3c
       -0.87963814 0.8879952 -0.017996015 0.021493182
000150 f6 6c 4c 3f 7f e7 60 bf 54 af 5a 3d 8c b4 5e 3a
       0.7985376 -0.87853235 0.053389862 0.00084955315
000160 ea 6e d1 be f7 cf 90 be b1 48 e3 bd f6 33 4f 3e
       -0.40904933 -0.28283665 -0.11097849 0.20234665
000170 f3 46 b8 be cb af de 3e 3f c0 a6 be 44 a5 0c 3e
       -0.3599163 0.43493494 -0.32568547 0.13734919
000180 82 fe 31 bf 44 35 a9 be 87 4a 7a bd ec 46 71 bc
       -0.69528973 -0.3304845 -0.06110623 -0.014726382
000190 23 ef 4b 3f 66 31 4f bf 18 5b 78 3d dd b0 8c bd
       0.7966177 -0.8093475 0.06063375 -0.068696715
0001a0 bb 02 ac be 5e cb d2 be dd 0f 5c be 59 40 62 3c
       -0.33595833 -0.41170782 -0.21490426 0.013809287
0001b0 96 3e 80 bf 28 c0 80 3f 8f fc e3 bd 1e 4a 4a 3d
       -1.00191 1.0058641 -0.11132156 0.04938709
0001c0 3d 00 44 3e 4f 4a 9a be f8 e2 26 bf ff 49 57 3e
       0.19140716 -0.30134818 -0.65190077 0.21024321
0001d0 fc 31 7e bf fc 19 81 3f 4f 92 8c bd a0 ae d3 3c
       -0.9929502 1.0086055 -0.06863844 0.025840104
0001e0 f5 36 10 bf e8 f0 02 bf 44 c2 e4 bd 16 d0 0e 3e
       -0.5633386 -0.51148844 -0.11169866 0.13946566
0001f0 64 cc 24 bf 1d b5 b7 be 6f df 67 bd df ed 18 bd
       -0.64374375 -0.35880366 -0.056609567 -0.037336227

network.0.bias f4 [32]
000000 78 2a 36 3e 58 5c 2d 3e 65 3b 2b be 5f a2 0f be
       0.17789638 0.16929758 -0.16721876 -0.14026783
000010 9e b7 3a 3e 26 56 b3 be 69 20 13 3c 40 5f c2 3e
       0.18234107 -0.35026664 0.008979895 0.37963295
000020 64 5e 0d 3e 9e ff cb 3d 9a bf ad be c7 f9 18 be
       0.13805538 0.099608645 -0.33935243 -0.14939032
000030 8e eb 02 3e 0d d0 03 3e 01 ba aa bc 4f b5 1e 3d
       0.1278517 0.12872334 -0.020840647 0.038747128
000040 66 7f 27 3e b5 50 13 3e b1 a9 f1 3d 0d 1c 0a be
       0.16357192 0.14386256 0.11799944 -0.13487263
000050 73 ec 03 be 31 b3 07 be e6 73 15 be 2e c7 24 be
       -0.12883167 -0.1325195 -0.14594993 -0.16091606
000060 dd 8c ae 3e 25 36 d9 bd 4a cc de bd 4d 87 02 be
       0.34091845 -0.106060304 -0.10878809 -0.12746926
000070 3a 57 39 be 53 a2 09 be f1 8c 8d bc 57 76 b3 3e
       -0.1809968 -0.13440828 -0.01727912 0.35051224

network.3.weight f4 [32, 32]
000000 1b ff a5 bc b6 43 ab 3e 5d 04 3d c0 3a ee 3e c0
       -0.020263245 0.33450097 -2.9533913 -2.9832902
000010 16 d3 27 3e 27 50 a5 bc e6 9c 6b 3d 98 d8 a5 3e
       0.16389117 -0.020179821 0.057522677 0.3239181
000020 d7 e7 9a 3d f4 a1 f2 3c 4e 25 d5 3b 80 6e 2a c0
       0.07563751 0.02961824 0.006504691 -2.6629944
000030 3e c2 ae 3d 57 b3 8a 3d db 65 93 be 86 6c 3b 3e
       0.085331425 0.067724876 -0.28788647 0.18303117
000040 e8 b4 ac 3e a1 ce 23 3e c0 04 d1 3c 7d f6 55 c0
       0.3373177 0.15996791 0.02551496 -3.3431695
000050 f2 03 3d c0 ec 7a d3 bf 3f 2b 5f be 50 4e a9 be
       -2.9533658 -1.6521888 -0.21793841 -0.3306756
000060 9b ce 49 3e c5 73 ed bf 45 73 d7 bd e9 36 34 c0
       0.1970772 -1.8550955 -0.10520033 -2.8158514
000070 c6 76 ed bd b8 6a 50 c0 12 e5 eb 3d ea 80 7b 3e
       -0.1159492 -3.2565136 0.11518301 0.24560896
000080 20 0b 91 be cd c4 9b bd c7 e3 65 c0 99 97 b7 c0
       -0.283288 -0.07605896 -3.5920274 -5.7372556
000090 32 90 57 be f8 f8 05 be 28 c6 0b 3d 54 ee 47 be
       -0.210511 -0.13083255 0.034124523 -0.19524509
0000a0 1a 03 ad 3c e0 e0 11 3e e9 0c 11 be 8f 68 49 c0
       0.021119643 0.14245939 -0.14165081 -3.1470068
0000b0 4b 74 fd 3c be 4d 13 be 58 64 44 be 77 59 fb bd
       0.030939242 -0.14385125 -0.19178903 -0.122729234
0000c0 f4 87 d8 bd 32 f7 77 3e f2 79 34 bc 0b 4e b2 c0
       -0.10572806 0.24215391 -0.011015402 -5.5720267
0000d0 cb c1 5f c0 63 c1 c2 bf 59 33 f9 3d 07 f1 27 be
       -3.4962032 -1.5215267 0.12167997 -0.16400538
0000e0 8d 7a 0b bb 88 06 d3 bf f3 36 93 3e bb 65 a4 c0
       -0.0021282763 -1.6486368 0.2875286 -5.1374183
0000f0 09 40 6c bd 5e 9e a5 c0 e1 39 e0 bd 6e ae 1c be
       -0.057678256 -5.175582 -0.109485395 -0.15300915
000100 37 e5 11 3d 53 5b ff bd d9 92 5d c0 61 28 8f c0
       0.035618987 -0.124685906 -3.4620879 -4.473679
000110 2a e8 44 be f3 0c ad bd 55 c5 ee bd c1 1a d5 be
       -0.19229189 -0.084497355 -0.11658732 -0.41621974
000120 b9 f8 ab 3c bf ae 31 be 4e 27 db bd ca 1d 48 c0
       0.020992624 -0.17351817 -0.10700856 -3.1268182
000130 c1 e2 c4 3d 06 6c bd bd 3b a2 e7 3d 06 6e 28 be
       0.096135624 -0.092491195 0.1131024 -0.1644822
000140 ea 50 1d bd 41 79 6d 3e 0b b3 66 3d 81 99 8d c0
       -0.038407244 0.23190786 0.056323092 -4.4249883
000150 33 d3 4f c0 89 c3 b7 bf 3a b6 01 3d 88 6e 18 bf
       -3.2472656 -1.4356548 0.031667925 -0.5954366
000160 97 9e 27 be 36 c5 fa bf 34 fd 7d be 5c fc 91 c0
       -0.16369091 -1.9591434 -0.2480362 -4.5620556
000170 e4 73 d0 bc e9 bf 94 c0 61 a8 77 be 0a 41 a0 be
       -0.025445886 -4.6484265 -0.24185325 -0.3129962
000180 3c 3d c6 bd 4c 6f 12 bf 95 10 fb bf b3 65 19 3e
       -0.09679648 -0.57201076 -1.9614435 0.14980201
000190 c4 5c 12 bf 1e 7c 79 be 40 9f 4c bf a2 43 9d bf
       -0.571728 -0.24363753 -0.79930496 -1.2286265
0001a0 26 f8 f8 bf f8 06 ef be 04 a9 bc be ae 0a b0 bf
       -1.9450729 -0.46685004 -0.368477 -1.3753259
0001b0 40 e9 2e c0 92 4f 0a c0 9b 3c 55 be bc 15 a1 be
       -2.7329865 -2.1611066 -0.208239 -0.31461895
0001c0 1d 34 13 bf 0d 71 51 be 81 9e 37 c0 c7 b1 e2 3d
       -0.57501394 -0.20453282 -2.8690493 0.110690646
0001d0 0e 08 07 be 42 cc bb bf d3 53 58 3e a0 8e 8e 3e
       -0.13186666 -1.467171 0.21125726 0.2784319
0001e0 65 da 8a bf 27 a1 36 bf 66 b4 cf 3d b1 26 3f 3e
       -1.0847899 -0.7133965 0.1014183 0.18667103
0001f0 39 88 85 3e 8f 39 6a 3e 04 c6 07 bf 7d 65 b0 bf
       0.26080492 0.2287352 -0.5303652 -1.3780972
000200 88 18 07 3f 42 1c 94 bd fd e6 55 c0 2e cc 5d c0
       0.52771807 -0.07231952 -3.3422234 -3.4655871
000210 d8 60 bb 3c 1d 64 ef bd cf b6 b5 bd 58 49 e1 3e
       0.022873327 -0.11689017 -0.088727586 0.4400127
000220 1b 03 44 be 1a 15 a9 3e 04 d6 81 3d c2 c4 45 c0
       -0.1914181 0.33023912 0.06339648 -3.0901341
000230 c9 fb 06 be 37 d9 21 bd 97 b3 07 be f5 b4 27 3e
       -0.13181986 -0.039513793 -0.13252102 0.16377623
000240 1b 58 a4 3e 4d ac 82 3e 1c 3e 2b 3e 78 fc 5b c0
       0.3209847 0.2552208 0.16722912 -3.4372845
000250 e0 56 23 c0 e3 b1 f6 bf 73 1f 65 be b9 e4 61 3e
       -2.5521774 -1.9273037 -0.22375278 0.22059907
000260 b0 69 fd 3e b8 f3 e8 bf 28 b9 96 3e 69 1f 16 c0
       0.49494696 -1.8199377 0.29438138 -2.3456671
000270 44 2b d3 3e 0d 55 3a c0 2d 64 06 3d dc 48 a0 3e
       0.41243947 -2.911441 0.03281038 0.31305587
000280 75 34 0c be db 0a 4d 3e 08 89 70 c0 ac c6 66 c0
       -0.13691886 0.20023672 -3.7583637 -3.605876
000290 df 72 d6 3d 3c 9f 18 be 02 42 57 bd 9f 06 55 bc
       0.10471129 -0.14904493 -0.052553184 -0.013002067
0002a0 35 4d 62 3c ab a5 47 3e 87 88 e7 be 57 fd 51 c0
       0.013812353 0.19496791 -0.4522135 -3.2810876
0002b0 1f 30 97 be de ed 3e 3d a5 d5 67 3e 8c a2 19 be
       -0.295289 0.046613567 0.22640093 -0.15003413
0002c0 67 eb 95 bc be d3 3c 3d 3b 98 76 3c 46 70 6d c0
       -0.018300725 0.04610037 0.015050943 -3.7099776
0002d0 e7 fc 31 c0 b7 7f 05 c0 02 94 90 3d b4 fe 9e be
       -2.781061 -2.08592 0.0705948 -0.31053698
0002e0 4f 20 7f bd 1c a7 09 c0 33 5a d2 3c 12 bf 59 c0
       -0.06228667 -2.1508245 0.025677776 -3.402287
0002f0 ee 9d b2 bd fe 0b 6a c0 5f d7 a9 be d9 82 c3 bb
       -0.08721529 -3.656982 -0.33172128 -0.005966526
000300 1f 9b 36 3d f8 fd 47 3e 3c 22 3f c0 c2 74 77 c0
       0.04458153 0.19530475 -2.9864645 -3.8665013
000310 4b 17 85 3e 4b c6 68 be 19 67 74 3d 84 9c 16 3e
       0.25994334 -0.22731893 0.059668634 0.14708143
000320 cb 65 0f 3c 21 5c 8c 3d 4d df f8 3d 09 81 3b c0
       0.008752297 0.0685351 0.12151966 -2.9297507
000330 f6 4f 8e 3c b4 c0 21 3d c5 ee 4e 3e be ae 25 3d
       0.017372113 0.039490417 0.20208271 0.04044985
000340 eb e4 94 3e 95 34 83 bd 39 4e 82 bd 53 24 80 c0
       0.290809 -0.064065136 -0.06362576 -4.004434
000350 e1 db 30 c0 7a 30 d9 bf 77 78 3d be 44 e9 68 3e
       -2.7634203 -1.6967919 -0.18502985 0.22745234
000360 ad 1d 4c bd 6c e1 ec bf 32 d8 e2 bd 48 cd 44 c0
       -0.04983299 -1.8506293 -0.11076392 -3.0750294
000370 73 d4 8e 3e 06 db 57 c0 64 ac 7e be 10 cf cd 3e
       0.2789646 -3.3727431 -0.2487045 0.4019704
000380 c0 62 16 be 5f e8 01 bf ba 51 ef bf 5b 6c 09 3e
       -0.14686108 -0.50745195 -1.8696816 0.1342024
000390 51 2a 00 bf a8 25 4d be 1b 3c 60 bf da f4 7c bf
       -0.5006457 -0.20033896 -0.87591714 -0.98811114
0003a0 00 5a de bf 92 5d b9 be 3c 11 2a be 35 96 ab bf
       -1.7371216 -0.362042 -0.16608137 -1.3405215
0003b0 37 da 40 c0 7a 11 10 c0 4b 42 2c 3e 0b 58 91 be
       -3.0133188 -2.2510667 0.16822164 -0.28387484
0003c0 59 88 06 bf b0 8e 89 be 61 4a 56 c0 80 f5 af 3e
       -0.525518 -0.26866674 -3.3482897 0.3436699
0003d0 9b be 83 bd 26 d0 02 c0 e0 66 ca 3c 2f 86 13 3e
       -0.064328395 -2.0439544 0.024707258 0.14406656
0003e0 e4 a3 85 bf c2 0b 4c bf 3c 97 31 be ea ff 8e 3e
       -1.044064 -0.7970544 -0.17342848 0.27929622
0003f0 f6 0a 80 3e c8 83 2c bb 02 11 97 be dd dc a6 bf
       0.25008363 -0.0026323665 -0.29505163 -1.3036152

network.3.bias f4 [32]
000000 69 52 c1 3e e2 77 6e 3e 22 c8 a0 3e cf 7b b5 3e
       0.37758186 0.23287919 0.3140269 0.3544602
000010 e1 9a 0f 3f d2 f6 b9 3e 32 ef ef 3e 2e 9d ac 3e
       0.560957 0.3632112 0.4686218 0.3371367
000020 01 ec 85 3e 3c 8b f6 3e e9 a2 a9 3e 70 9f 9b 3e
       0.2615662 0.48153102 0.33132103 0.3039508
000030 b8 cf 90 3e d1 50 b5 3e ec eb a3 3e 15 30 9f 3e
       0.28283477 0.3541322 0.32015932 0.3109137
000040 9c de df 3e e3 fc c3 3e 10 33 c6 3e 55 d6 37 be
       0.43724525 0.38278875 0.38710833 -0.17952855
000050 38 40 eb 3e ae 10 bc 3e b1 15 80 3e 26 f6 d5 3e
       0.45947433 0.36731476 0.2501655 0.4178936
000060 ba 9f a7 3e 2b 42 e5 3d 0d c3 b9 3e c1 9e ae 3e
       0.3273905 0.11194261 0.36281624 0.34105495
000070 8b a0 bc 3e a1 57 da 3e d4 44 c6 3e 5e 47 23 3e
       0.36841235 0.4264498 0.38724387 0.15945193

network.6.weight f4 [2, 32]
000000 c1 dc 66 3f 75 a2 ca 3f 8d 1f ad 3f ae 01 a9 bf
       0.90180594 1.5830828 1.3525254 -1.3203638
000010 71 be 2e 3f b0 64 9b 3f ba bd 58 3f 21 42 b0 bf
       0.6825934 1.2140102 0.846645 -1.3770181
000020 21 44 c7 3f 13 6c 55 3f f9 ba 8a bf cd c2 b1 bf
       1.5567666 0.83368033 -1.083831 -1.3887573
000030 a0 7b bb 3f 46 9e 07 c0 ae 14 ce bf ce 86 10 c0
       1.4647102 -2.1190352 -1.6100061 -2.2582278
000040 db 42 4e 3f 68 ef 85 3f ec ec 90 3f cf dd 9e 3e
       0.80570763 1.0463686 1.1322303 0.31028602
000050 60 d6 4a 3f 4e 5f 89 3f 38 02 ce 3f 3a ab 0d bf
       0.7923336 1.073221 1.6094427 -0.55339396
000060 2e 04 f7 bf ba 12 7f bf f3 93 a3 bf 2a 7d e7 bf
       -1.929815 -0.9963795 -1.2779526 -1.8085072
000070 ea 4d 9c 3f 61 2a 44 3f 52 c5 8d 3f 86 6f 66 c0
       1.2211277 0.76627165 1.1075842 -3.6005569
000080 09 6d 74 3f 84 80 dc 3f aa 07 b4 3f 33 ba cf bf
       0.95478874 1.722672 1.4064839 -1.6228698
000090 09 0b 1d 3f ec 00 88 3f 89 8d 48 3f fd eb ba bf
       0.61344963 1.0625281 0.78340966 -1.4603268
0000a0 ca 12 c3 3f 90 1d 40 3f 7d 9c d0 bf 8a aa bd bf
       1.5240109 0.7504511 -1.6297756 -1.4817669
0000b0 3f ed b3 3f 09 ff c8 bf 46 ba 0d c0 4a 37 b7 bf
       1.4056777 -1.570283 -2.2144942 -1.4313748
0000c0 a7 8e 38 3f c2 fa 5d 3f 2d e4 80 3f 79 b5 6f be
       0.7209267 0.8671075 1.0069634 -0.2340907
0000d0 6a ba 40 3f 55 e2 6d 3f 85 bf d1 3f 7d c4 2a c0
       0.75284445 0.9292348 1.6386572 -2.6682427
0000e0 05 bc af bf cf 56 52 bf 5e e1 02 c0 04 f2 94 bf
       -1.3729254 -0.8216371 -2.0450053 -1.1636357
0000f0 f0 18 8b 3f 8e a1 55 3f 24 6e 84 3f ce 1c 61 c0
       1.0866985 0.8344964 1.0346112 -3.517383

network.6.bias f4 [2]
000000 c5 2f 3b 41 55 2f 42 41
       11.6991625 12.136556

network.0.weight f4 [32, 4]
000000 98 e2 0f bf ae 4f bc be ec 11 8f be 1b 71 59 be
       -0.5620513 -0.3677954 -0.2794336 -0.21234553
000010 d1 55 28 bf 0d 26 28 be bd 51 01 bc 5f 5c 33 3c
       -0.65755945 -0.16420765 -0.007893023 0.010947316
000020 54 30 82 3f 37 f6 7a bf 5c 4d c3 3d 3a b3 93 bd
       1.0170999 -0.98031944 0.095362395 -0.07211919
000030 3d 2e 85 bf f7 ab 85 3f a3 91 a3 bc 6d 9e 7a 3c
       -1.0404736 1.0443105 -0.019966906 0.015296561
000040 b1 a2 23 bf d5 c9 df be 81 38 8a bc 77 57 ad bc
       -0.6392012 -0.43708673 -0.016872646 -0.02115987
000050 b0 04 92 3b 61 a5 ae 3e fe d8 c1 3e 55 ee c7 3c
       0.004456125 0.3411055 0.37860864 0.024405638
000060 ed da 42 3f 23 5c dd be 2e aa 22 3e b4 3f 70 bd
       0.76115304 -0.43234357 0.15885231 -0.058654502
000070 13 7c 41 bf d0 39 c9 be 86 6c 80 bd e6 93 26 bd
       -0.7557995 -0.3930192 -0.06270699 -0.04066839
000080 f4 66 03 3f 35 31 0e bf fd d6 cc 3d 6c 98 7d bd
       0.5132897 -0.55543834 0.10001943 -0.06191294
000090 8e 22 d5 be 7f f8 f0 be 7b d8 55 bd eb 79 70 3c
       -0.41627926 -0.47064587 -0.052208405 0.014677505
0000a0 fc 0f a2 bb f2 5f 95 3d c3 e0 36 3f 5b 32 05 be
       -0.004945753 0.07293691 0.7143671 -0.1300749
0000b0 8e 77 78 3f d3 04 6d bf fc 32 77 3d f5 8d 6f bb
       0.97057426 -0.92585486 0.060351357 -0.003655312
0000c0 1d 58 40 3f ed 5f 3a bf d8 00 dc 3d e4 43 2f bd
       0.7513445 -0.7280262 0.107423484 -0.042789355
0000d0 35 f5 1f 3f d3 7d 19 bf 3a b3 03 3e 35 20 1e bd
       0.6248353 -0.5995762 0.12861338 -0.038604934
0000e0 a8 5c 80 be 28 1c 5e be a3 24 9d bd d9 be 9b 3d
       -0.2507069 -0.21690428 -0.076730035 0.07604761
0000f0 63 3f 73 3e d8 d5 0d bf d9 2d ad be 19 a6 8b be
       0.23754649 -0.55404425 -0.3382404 -0.2727516
000100 af 5a 38 bf 8a 94 89 be f0 89 1a 3c 73 75 b1 bb
       -0.7201337 -0.2687114 0.009432301 -0.0054156124
000110 06 b3 10 bf 65 92 74 be ee d0 9f 3d 74 91 82 bc
       -0.5652317 -0.2388397 0.07803522 -0.015938498
000120 46 2d 39 3f ce 45 38 bf ea 15 a3 3d 69 a6 04 bd
       0.72334707 -0.71981514 0.07963164 -0.032385264
000130 58 e5 78 bf 46 99 79 3f 03 eb 07 bd 20 20 89 3c
       -0.9722495 0.974995 -0.03318311 0.016738951
000140 30 21 60 bf 2e 10 64 3f 2d 13 a5 bc 7d c4 81 3c
       -0.8755064 0.8908719 -0.020150745 0.015840763
000150 f6 6c 4c 3f 7f e7 60 bf 54 af 5a 3d 8c b4 5e 3a
       0.7985376 -0.87853235 0.053389862 0.00084955315
000160 ea 6e d1 be f7 cf 90 be b1 48 e3 bd f6 33 4f 3e
       -0.40904933 -0.28283665 -0.11097849 0.20234665
000170 61 25 b2 be de 81 df 3e 5d 92 a4 be 2d c1 20 3e
       -0.34794143 0.43653768 -0.32142916 0.1569869
000180 a0 c2 32 bf 26 a0 a8 be 69 6f 84 bd 96 e1 85 3b
       -0.69828224 -0.32934684 -0.06466562 0.00408573
000190 4a 77 4a 3f f7 ae 52 bf 87 7e 88 3d c7 47 88 bd
       0.7908827 -0.82298225 0.06664758 -0.066543154
0001a0 bb 02 ac be 5e cb d2 be dd 0f 5c be 59 40 62 3c
       -0.33595833 -0.41170782 -0.21490426 0.013809287
0001b0 26 e9 7f bf 46 c8 80 3f 4f 18 ef bd 12 93 40 3d
       -0.9996513 1.0061119 -0.11674558 0.047015257
0001c0 92 c8 42 3e b9 09 9e be 81 fc 22 bf 0e 84 55 3e
       0.19021824 -0.30866793 -0.6366654 0.20851156
0001d0 6b 1a 7e bf 41 16 81 3f 44 17 a0 bd 50 a0 16 3d
       -0.9925906 1.0084916 -0.078169376 0.03677398
0001e0 f5 36 10 bf e8 f0 02 bf 44 c2 e4 bd 16 d0 0e 3e
       -0.5633386 -0.51148844 -0.11169866 0.13946566
0001f0 b1 76 26 bf 9e d6 b7 be 4b 43 85 bd 23 bb 24 bd
       -0.6502486 -0.35905927 -0.06506976 -0.04021753

network.0.bias f4 [32]
000000 13 59 1e 3e 58 5c 2d 3e b3 18 21 be 19 11 15 be
       0.15463667 0.16929758 -0.15732078 -0.14557303
000010 9e b7 3a 3e a3 26 b9 be 0d df 38 3c 43 cc ba 3e
       0.18234107 -0.3616229 0.011283648 0.36483964
000020 67 93 12 3e 9e ff cb 3d 44 6f a0 be bd a2 15 be
       0.14314042 0.099608645 -0.3133489 -0.14612861
000030 55 df e8 3d fb 9b 01 3e 01 ba aa bc 9d de 18 3d
       0.11370722 0.12657158 -0.020840647 0.037321676
000040 66 7f 27 3e b5 50 13 3e f3 76 f6 3d 4b a3 08 be
       0.16357192 0.14386256 0.120344065 -0.13343541
000050 92 5a 00 be 31 b3 07 be e6 73 15 be ee c7 20 be
       -0.1253455 -0.1325195 -0.14594993 -0.15701267
000060 05 71 ac 3e 1e 26 d0 bd 4a cc de bd 8a 50 03 be
       0.33679977 -0.1016352 -0.10878809 -0.12823692
000070 f3 0b 40 be ae 69 06 be f1 8c 8d bc c1 6d af 3e
       -0.18754558 -0.13126251 -0.01727912 0.34263423

network.3.weight f4 [32, 32]
000000 7a 03 6b bd b6 43 ab 3e 4d 1b 40 c0 58 15 3d c0
       -0.057376362 0.33450097 -3.0016663 -2.9544277
000010 16 d3 27 3e 20 66 38 bd e8 5f 2d 3d 8a 4e 9d 3e
       0.16389117 -0.04501927 0.04232779 0.30723983
000020 73 07 43 3d f4 a1 f2 3c 60 8f bd bc f6 98 2a c0
       0.047614526 0.02961824 -0.023139656 -2.665586
000030 a3 a0 89 3d 05 51 3c 3d db 65 93 be c5 22 21 3e
       0.06720092 0.045975704 -0.28788647 0.1573592
000040 e8 b4 ac 3e a1 ce 23 3e 73 ad b0 3a 34 db 53 c0
       0.3373177 0.15996791 0.0013479426 -3.310254
000050 29 f1 3a c0 ec 7a d3 bf 3f 2b 5f be 9b 6a b7 be
       -2.9209692 -1.6521888 -0.21793841 -0.3582352
000060 fa d4 36 3e e9 45 f3 bf 45 73 d7 bd d2 7f 35 c0
       0.17854682 -1.900571 -0.10520033 -2.8359265
000070 d7 7d 08 be 39 b7 4f c0 12 e5 eb 3d b7 28 67 3e
       -0.13329254 -3.245558 0.11518301 0.22574125
000080 95 ac 84 be cd c4 9b bd 9d 0f 64 c0 96 0c b8 c0
       -0.2591292 -0.07605896 -3.563453 -5.7515364
000090 32 90 57 be 81 97 26 be 37 36 26 3d 19 06 2e be
       -0.210511 -0.16268732 0.040579047 -0.16994514
0000a0 19 1b a2 3c e0 e0 11 3e b4 4e 2c be 4f d0 48 c0
       0.019788312 0.14245939 -0.16826898 -3.1377141
0000b0 b5 76 01 3d fb 8b 13 be 58 64 44 be 39 98 f4 bd
       0.03160735 -0.14408867 -0.19178903 -0.11943097
0000c0 f4 87 d8 bd 32 f7 77 3e 88 09 da bb ba 72 b2 c0
       -0.10572806 0.24215391 -0.0066539682 -5.5765047
0000d0 00 bf 60 c0 63 c1 c2 bf 59 33 f9 3d 73 c3 31 be
       -3.5116577 -1.5215267 0.12167997 -0.17359714
0000e0 19 1e 7f 3c 0e 8f cf bf f3 36 93 3e 4c d5 a4 c0
       0.015571141 -1.6215532 0.2875286 -5.151037
0000f0 f7 22 84 bd a3 7e a5 c0 e1 39 e0 bd 24 ec 0c be
       -0.064519815 -5.1717086 -0.109485395 -0.13761955
000100 b5 c6 51 3d 53 5b ff bd b5 cb 5b c0 77 9e 8e c0
       0.051214892 -0.124685906 -3.4343083 -4.456844
000110 2a e8 44 be e0 08 e6 bd 0b 4d f3 bd 85 67 d1 be
       -0.19229189 -0.112321615 -0.11879929 -0.40899292
000120 88 d4 44 3c bf ae 31 be 5c c7 0c be 82 17 48 c0
       0.012013562 -0.17351817 -0.13747925 -3.1264348
000130 94 a9 b6 3d 92 30 cc bd 3b a2 e7 3d 07 20 2a be
       0.08919063 -0.099702016 0.1131024 -0.1661378
000140 ea 50 1d bd 41 79 6d 3e be 8b 55 3d c0 ee 8c c0
       -0.038407244 0.23190786 0.05213522 -4.4041443
000150 93 5f 4f c0 89 c3 b7 bf 3a b6 01 3d 52 1b 1b bf
       -3.2402084 -1.4356548 0.031667925 -0.6058856
000160 f4 32 1c be 5d 6e f7 bf 34 fd 7d be 35 63 92 c0
       -0.15253812 -1.9330555 -0.2480362 -4.57461
000170 ce cd 15 bd 00 a5 94 c0 61 a8 77 be 54 10 9c be
       -0.036573224 -4.6451416 -0.24185325 -0.30481207
000180 ce e6 b6 bd 4c 6f 12 bf 95 10 fb bf ba 82 16 3e
       -0.08930741 -0.57201076 -1.9614435 0.14698306
000190 c4 5c 12 bf df 78 76 be be 22 59 bf 77 c2 9b bf
       -0.571728 -0.24069546 -0.8481864 -1.2168721
0001a0 59 8b f8 bf f8 06 ef be 94 cc bc be ae 0a b0 bf
       -1.9417526 -0.46685004 -0.3687483 -1.3753259
0001b0 c4 97 2d c0 fb f8 0c c0 9b 3c 55 be ba b9 a5 be
       -2.712388 -2.2026966 -0.208239 -0.3236826
0001c0 1d 34 13 bf 0d 71 51 be b1 40 37 c0 0c c1 e8 3d
       -0.57501394 -0.20453282 -2.8633235 0.11364946
0001d0 1e 29 02 be 42 cc bb bf d3 53 58 3e 39 25 91 3e
       -0.12710997 -1.467171 0.21125726 0.2834871
0001e0 9c 20 8b bf 27 a1 36 bf 66 b4 cf 3d 6b 17 3d 3e
       -1.0869327 -0.7133965 0.1014183 0.18465964
0001f0 13 6c 8a 3e 10 01 6e 3e 04 c6 07 bf 66 58 b0 bf
       0.2703558 0.23242593 -0.5303652 -1.3776977
000200 16 7f 00 3f 42 1c 94 bd 38 55 58 c0 e4 e1 5a c0
       0.5019392 -0.07231952 -3.3802013 -3.4200373
000210 d8 60 bb 3c 2d 0c ee bd 63 54 b2 bd f4 3b de 3e
       0.022873327 -0.11623416 -0.08707502 0.43405116
000220 8d a1 4e be 1a 15 a9 3e f1 17 27 3d 84 6c 45 c0
       -0.20178814 0.33023912 0.040794317 -3.0847483
000230 0e fc 11 be 55 51 4a bd 97 b3 07 be 0d 4c 12 3e
       -0.14256307 -0.04939397 -0.13252102 0.14286824
000240 1b 58 a4 3e 4d ac 82 3e 6a de 1d 3e 1c 91 59 c0
       0.3209847 0.2552208 0.15416875 -3.3994818
000250 8a 84 20 c0 e3 b1 f6 bf 73 1f 65 be 53 74 40 3e
       -2.5080895 -1.9273037 -0.22375278 0.18794374
000260 12 71 f8 3e e0 f8 ed bf 28 b9 96 3e 89 99 16 c0
       0.48523766 -1.8591576 0.29438138 -2.353121
000270 51 48 c5 3e 74 3f 39 c0 2d 64 06 3d 0c 32 9c 3e
       0.38531736 -2.8944979 0.03281038 0.30506933
000280 d3 4b 02 be db 0a 4d 3e bd c4 70 c0 a3 c9 64 c0
       -0.12724237 0.20023672 -3.762008 -3.574807
000290 df 72 d6 3d 26 e2 37 be e9 cd 70 bd 17 0a 3b bc
       0.10471129 -0.17957363 -0.05879012 -0.01141598
0002a0 3b 70 42 bb ab a5 47 3e d0 42 f5 be 49 1d 52 c0
       -0.0029668945 0.19496791 -0.47902536 -3.2830374
0002b0 c6 c3 9b be 77 a3 07 3d a5 d5 67 3e ef 44 20 be
       -0.304228 0.033114877 0.22640093 -0.15651296
0002c0 67 eb 95 bc be d3 3c 3d c1 e3 79 3b 53 44 6b c0
       -0.018300725 0.04610037 0.0038130137 -3.6760452
0002d0 fe d9 30 c0 b7 7f 05 c0 02 94 90 3d 97 7a ad be
       -2.7633052 -2.08592 0.0705948 -0.3388259
0002e0 4f 68 7f bd 82 d9 09 c0 33 5a d2 3c 4d 8e 5a c0
       -0.062355336 -2.1539006 0.025677776 -3.4149354
0002f0 af 5b d7 bd 8c 4a 68 c0 5f d7 a9 be af 70 07 bc
       -0.10515534 -3.62955 -0.33172128 -0.008266612
000300 1f 76 f2 3a f8 fd 47 3e 7b 61 42 c0 e3 4e 74 c0
       0.0018498338 0.19530475 -3.0371997 -3.8173149
000310 4b 17 85 3e dc 73 6d be 8b f9 4a 3d 64 71 08 3e
       0.25994334 -0.23188728 0.04955439 0.13324505
000320 a7 19 3b bc 21 5c 8c 3d a0 e2 c3 3d dd 71 3b c0
       -0.01141969 0.0685351 0.0956471 -2.9288247
000330 29 d5 01 bb 99 cb ac 3c c5 ee 4e 3e 4a 60 df 3b
       -0.0019810891 0.021093177 0.20208271 0.0068168985
000340 eb e4 94 3e 95 34 83 bd 79 11 ac bd 12 27 7d c0
       0.290809 -0.064065136 -0.0840177 -3.9555097
000350 df ec 2d c0 7a 30 d9 bf 77 78 3d be 5d d9 3c 3e
       -2.7175825 -1.6967919 -0.18502985 0.18442293
000360 07 e7 80 bd a9 0a f3 bf 32 d8 e2 bd b7 26 46 c0
       -0.06294065 -1.8987628 -0.11076392 -3.096113
000370 55 80 7a 3e 1f 1f 57 c0 64 ac 7e be 05 bd c4 3e
       0.24463017 -3.3612745 -0.2487045 0.3842546
000380 68 b7 1b be 5f e8 01 bf ba 51 ef bf 42 0a 04 3e
       -0.15206683 -0.50745195 -1.8696816 0.12894538
000390 51 2a 00 bf 14 19 50 be bd 4d 6b bf 19 ab 7b bf
       -0.5006457 -0.20322067 -0.91915494 -0.9830795
0003a0 5b 81 dd bf 92 5d b9 be 10 ba 2a be 35 96 ab bf
       -1.7305101 -0.362042 -0.1667254 -1.3405215
0003b0 18 b1 3f c0 0b 3f 12 c0 4b 42 2c 3e 5a 27 97 be
       -2.995184 -2.2850978 0.16822164 -0.2952221
0003c0 59 88 06 bf b0 8e 89 be 4c 82 55 c0 71 e9 b0 3e
       -0.525518 -0.26866674 -3.3360777 0.34553102
0003d0 7a 4e 69 bd 26 d0 02 c0 e0 66 ca 3c 61 83 17 3e
       -0.056959607 -2.0439544 0.024707258 0.14796211
0003e0 bb 1b 86 bf c2 0b 4c bf 3c 97 31 be 35 09 8e 3e
       -1.0477213 -0.7970544 -0.17342848 0.277414
0003f0 95 a9 82 3e 09 c7 a4 bb 02 11 97 be 5a b2 a7 bf
       0.25520006 -0.0050286097 -0.29505163 -1.3101304

network.3.bias f4 [32]
000000 7c 2b bb 3e eb 5d 78 3e 68 fe 9f 3e ed 87 b7 3e
       0.36556613 0.24254577 0.31248784 0.3584589
000010 ed 9f 10 3f 2f 52 b6 3e 32 eb ea 3e f2 71 ae 3e
       0.5649403 0.35609576 0.45882565 0.34071308
000020 84 38 89 3e a9 ab f9 3e 20 ce ba 3e c7 26 94 3e
       0.2680093 0.4876378 0.36485386 0.28935835
000030 ae dc 94 3e ee ea bc 3e 3a c0 a4 3e 9c fe a4 3e
       0.29074615 0.36897987 0.32177907 0.32225502
000040 ba bf e0 3e e1 dd bd 3e 50 b6 bd 3e 55 d6 37 be
       0.43896276 0.37083343 0.37053156 -0.17952855
000050 f9 45 eb 3e fd 61 b9 3e c1 38 85 3e 88 c3 d7 3e
       0.45951822 0.36207572 0.26019862 0.42141366
000060 35 0b ab 3e 24 89 fe 3d eb cf b9 3e b0 1d b4 3e
       0.33406988 0.12428501 0.3629144 0.351789
000070 83 ee be 3e 00 6f d7 3e db a3 c9 3e a8 76 35 3e
       0.37291345 0.42076874 0.39382824 0.17721045

network.6.weight f4 [2, 32]
000000 cd e6 65 3f c3 9d ca 3f df 8a ad 3f f7 64 aa bf
       0.898053 1.5829395 1.3558005 -1.3312062
000010 89 dd 2d 3f e7 24 9a 3f 3e 1e 55 3f 73 d4 b1 bf
       0.6791616 1.2042512 0.8324927 -1.3892959
000020 d7 36 c7 3f fa 54 56 3f b8 cf 8c bf bb 8c b2 bf
       1.5563611 0.83723414 -1.1000891 -1.3949198
000030 64 86 bb 3f 9c 9d 08 c0 94 6e cf bf d6 81 11 c0
       1.4650388 -2.1346197 -1.6205621 -2.2735496
000040 f8 8f 4c 3f 47 66 84 3f b6 10 90 3f cf dd 9e 3e
       0.7990718 1.0343713 1.12551 0.31028602
000050 9a 4f 4a 3f 17 39 89 3f a3 94 cf 3f 76 90 12 bf
       0.7902771 1.0720547 1.6217235 -0.5725168
000060 b7 68 f8 bf 80 54 80 bf 6c da a5 bf 7f 8a e9 bf
       -1.9406956 -1.0025787 -1.2957282 -1.8245391
000070 37 25 9d 3f 98 87 44 3f ab 99 8d 3f 7c 10 67 c0
       1.2276982 0.767694 1.1062521 -3.6103811
000080 c1 12 72 3f 94 f6 dd 3f 8d da b2 3f 1d 8e cf bf
       0.94559866 1.7340875 1.3972946 -1.6215245
000090 e2 d5 1d 3f 78 29 88 3f 88 c9 48 3f d7 25 ba bf
       0.61654484 1.0637655 0.7843251 -1.4542798
0000a0 78 bf c3 3f 0d 72 41 3f 52 e3 d0 bf 7c 70 bb bf
       1.5292807 0.7556465 -1.6319373 -1.4643703
0000b0 08 70 b5 3f 07 3c c8 bf 40 e1 0c c0 06 3f b5 bf
       1.4174814 -1.5643319 -2.2012482 -1.4159858
0000c0 0d 0b 3a 3f b4 2e 5e 3f ff 0c 7f 3f 79 b5 6f be
       0.7267311 0.86790013 0.99629205 -0.2340907
0000d0 5e bb 41 3f 6b 5d 6d 3f d6 8e d2 3f af 69 2a c0
       0.75676525 0.9272067 1.644984 -2.6627004
0000e0 b0 25 ae bf 0a 3c 50 bf ed 07 02 c0 36 3f 93 bf
       -1.3605251 -0.8134161 -2.0317338 -1.1503665
0000f0 0b ab 8a 3f 4e 5b 53 3f 44 46 85 3f dd 77 61 c0
       1.0833448 0.82561195 1.0412068 -3.5229409

network.6.bias f4 [2]
000000 f4 98 3a 41 54 9c 41 41
       11.662342 12.100666

exp_avg f4 [32, 4]
000000 a5 a9 64 ba 5e 13 ad ba 2a 07 0e 3b 24 00 63 3a
       -0.0008722789 -0.0013204624 0.002167175 0.0008659384
000010 04 00 00 00 04 00 00 00 04 00 00 80 04 00 00 80
       6e-45 6e-45 -6e-45 -6e-45
000020 76 f0 21 3c 6e 4e 09 3c 9d b1 27 bc 0b 98 d2 3b
       0.0098839905 0.0083805155 -0.010235217 0.0064268163
000030 47 fa 0c 3c e9 9b 05 3c a9 a5 cb bb a6 0c 0d bd
       0.008604593 0.008154848 -0.0062148166 -0.03443589
000040 04 00 00 00 04 00 00 00 04 00 00 80 04 00 00 80
       6e-45 6e-45 -6e-45 -6e-45
000050 f8 8b 4e 3b 46 45 72 3b 54 31 d5 3a 69 01 5b 3b
       0.0031516533 0.003696756 0.0016265311 0.0033417589
000060 f3 1d eb bb 4c 5a 09 bc df 9f 6a 3c eb f8 22 3c
       -0.007175201 -0.008383345 0.014320343 0.009947042
000070 f0 a4 32 ba 6a a7 d9 ba af ef 9a 3b 00 dc f8 b9
       -0.0006814739 -0.0016605679 0.0047282795 -0.0004746616
000080 78 94 c0 ba a9 1c 34 ba 50 b6 ce ba a1 68 9f bb
       -0.0014692685 -0.0006870726 -0.0015770886 -0.0048647677
000090 04 00 00 00 04 00 00 00 04 00 00 80 04 00 00 00
       6e-45 6e-45 -6e-45 6e-45
0000a0 69 f4 27 3a be 5d 15 3a b5 bc 2a 3a e3 38 1f b7
       0.00064069644 0.00056978676 0.0006513105 -9.4903835e-06
0000b0 05 1b 23 bd 90 03 f8 bc fb 3b 01 3c 3e 3b b3 bb
       -0.03982069 -0.030275136 0.007887836 -0.0054697087
0000c0 6d 8f f5 bc 55 5b 0c bd 93 c3 11 3d 96 d3 0d 3d
       -0.029975617 -0.03426679 0.035586905 0.034625612
0000d0 df d3 94 bc 78 23 ac bc 73 7f cb 3c 20 ef a6 3c
       -0.018167434 -0.021013007 0.024841046 0.020377696
0000e0 04 00 00 00 04 00 00 00 04 00 00 80 04 00 00 00
       6e-45 6e-45 -6e-45 6e-45
0000f0 01 22 14 ba 42 9e 7c ba b8 b6 65 3a be ad 1b 3a
       -0.0005650819 -0.00096366194 0.0008762884 0.00059386704
000100 04 00 00 00 04 00 00 00 04 00 00 80 04 00 00 00
       6e-45 6e-45 -6e-45 6e-45
000110 04 00 00 00 04 00 00 00 04 00 00 80 04 00 00 80
       6e-45 6e-45 -6e-45 -6e-45
000120 dc 03 1a bb 5f 8b d2 ba 11 40 7e bb 1b b8 09 3c
       -0.0023500836 -0.0016063264 -0.003879551 0.008405711
000130 6c e1 6d 3c a7 9b 7f 3c 63 28 1f bc eb b3 27 bd
       0.014519077 0.015601075 -0.009714219 -0.040943068
000140 db ae 8f bc 26 9c bd bc 78 35 6d bb 99 da b5 bb
       -0.017539432 -0.023145746 -0.00361952 -0.0055497405
000150 04 00 00 00 04 00 00 00 04 00 00 00 04 00 00 80
       6e-45 6e-45 6e-45 -6e-45
000160 04 00 00 00 04 00 00 00 04 00 00 80 04 00 00 00
       6e-45 6e-45 -6e-45 6e-45
000170 d1 c3 ec b9 66 c7 f0 ba 20 97 3f 3a ce 3f f3 b9
       -0.00045159322 -0.0018369972 0.0007308591 -0.0004639611
000180 b8 44 35 ba 39 97 53 ba d7 b5 e6 b9 c1 04 69 bb
       -0.0006914842 -0.0008071545 -0.000440045 -0.0035555812
000190 19 5e 5d bb 16 3f 79 bb e9 fa b2 b9 23 f2 67 3c
       -0.003377801 -0.0038031987 -0.00034137748 0.014156851
0001a0 04 00 00 00 04 00 00 00 04 00 00 80 04 00 00 80
       6e-45 6e-45 -6e-45 -6e-45
0001b0 6e 04 81 3c 28 f1 84 3c be 1e 49 bc f0 8a f5 bc
       0.015749183 0.016228274 -0.012275396 -0.029973477
0001c0 cf 06 0f ba 2c 65 47 ba 5e 37 a0 3a c0 43 bb 39
       -0.00054560316 -0.00076063233 0.0012223532 0.00035717897
0001d0 34 f5 f9 38 3f c1 8f bb 0e 4e ba bb 46 f9 16 bd
       0.00011918918 -0.0043870504 -0.0056855744 -0.03685882
0001e0 04 00 00 00 04 00 00 00 04 00 00 80 04 00 00 00
       6e-45 6e-45 -6e-45 6e-45
0001f0 b5 ee fd 3a f4 6c 60 3b ea 98 80 3b a1 39 28 3b
       0.0019373508 0.0034244629 0.003924479 0.0025669115

exp_avg_sq f4 [32, 4]
000000 3f 2b 89 37 7f c1 bf 37 b5 5b 78 38 fd f1 73 38
       1.635181e-05 2.2859078e-05 5.9213216e-05 5.8161084e-05
000010 95 a5 96 13 3b 58 83 13 b0 60 67 13 58 c8 be 14
       3.80286e-27 3.315605e-27 2.920397e-27 1.9264119e-26
000020 c9 e1 b9 3b 2d e3 30 3b ae 6e 2d 3b 76 71 b3 3c
       0.0056726676 0.0026990876 0.0026463675 0.021904688
000030 e8 b5 47 3c 6d 82 a3 3c e2 56 ac 3b 71 fa 79 3c
       0.012189366 0.019959653 0.0052593807 0.015257464
000040 b5 2f 1c 16 63 88 d7 15 e3 57 da 15 9b cc 6f 17
       1.2616633e-25 8.705299e-26 8.818816e-26 7.7483313e-25
000050 24 28 8a 39 c8 70 31 3a a0 94 5d 39 6e 1d db 39
       0.00026351318 0.000676882 0.0002113157 0.00041792862
000060 02 37 a7 3a 4f 25 46 3b 67 5b aa 3a d2 4f 2c 3b
       0.0012757482 0.003023464 0.0012997211 0.0026292694
000070 63 4b 43 39 f2 ec cd 39 f1 e0 79 3a fa b2 0f 3a
       0.00018624733 0.00039277185 0.0009532115 0.00054816867
000080 22 5e 20 3b fc 99 99 3b 02 ea 5c 3b a3 97 ac 3b
       0.002447017 0.004687546 0.0033708815 0.0052671
000090 df e6 b7 0d f1 72 96 0c ed 2f 99 0a f3 f8 77 0f
       1.1333826e-30 2.3180337e-31 1.4751392e-32 1.2225986e-29
0000a0 2d c7 c9 38 f8 03 42 39 f5 a3 fd 38 58 74 09 39
       9.621526e-05 0.0001850276 0.000120945195 0.0001310868
0000b0 e3 ef 08 3c f4 2e 8d 3b 81 2f 55 3b d7 16 88 3c
       0.008357975 0.0043085758 0.0032529535 0.016612453
0000c0 a4 25 40 3b 63 42 a3 3b 5d 9c 2f 3b 4c 5c ab 3b
       0.002931931 0.004982279 0.002679608 0.0052295085
0000d0 27 be 58 3b c2 f0 c8 3b 9e 67 4d 3b 93 ec c6 3b
       0.0033072324 0.006132216 0.0031342278 0.0060706823
0000e0 f4 01 00 00 f4 01 00 00 f4 01 00 00 f4 01 00 00
       7e-43 7e-43 7e-43 7e-43
0000f0 34 d2 ac 38 54 2c 09 39 8e a2 1f 39 53 1a 33 39
       8.2407525e-05 0.00013081852 0.00015223978 0.00017080577
000100 ac ef 68 15 46 ec 32 15 f8 22 cb 15 b8 bf b0 16
       4.7041095e-26 3.61332e-26 8.204622e-26 2.8555325e-25
000110 cd 83 bc 0c 14 cd 22 0c 1f cf bb 0a da 18 15 0e
       2.904531e-31 1.254174e-31 1.8085355e-32 1.8377634e-30
000120 89 ff 4a 3b 86 ab a0 3b 5c 43 56 3b 3e 3e 9d 3b
       0.0030975065 0.0049032597 0.0032693958 0.0047986796
000130 8a 43 7e 3c dd f5 cf 3c 3d ce c8 3b 55 7e 99 3c
       0.015519032 0.025385791 0.006128101 0.018736998
000140 60 1f 3a 3c 2a de 93 3c 8d 3d 83 3b 48 ee 58 3c
       0.011360019 0.018050272 0.00400514 0.013240404
000150 3f ce 04 34 29 df f9 32 38 36 02 33 f3 2d 84 34
       1.236849e-07 2.9088897e-08 3.0317295e-08 2.4620348e-07
000160 f4 01 00 00 f4 01 00 00 f4 01 00 00 6a 04 00 00
       7e-43 7e-43 7e-43 1.583e-42
000170 48 33 22 39 10 19 96 39 82 a3 69 39 d0 98 0a 3a
       0.00015468628 0.00028628903 0.00022281523 0.0005287053
000180 ad 12 69 39 a2 06 08 3a d9 86 7d 3a ff 21 47 3a
       0.00022227569 0.00051889766 0.0009671278 0.00075963134
000190 71 83 57 3b ab 62 ce 3a 46 a4 f9 3a e0 65 5a 3c
       0.0032884742 0.0015745958 0.001904615 0.013329953
0001a0 9d 78 02 00 13 a2 00 00 67 83 1f 00 93 0c 13 00
       2.26939e-40 5.8141e-41 2.894039e-39 1.749385e-39
0001b0 b6 43 4f 3c a1 8f a7 3c e4 b0 35 3c 0c 62 db 3c
       0.012650421 0.02045423 0.011089537 0.02678015
0001c0 02 7b bc 36 05 82 12 37 de df 93 37 4f bc 5f 37
       5.6171566e-06 8.732551e-06 1.7628012e-05 1.333568e-05
0001d0 a3 a7 72 3c b9 86 cd 3c 98 dd 1e 3c 06 37 c3 3c
       0.0148104755 0.025088655 0.009696387 0.023829948
0001e0 cc 67 ca 18 c7 9a 97 17 9b 23 8e 19 dc 51 90 1a
       5.2320584e-24 9.797218e-25 1.4696837e-23 5.9689255e-23
0001f0 f3 48 cd 39 b2 ba 5d 3a 2e 81 e9 3a cc 04 86 3a
       0.00039154998 0.0008458301 0.0017814988 0.0010224818

exp_avg f4 [32]
000000 84 84 6a ba 04 00 00 00 1d ea 68 39 24 cb f7 38
       -0.0008946138 6e-45 0.00022212458 0.00011815716
000010 04 00 00 00 4a d5 a9 3b e4 99 37 bc 12 77 3c bb
       6e-45 0.0051828967 -0.011206124 -0.0028757495
000020 67 8c 82 3b 04 00 00 00 f7 e5 ba 3a 45 61 81 bd
       0.0039840224 6e-45 0.0014259209 -0.06317381
000030 cb 6f 3e bd 58 87 b6 bc 04 00 00 00 63 f1 0e b9
       -0.046493333 -0.022281334 6e-45 -0.00013632099
000040 04 00 00 00 04 00 00 00 fb 4a 2d 3b f2 27 5b 3c
       6e-45 6e-45 0.0026442397 0.013376223
000050 7d be 10 bd 04 00 00 00 04 00 00 00 12 99 4e bb
       -0.035337914 6e-45 6e-45 -0.0031524342
000060 57 5b 43 bb 0e 84 58 ba 04 00 00 00 41 96 04 3c
       -0.0029809081 -0.0008259424 6e-45 0.008092464
000070 c1 1a ed ba 94 59 09 bd 04 00 00 00 82 ee e4 3b
       -0.0018089638 -0.033532694 6e-45 0.00698644

exp_avg_sq f4 [32]
000000 5a 5f 2b 39 61 03 91 15 e4 30 36 3d 30 2d 4b 3d
       0.00016343352 5.8570365e-26 0.04448022 0.04960364
000010 07 8d 11 18 74 8b a4 3a 38 26 e8 3b 51 00 1b 3b
       1.8812011e-24 0.0012553767 0.007084634 0.0023651312
000020 0b 46 68 3c b1 db b7 0f e3 8a d6 39 54 3a 34 3d
       0.014176856 1.8129815e-29 0.0004092074 0.04400094
000030 a2 50 6a 3c 93 72 8d 3c f4 01 00 00 44 7c 0d 3a
       0.014301451 0.017266547 7e-43 0.000539724
000040 b4 00 65 17 03 1b ba 0e b5 26 6c 3c 96 86 81 3d
       7.399478e-25 4.587855e-30 0.014413525 0.06324498
000050 fb 77 2d 3d 0f 7e ca 35 44 05 00 00 7c f7 91 3a
       0.04235075 1.5086861e-06 1.889e-42 0.0011136378
000060 c7 0b 33 3b 96 62 ea 3c 97 83 1f 00 8f 0e 94 3d
       0.0027320252 0.028611463 2.894106e-39 0.07229339
000070 47 56 1b 38 87 5c 91 3d 32 f5 bb 1a 28 e1 93 3b
       3.703523e-05 0.07097726 7.773752e-23 0.0045129247

exp_avg f4 [32, 32]
000000 ea a7 07 b8 04 00 00 00 0a 75 91 36 d3 d2 c9 37
       -3.234289e-05 6e-45 4.334962e-06 2.405924e-05
000010 04 00 00 80 4e fb 5a b8 be 2a 7b ba 62 06 99 b9
       -6e-45 -5.2209296e-05 -0.0009581259 -0.0002918719
000020 75 af 29 ba 04 00 00 80 95 f9 cb b7 75 37 e0 37
       -0.00064729835 -6e-45 -2.4315706e-05 2.6728705e-05
000030 39 3c 8b ba 29 5b 63 ba 04 00 00 80 47 a1 b7 b9
       -0.0010622806 -0.0008672947 -6e-45 -0.0003502464
000040 04 00 00 80 04 00 00 00 58 07 7d ba 74 60 72 37
       -6e-45 6e-45 -0.00096522784 1.4446781e-05
000050 6e 51 66 37 04 00 00 80 04 00 00 80 15 dc 04 b9
       1.3728028e-05 -6e-45 -6e-45 -0.00012670488
000060 02 ad 9a b9 cd c7 e7 37 04 00 00 80 88 f8 7f 37
       -0.0002950207 2.7630385e-05 -6e-45 1.525705e-05
000070 5b 0f 79 b9 e1 6a 69 37 04 00 00 00 03 2e f2 b9
       -0.00023752211 1.3912767e-05 6e-45 -0.00046192118
000080 88 d9 ce b9 04 00 00 00 34 d5 2c b7 66 c7 97 b7
       -0.00039453455 6e-45 -1.0301639e-05 -1.8093455e-05
000090 04 00 00 80 ec 88 98 b8 f8 95 bf ba e6 4a 4e ba
       -6e-45 -7.2734285e-05 -0.0014616838 -0.0007869437
0000a0 11 81 cb ba 04 00 00 80 e7 be 1d b8 be 0f eb 37
       -0.0015526136 -6e-45 -3.760951e-05 2.8021514e-05
0000b0 a6 09 00 bb 3e 98 00 bb 04 00 00 80 71 19 91 ba
       -0.0019537 -0.0019621993 -6e-45 -0.0011070204
0000c0 04 00 00 80 04 00 00 00 80 66 e7 ba cb 84 fb b6
       -6e-45 6e-45 -0.0017654449 -7.495842e-06
0000d0 9c b7 d9 33 04 00 00 80 04 00 00 80 b0 70 fe b8
       1.0138248e-07 -6e-45 -6e-45 -0.000121326535
0000e0 9c 9d 56 ba 2e e1 e2 37 04 00 00 80 07 b9 2c b7
       -0.0008186938 2.7046157e-05 -6e-45 -1.0295079e-05
0000f0 d5 5f b3 b9 6d 5f da b6 04 00 00 00 6b 1c 97 ba
       -0.0003421294 -6.5080153e-06 6e-45 -0.0011528855
000100 09 16 3e b9 04 00 00 00 35 c0 20 36 61 db 37 b7
       -0.00018128021 6e-45 2.3953737e-06 -1.0958728e-05
000110 04 00 00 80 78 72 97 b8 11 a6 9a ba 02 68 e5 b9
       -6e-45 -7.2215626e-05 -0.0011798759 -0.00043755776
000120 60 a5 52 ba 04 00 00 80 21 d2 07 b8 e0 3d bc 37
       -0.0008035507 -6e-45 -3.2382206e-05 2.244016e-05
000130 3c cf 99 ba cd e8 92 ba 04 00 00 80 68 5e 22 ba
       -0.0011734734 -0.0011208296 -6e-45 -0.0006193877
000140 04 00 00 80 04 00 00 00 05 7d 80 ba 43 70 33 b6
       -6e-45 6e-45 -0.0009802884 -2.6738423e-06
000150 82 77 ef 35 04 00 00 80 04 00 00 80 82 31 0e b8
       1.7841669e-06 -6e-45 -6e-45 -3.3901546e-05
000160 e3 61 d1 b9 c3 eb 39 38 04 00 00 80 25 86 1c 37
       -0.00039936518 4.4327007e-05 -6e-45 9.3295575e-06
000170 b9 07 f6 b8 89 f2 d5 36 04 00 00 00 35 d6 22 ba
       -0.000117316325 6.3761295e-06 6e-45 -0.0006211729
000180 e7 a0 90 38 04 00 00 00 04 00 00 00 40 6c 08 ba
       6.8964255e-05 6e-45 6e-45 -0.0005204119
000190 04 00 00 80 b3 63 97 b8 6e 6a cd b8 73 cd 88 38
       -6e-45 -7.2188115e-05 -9.794986e-05 6.523253e-05
0001a0 d6 22 30 b8 04 00 00 00 36 7e f4 b6 04 00 00 00
       -4.1994113e-05 6e-45 -7.2864595e-06 6e-45
0001b0 a5 c2 42 38 77 34 88 b8 04 00 00 00 f1 91 f0 38
       4.643448e-05 -6.494758e-05 6e-45 0.000114712755
0001c0 04 00 00 80 04 00 00 80 b0 26 07 37 f7 3c 1c ba
       -6e-45 -6e-45 8.055635e-06 -0.0005960012
0001d0 a4 ac 0a ba 04 00 00 80 04 00 00 00 41 b4 b1 b8
       -0.00052900077 -6e-45 6e-45 -8.4735926e-05
0001e0 53 cb 74 37 04 00 00 00 04 00 00 00 95 45 d7 b9
       1.4590873e-05 6e-45 6e-45 -0.00041059838
0001f0 30 17 ac 36 30 0d 24 ba 04 00 00 00 44 84 09 38
       5.128699e-06 -0.00062580686 6e-45 3.2786527e-05
000200 c3 7b eb b8 04 00 00 00 cb 8b 53 b7 5e 68 87 36
       -0.000112287256 6e-45 -1.2609128e-05 4.0354635e-06
000210 04 00 00 80 5a bd d8 b7 88 a2 19 ba 50 49 9c b8
       -6e-45 -2.583738e-05 -0.0005860706 -7.452315e-05
000220 70 ca d5 b9 04 00 00 80 4d 42 49 b7 f8 61 3b 37
       -0.00040777354 -6e-45 -1.199597e-05 1.1168879e-05
000230 5e 68 33 ba a5 a1 10 ba 04 00 00 80 0b 5a b4 b9
       -0.000684386 -0.0005517251 -6e-45 -0.00034399363
000240 04 00 00 80 04 00 00 00 4c d5 0e ba 0c 49 dd b4
       -6e-45 6e-45 -0.0005448654 -4.1217606e-07
000250 96 e5 c9 36 04 00 00 80 04 00 00 80 aa e1 ca b8
       6.016994e-06 -6e-45 -6e-45 -9.674144e-05
000260 fa 20 06 b9 39 32 ac b5 04 00 00 80 c0 33 ba b7
       -0.0001279152 -1.2829615e-06 -6e-45 -2.2197026e-05
000270 72 d9 50 b9 11 0f 03 b7 04 00 00 00 b5 9b 82 b9
       -0.0001991743 -7.811716e-06 6e-45 -0.00024911543
000280 ee 39 11 b9 04 00 00 00 29 fc 5b 35 01 00 f9 b5
       -0.00013849858 6e-45 8.19508e-07 -1.8551947e-06
000290 04 00 00 80 ce c6 b6 b8 e5 2f 88 ba 03 35 13 ba
       -6e-45 -8.7154665e-05 -0.001039025 -0.00056155043
0002a0 54 15 3d ba 04 00 00 80 64 ef e6 b7 97 d7 ac 37
       -0.0007212956 -6e-45 -2.7529612e-05 2.060439e-05
0002b0 93 1f 9e ba 8d b6 86 ba 04 00 00 80 bb 3e b3 b9
       -0.0012063853 -0.0010277793 -6e-45 -0.00034188278
0002c0 04 00 00 80 04 00 00 00 26 bd 86 ba 36 7f 61 b6
       -6e-45 6e-45 -0.0010279759 -3.360166e-06
0002d0 fa ca 88 36 04 00 00 80 04 00 00 80 54 6b 03 b9
       4.0767454e-06 -6e-45 -6e-45 -0.00012533116
0002e0 d9 55 df b9 28 07 0e 38 04 00 00 80 5f c0 bb b6
       -0.00042597836 3.3862103e-05 -6e-45 -5.5954292e-06
0002f0 8b f1 93 b9 14 03 af b5 04 00 00 00 5e 5a 1f ba
       -0.00028217988 -1.3039412e-06 6e-45 -0.00060788344
000300 58 93 98 b9 04 00 00 00 94 f7 59 b7 bf 06 62 37
       -0.0002910148 6e-45 -1.2991852e-05 1.347222e-05
000310 04 00 00 80 b2 30 95 b7 06 47 98 ba 42 69 a5 b9
       -6e-45 -1.778486e-05 -0.0011617846 -0.00031549676
000320 66 5f 63 ba 04 00 00 80 aa 63 fb b6 50 82 42 35
       -0.0008673578 -6e-45 -7.4919853e-06 7.246026e-07
000330 b2 1a b2 ba b5 9c 93 ba 04 00 00 80 de e0 18 ba
       -0.0013588278 -0.0011261912 -6e-45 -0.00058318477
000340 04 00 00 80 04 00 00 00 24 23 5c ba d2 dc 1b 37
       -6e-45 6e-45 -0.00083975703 9.290134e-06
000350 d2 e7 38 37 04 00 00 80 04 00 00 80 e1 7b 0a b9
       1.10212295e-05 -6e-45 -6e-45 -0.00013206854
000360 ff 8c b7 b9 55 08 34 b6 04 00 00 80 61 7d af b7
       -0.0003500953 -2.682694e-06 -6e-45 -2.092001e-05
000370 3a 17 85 b9 63 79 25 35 04 00 00 00 65 28 0e ba
       -0.00025385042 6.164393e-07 6e-45 -0.00054228894
000380 2a e9 2a 38 04 00 00 80 04 00 00 00 4f d0 3f ba
       4.074831e-05 -6e-45 6e-45 -0.0007317112
000390 04 00 00 80 53 ec ab b8 93 ef f9 b7 3b 12 5d 38
       -6e-45 -8.197934e-05 -2.9794674e-05 5.2707484e-05
0003a0 a7 56 f8 36 04 00 00 00 5e 6c 57 37 04 00 00 00
       7.4010636e-06 6e-45 1.284023e-05 6e-45
0003b0 95 e5 55 38 39 4d 0c 37 04 00 00 00 62 ad 2f 38
       5.0996972e-05 8.36263e-06 6e-45 4.1884727e-05
0003c0 04 00 00 80 04 00 00 80 97 76 be 37 1f 0b 3c ba
       -6e-45 -6e-45 2.2704988e-05 -0.0007173288
0003d0 3f 21 ea b9 04 00 00 80 04 00 00 00 a2 ce 52 b9
       -0.00044656728 -6e-45 6e-45 -0.00020104137
0003e0 f1 1c 33 37 04 00 00 00 04 00 00 00 3f 78 13 ba
       1.067597e-05 6e-45 6e-45 -0.0005625523
0003f0 b7 dd 0b b8 7c 49 0d ba 04 00 00 00 e8 b2 b4 37
       -3.334667e-05 -0.0005389673 6e-45 2.1540982e-05
