learner/models/rl_coach_final_model.pth (torch, 31133 bytes, 24 tensors)

network.0.weight f4 [32, 4]
00000000: 6afb 18be 85a4 a1be bb2b c1bc 1326 223d
00000010: 580d 67bd 5ed9 2cbf 6983 a7bd 9704 03be
00000020: 6c0d 8cbf 32f8 783f 71c7 5cbe 2a7b 043e
00000030: bb53 2c3e e87b 06bf 3b10 c03d 3041 1bbe
00000040: 9efe 603f 8014 5dbf dbe7 553e 5de5 54bd
00000050: 918a 67bf c69a 503f 1c85 8cbd eb48 4b3d
00000060: 0751 79bf 8e29 6e3f 7e0c 11bd 05e4 913b
00000070: 76b0 4bbf 94af 323f 0e2a b6be c79a 143e
00000080: 3b66 e8be 5f8d c2be 6437 ffbd 1a03 babd
00000090: c21c 403f bc3b 86bf 812d 763e 1f01 bcbd
000000a0: 9f5b 4fbf 78c2 323f e116 90be 4fcd 803d
000000b0: ea38 753f fa09 76bf ed0a 423d 2e85 04bd
000000c0: f570 4abe 6c23 dcbf 8898 4abb cb88 32be
000000d0: e6e4 5fbf 3209 5e3f 799c f5bb afc5 50ba
000000e0: 93dd 7abf a777 6d3f 0933 01bd c76e e13b
000000f0: 7596 a03e eb44 133f 4ca1 a13d ccab 053e
00000100: 6908 81bf 4a78 673f 2616 13be 63ad 4c3d
00000110: 5bc1 78bf 90cb 583f c029 b6be c226 143e
00000120: c94b 16bf 60c9 96be 0286 0f3c 699b a23e
00000130: 42c0 703f a137 8dbf 825b c83d 570f f53c
00000140: 0723 743f 9d97 84bf 2f45 6a3d 437f 263d
00000150: 08fd 8a3e 7a9f a03c 3395 8f3e 7e55 bdbc
00000160: a569 06bf 6e10 8abe f51b f73d 8e44 353e
00000170: cff5 3cbf 321a 283f c380 b4bd 80d5 9e3d
00000180: 7b10 893f b4d6 86bf 7ab9 563e c59c 11be
00000190: d30d 7dbf 8b66 673f f441 81be 3ec9 183e
000001a0: eb3b 9e3e d3bf 1a3f bb45 babb f99e 063e
000001b0: c260 a9be 8bfd d7be 1552 3ebe 75a9 51bd
000001c0: 0a61 babe 190c c53d cedc 18be 01fb ce3d
000001d0: 0cb6 a3be d098 15bf d9a6 61be 1223 d9bd
000001e0: cb6f 713f fae4 6ebf 4d6e 0c3d d69c c0bc
000001f0: be25 8d3f 6ba1 8dbf 9471 0f3e 3d4b c6bd
-0.14939657 -0.3157083 -0.023580423 0.03958709 -0.05640921 -0.67519176 -0.081793614 -0.1279472
-1.0941596 0.97253716 -0.21560456 0.12937608 0.16828816 -0.52532816 0.09378096 -0.15161586
0.87888515 -0.86359406 0.20889227 -0.05197655 -0.9044581 0.81486166 -0.06861326 0.049630087
-0.9738926 0.9303216 -0.035412304 0.004452231 -0.79566133 0.6979916 -0.3557896 0.14512168
-0.45390496 -0.37998483 -0.12461737 -0.09082623 0.7504388 -1.048698 0.24040796 -0.09179901
-0.8099918 0.69827986 -0.28142455 0.062891595 0.9578997 -0.96108973 0.0473737 -0.032353573
-0.19769652 -1.719831 -0.003091367 -0.17434995 -0.87458646 0.8673278 -0.0074954596 -0.00079640275
-0.97994345 0.927607 -0.03154281 0.0068796608 0.3136479 0.57527035 0.07892093 0.13053817
-1.0080692 0.9041792 -0.14363918 0.049970042 -0.9717004 0.8468561 -0.35578728 0.1446791
-0.5870939 -0.29450512 0.008759977 0.31759194 0.9404336 -1.1032602 0.09783079 0.029914541
0.9536595 -1.0358769 0.057194885 0.04064871 0.27146173 0.019607294 0.28043517 -0.023112055
-0.5250495 -0.2696566 0.12065879 0.17701933 -0.73812574 0.6566497 -0.08813622 0.07755566
1.0708154 -1.0534272 0.20969191 -0.14219959 -0.9884922 0.90390843 -0.2524563 0.14920518
0.3090509 0.6044895 -0.005684582 0.13146581 -0.33081633 -0.42185625 -0.18586 -0.051186997
-0.3640216 0.09621448 -0.1492798 0.10106469 -0.31974828 -0.584363 -0.22036304 -0.10602392
0.9431121 -0.9331814 0.03428488 -0.023512285 1.1027143 -1.1064886 0.1400817 -0.09682319

network.0.bias f4 [32]
00000000: 0000 0000 edd5 35be 13d0 11be 8c27 43be
00000010: 8c7e 3bbe f91f b7bd 7a6b d9bd 512b 5dbe
00000020: b867 bebd f9c8 91be 9ca3 64bd c7a3 0cbe
00000030: e46f 623e a479 e9bd 259f cbbd 4630 3fbf
00000040: ad89 d0bd b4c1 5abe 5f0f 28be d271 7cbe
00000050: dc46 87be 89f2 07bf 4640 8bbd 1d59 3fbd
00000060: 1f03 8abe 4ab5 09be 5efe 5abf 6764 1fbe
00000070: 6765 84be b360 24be 54a9 ffbd 06f5 49be
0.0 -0.17757387 -0.1423953 -0.19058055 -0.18309993 -0.08941645 -0.10616203 -0.21598555
-0.092971265 -0.28473642 -0.055820093 -0.13734351 0.22112995 -0.11400154 -0.09942464 -0.74683034
-0.101825096 -0.21362954 -0.16412114 -0.24652794 -0.2642125 -0.53104454 -0.067993686 -0.046715844
-0.26955506 -0.13448063 -0.85544384 -0.15565644 -0.25858614 -0.16052513 -0.12483469 -0.19722375

network.3.weight f4 [32, 32]
00000000: b8a3 653e 0658 353e b0c9 4bc0 689e 753e
00000010: 9a61 083f b197 67bf cc2a d6bf b775 83bf
00000020: 5209 253e 42a1 c0bf 3948 92be e3b4 e7bf
00000030: 0311 d5be 09ff 93bf ac34 38bf 2267 edbf
00000040: 3618 06c0 9594 abbf b504 f6be e256 11c0
00000050: 8d09 44c0 7b43 623e 75f1 48be 1899 7b3e
00000060: e813 54c0 2230 f9bd da19 32c0 f3cd 3d3e
00000070: 2403 e2ba c95f 02bc 32b3 82bf 8606 51c0
00000080: 411c 8dbd 1f4f ad3e bfa4 2bc0 7779 f23d
00000090: 0c12 b3be d145 a8bf 2f35 d2bf 291d b8bf
000000a0: 4a18 9abe 3c0c e6bf 525f 43be 52f4 f7bf
000000b0: 4050 903e d4c4 08c0 6806 91bf 5214 08bf
000000c0: 60d2 9abf dc54 fdbf 561f 093f d05f 28c0
000000d0: a16a 44c0 1236 87bd 18d8 9b3d ee2a 3c3d
000000e0: e4ee 3dc0 f59b 93be 9136 bdbf 7f5f 82bc
000000f0: 65b1 a33b 7b8a 2fbd 9b2a ddbf 1f6c 40c0
00000100: 0a58 7bbd 1cae 0d3f d09d 1ac0 dc3f 823d
00000110: 812d 00bf f54b a9bf 508f 29c0 6bc7 023e
00000120: 8a49 563e 25bc 8fbf a828 173f dc76 06c0
00000130: c430 e53e 1feb f6bf c690 01c0 2d73 0abe
00000140: 49c3 4dc0 0e97 74be 572d 513e 1a5c 31c0
00000150: d0b5 4fc0 1acf 68be 480a 66be d721 613e
00000160: 6219 59c0 c0b9 823e 4264 3bbf 769b 9dbe
00000170: e843 fd3c d623 15bd 50bc e1bf ff6a 63c0
00000180: d2f8 91be f0c3 25bf fb66 513f 380a 45bd
00000190: bcfa 65bc b61c 203f b9cd 503f be73 473f
000001a0: 06f4 a83d 5d5c 4fbf 2f24 1b3f 629c a7bf
000001b0: 8083 b1bf 4fd3 5c3f 2622 d73f 370c c5bf
000001c0: 8cb6 183f 1116 473f 8b72 543d 5368 9cbf
000001d0: 31d5 89bf bc3a 04bb 1d9e d93b 1c02 433f
000001e0: 6731 edbd ea79 b53f 5d74 1bc0 471c 30be
000001f0: 0e42 8c3d 2e03 9fbe b576 3d3f 1429 6f3f
00000200: 7b9b 9bbe 386e 41be 83e5 71c0 09e7 5abc
00000210: 3f53 e93e b2a9 b0bf 63ca 42c0 289a b9bf
00000220: ea30 33be a36d f6bf 2246 edbe a951 e6bf
00000230: e2ef 4bbf d9fe f8bf 953d 3dbf a645 debf
00000240: 5315 64c0 39ba 06c0 4bbd e63e 2dc8 0bc0
00000250: 50ea 49c0 e98b a53d 7cea c63d 4af5 a03e
00000260: 3f77 47c0 0003 023e 8fe8 4dc0 f3ee c0bd
00000270: 20c2 c7be 2f78 5cbd 9603 95bf 3463 39c0
00000280: 2a80 56bd f66c 1abd f16f df3e a57d 513e
00000290: 7ea8 2340 df11 323f 027c bcbd a46b bf3e
000002a0: 62c2 903b dce7 823f 146b 2f3c 5870 1e40
000002b0: ed93 00c0 1624 61be 0812 623f 3ab9 39c0
000002c0: 603c 083f 9862 d53e c098 4dbc a3a6 10bf
000002d0: e864 0a40 8dad a83d 60d8 33bd 55b9 b7bd
000002e0: b559 3b40 159c 203f 839a 3bc0 97d8 b23d
000002f0: 095d 12bd 6578 e8be 7140 1040 beb8 2140
00000300: 2bd0 9b3e 40ad ec3c 67bb 0a3f 3bac 92be
00000310: 0ed5 1940 0c51 0f3f ae0f 2b3f b43d 533e
00000320: 3325 223e 0e20 8c3f bf26 3a3d bd57 1640
00000330: 9c15 03c0 cd6b 143f 6976 953f 989a dfbf
00000340: 3058 6f3e 7203 e53e 95df 71bc 7d5b 0240
00000350: ea38 3c40 7824 123e 2916 043d 6932 d1bd
00000360: bddb 3540 4533 433f e0f2 10c0 a613 ec3c
00000370: a2b0 5cbe 77d4 87be f40b 0340 4094 3f40
00000380: f49c cfbd e800 f0be 5f28 fabd 40cd a5be
00000390: 1d9f 12bf 82db 333f ff70 d43e 32a3 1d3f
000003a0: 6edb 3abe e50e 48bf 38a0 823f d10f 11bf
000003b0: 8940 c1bf 476d 453f 5fa8 bc3f 21b2 55bf
000003c0: 57fa a23e 1890 fc3d 01da c8bb 2403 9abf
000003d0: 57a5 79bf 9c92 32bd 520e c7bd e590 d03f
000003e0: 5366 9cbe 58a7 c73f 7a4a c1bf a79f 753e
000003f0: e023 343d 17f7 4bbe e0e5 6cbf f6da 233e
0.22425735 0.1770936 -3.184185 0.23986208 0.5327393 -0.9046584 -1.673181 -1.0270299
0.16116837 -1.5049212 -0.28570727 -1.8102077 -0.4161454 -1.1562206 -0.7195537 -1.8547099
-2.0952277 -1.3404719 -0.48050466 -2.270928 -3.063083 0.22096054 -0.19623359 0.2457012
-3.313715 -0.12167384 -2.7828279 0.18535595 -0.0017243368 -0.007957407 -1.0210936 -3.2660232
-0.06890155 0.33849427 -2.6819303 0.11839574 -0.34974706 -1.3146306 -1.642248 -1.4383899
-0.30096656 -1.7972484 -0.1907933 -1.9371436 0.28186226 -2.1370134 -1.133008 -0.53156006
-1.2095451 -1.9791522 0.5356344 -2.630848 -3.069008 -0.0660211 0.07609576 0.04593938
-2.9677057 -0.28829923 -1.4782277 -0.015914677 0.0049955123 -0.042856675 -1.7278627 -3.0065992
-0.061363257 0.55343795 -2.415882 0.063598365 -0.50069433 -1.3226305 -2.649372 0.12771384
0.2092649 -1.1229292 0.5904641 -2.1010046 0.44763768 -1.9290503 -2.0244613 -0.13520499
-3.2150443 -0.23885748 0.20427452 -2.7712464 -3.245472 -0.22735253 -0.2246486 0.21985565
-3.3921742 0.2553234 -0.73199856 -0.3078267 0.03091617 -0.03641113 -1.7635593 -3.5534055
-0.28510147 -0.647521 0.8179776 -0.04810545 -0.0140368305 0.6254381 0.8156391 0.77910984
0.08249669 -0.8100031 0.60602087 -1.3094599 -1.3868256 0.8625993 1.6807296 -1.5394353
0.59653544 0.77768046 0.05186705 -1.2219337 -1.0768186 -0.002017661 0.006641163 0.76175094
-0.115816884 1.417783 -2.4289773 -0.17198287 0.068485364 -0.31057113 0.7400926 0.93422055
-0.3039206 -0.18889701 -3.7796333 -0.013360747 0.45571324 -1.3801787 -3.0436027 -1.450017
-0.17499128 -1.9252208 -0.4634257 -1.7993671 -0.7966291 -1.9452773 -0.7392209 -1.7365005
-3.5638015 -2.1051161 0.45066294 -2.1840928 -3.1549263 0.08083326 0.09712693 0.3143714
-3.1166532 0.12696457 -3.2173193 -0.09420576 -0.39015293 -0.053825554 -1.1641719 -2.8966799
-0.05236832 -0.03770157 0.43640092 0.20458086 2.557159 0.6955852 -0.0920334 0.3738681
0.0044177035 1.0227008 0.010706682 2.475607 -2.0090287 -0.21986422 0.88308764 -2.9019303
0.53217125 0.41676784 -0.0125486255 -0.5650427 2.1624088 0.08236227 -0.043907523 -0.08970896
2.9273503 0.6273816 -2.9313056 0.087327175 -0.035733256 -0.45404354 2.2539332 2.5269008
0.30432257 0.028891206 0.54192203 -0.28647026 2.4036288 0.5598304 0.668208 0.20629007
0.15834503 1.0947282 0.045447107 2.3491051 -2.048194 0.5797699 1.1676761 -1.7469053
0.23373485 0.4472919 -0.014762779 2.036834 2.9409738 0.14271724 0.032247696 -0.10214693
2.8415368 0.76250106 -2.264824 0.028817963 -0.21551755 -0.26529285 2.0476046 2.9934235
-0.10137358 -0.4687569 -0.122147314 -0.32383156 -0.5727404 0.7025682 0.4149246 0.6157714
-0.18247768 -0.7814773 1.0205145 -0.5666476 -1.509782 0.7711987 1.4738883 -0.8347493
0.3183162 0.12332171 -0.0061295037 -1.2032208 -0.97517914 -0.04359685 -0.09719528 1.6294218
-0.30546817 1.5597944 -1.5100853 0.23986684 0.043979526 -0.19918476 -0.9253826 0.16001496

network.3.bias f4 [32]
00000000: 08f2 bc3d ff7f 1f3e cd60 3b3e 7e69 0bba
00000010: e0ea b63d d48e a9bb 2dff 293b 5b3d 3539
00000020: 4cce 133e 6396 edbc 42b2 d73d 3380 e33d
00000030: 4748 bd3d 6a90 0a3e fc40 00bb 80ad 1b3e
00000040: 73c9 973d f45d c23d 7d34 263e a5b1 343e
00000050: c9d0 a6be 8802 1abb d85b 13bb a6bb 073e
00000060: 5368 8cbb ae7c 8e3d a73d 003e fc49 cfbb
00000070: cae5 d33d 7d70 d13d f39e 583e c639 18bb
0.09225851 0.1557617 0.18298645 -0.0005318149 0.089315176 -0.005174497 0.002593945 0.00017284362
0.14434165 -0.029002374 0.10532047 0.111084364 0.092423014 0.13531652 -0.0019569984 0.15202904
0.0741147 0.094905764 0.1623096 0.17645891 -0.32581165 -0.0023500044 -0.0022485163 0.13255176
-0.0042848974 0.069573745 0.12523519 -0.0063259583 0.10346563 0.102265336 0.21154384 -0.0023227795

network.6.weight f4 [2, 32]
00000000: efc4 a13f 6237 563f 5ea1 3c3f 91bf 86bf
00000010: fda2 a53f e8c2 31c0 3f37 01c0 902e 86bf
00000020: 8ad3 6a3f 8204 b3c0 1c77 8b3f 2847 823f
00000030: 036c b63f 744e 5f3f ad7a a4bf bcf7 633f
00000040: 5f3a c13f 0372 c73f e71b 593f 6555 2a3f
00000050: 818e a1be 9dfc b6bf 00c7 adbf 3e99 663f
00000060: d20b 01c0 4814 e03f 3ccf 8f3f 832e 8abf
00000070: fa51 b53f 29c6 8e3f 783e 223f 414a 9dbf
00000080: de5f b63f 3716 763f 8462 403f 0110 b4bf
00000090: b7c0 bd3f be0a 8ebf af5d 93bf 932f 11c0
000000a0: 6a77 7c3f ae95 6bc0 6a18 973f d9bf 9a3f
000000b0: c5bb ad3f a127 573f a4b3 cdbf efb8 743f
000000c0: 7d59 c63f 56df 673f 9313 5d3f fbdb 463f
000000d0: bfe7 04c0 00bf a1bf cb29 c5bf 5933 8a3f
000000e0: f171 bbbf d8e9 ed3f 1e9d 903f 76cf d8bf
000000f0: fe52 be3f 288c a33f a096 293f 27d7 efbf
1.2638224 0.8367826 0.73683727 -1.0527211 1.2940365 -2.7775211 -2.018997 -1.048296
0.91729033 -5.5943003 1.0895724 1.0177965 1.4251713 0.87229085 -1.2849938 0.8904989
1.5095938 1.5581669 0.848082 0.6653655 -0.31554034 -1.4295841 -1.3576355 0.9007758
-2.0163465 1.7506189 1.1235118 -1.0795444 1.4165642 1.1154224 0.6337657 -1.2288285
1.4248006 0.9612765 0.7515032 -1.4067384 1.4824437 -1.1097028 -1.1512965 -2.2685287
0.9861971 -3.6810107 1.1804326 1.2089797 1.3572928 0.84044844 -1.6070447 0.95594686
1.549606 0.9057516 0.8635799 0.77679414 -2.0766447 -1.2636414 -1.5403379 1.079692
-1.4644147 1.8586988 1.1297948 -1.6938312 1.4869077 1.2777147 0.6624546 -1.8737534

network.6.bias f4 [2]
00000000: d4c3 8441 c1f7 8341
16.59562 16.495974

network.0.weight f4 [32, 4]
00000000: 6afb 18be 85a4 a1be bb2b c1bc 1326 223d
00000010: 580d 67bd 5ed9 2cbf 6983 a7bd 9704 03be
00000020: 53a5 8bbf 2497 793f c584 58be f27b 053e
00000030: bb53 2c3e e87b 06bf 3b10 c03d 3041 1bbe
00000040: 5fc3 5f3f 5392 5ebf 9de5 553e e9b0 6ebd
00000050: d8d1 64bf b82e 523f 7217 98bd 9216 473d
00000060: 6943 7abf fe21 6d3f 690d 3bbd 1a35 543c
00000070: 7507 4bbf df96 333f 2fe3 afbe 92d0 203e
00000080: 3b66 e8be 5f8d c2be 6437 ffbd 1a03 babd
00000090: c21c 403f bc3b 86bf 812d 763e 1f01 bcbd
000000a0: cd13 4ebf 60a6 333f 2a1c 92be a36f 603d
000000b0: 4023 763f 1c6a 74bf 77c9 423d 8649 02bd
000000c0: 2d72 40be 0861 d9bf 3b25 12bd c9aa 33be
000000d0: 08fa 5fbf c8a8 5d3f 2a3c 37bb 422d 873b
000000e0: c716 79bf bba6 6e3f 439b 26bd 6e6b 0d3c
000000f0: baca a33e dfc3 133f 2530 8e3d d325 033e
00000100: bd11 82bf 3d4d 653f 689f 15be 1e4f 473d
00000110: fc46 78bf 260b 5b3f 94fd aabe 79c8 1a3e
00000120: c94b 16bf 60c9 96be 0286 0f3c 699b a23e
00000130: 42c0 703f a137 8dbf 825b c83d 570f f53c
00000140: 0723 743f 9d97 84bf 2f45 6a3d 437f 263d
00000150: 08fd 8a3e 7a9f a03c 3395 8f3e 7e55 bdbc
00000160: a569 06bf 6e10 8abe f51b f73d 8e44 353e
00000170: cd96 39bf d3a9 2a3f 1c5e c4bd cfe7 9c3d
00000180: c4c9 863f 13bf 88bf 48ef 5e3e 877c 0fbe
00000190: e473 7dbf b3a0 663f c00d 75be 0cd4 193e
000001a0: f0c1 a03e 6224 1c3f 4fd6 beba bb18 053e
000001b0: c260 a9be 8bfd d7be 1552 3ebe 75a9 51bd
000001c0: 0a61 babe 190c c53d cedc 18be 01fb ce3d
000001d0: 0cb6 a3be d098 15bf d9a6 61be 1223 d9bd
000001e0: 968d 703f 5caa 6ebf 36cd 143d 74a8 81bc
000001f0: 0428 8d3f 0d5f 8dbf a17e 083e 0af0 b2bd
-0.14939657 -0.3157083 -0.023580423 0.03958709 -0.05640921 -0.67519176 -0.081793614 -0.1279472
-1.0909828 0.9749625 -0.21144398 0.13035563 0.16828816 -0.52532816 0.09378096 -0.15161586
0.8740749 -0.86942023 0.20888372 -0.058274183 -0.89382696 0.8210254 -0.07426347 0.04860551
-0.9775911 0.9262999 -0.045667086 0.0129521135 -0.79308254 0.70152086 -0.34353015 0.15704563
-0.45390496 -0.37998483 -0.12461737 -0.09082623 0.7504388 -1.048698 0.24040796 -0.09179901
-0.80498964 0.70175743 -0.28537112 0.054793965 0.9614754 -0.9547441 0.047555413 -0.0318084
-0.18793555 -1.6982737 -0.035680037 -0.17545618 -0.8749089 0.86585665 -0.0027959445 0.004125268
-0.9730038 0.9322316 -0.040675413 0.00863157 0.31990606 0.5772075 0.069427766 0.12807398
-1.0161663 0.8957098 -0.1461159 0.048659436 -0.96983314 0.85563886 -0.3339659 0.15115537
-0.5870939 -0.29450512 0.008759977 0.31759194 0.9404336 -1.1032602 0.09783079 0.029914541
0.9536595 -1.0358769 0.057194885 0.04064871 0.27146173 0.019607294 0.28043517 -0.023112055
-0.5250495 -0.2696566 0.12065879 0.17701933 -0.7249573 0.6666538 -0.095882624 0.076614015
1.0530324 -1.0683311 0.21770966 -0.14012347 -0.9900496 0.9008896 -0.23931026 0.15022296
0.31397963 0.60993016 -0.0014559719 0.12997715 -0.33081633 -0.42185625 -0.18586 -0.051186997
-0.3640216 0.09621448 -0.1492798 0.10106469 -0.31974828 -0.584363 -0.22036304 -0.10602392
0.93966043 -0.932287 0.036328517 -0.015827395 1.1027837 -1.1044632 0.13329555 -0.0873719

network.0.bias f4 [32]
00000000: 0000 0000 edd5 35be a8ab 13be 8c27 43be
00000010: 8cfe 30be f892 b6bd c613 debd a376 52be
00000020: b867 bebd f9c8 91be 2f5f 5cbd 339c 07be
00000030: adf0 633e d736 e5bd 2f68 c9bd 9b0b 3fbf
00000040: fbb1 d7bd 792a 57be 5f0f 28be d271 7cbe
00000050: dc46 87be 89f2 07bf 4640 8bbd 9c8b 3dbd
00000060: 983e 8cbe f82f 08be a176 59bf 6764 1fbe
00000070: 6765 84be b360 24be 0410 02be 99f4 4ebe
0.0 -0.17757387 -0.1442095 -0.19058055 -0.17284602 -0.08914751 -0.10843615 -0.20553069
-0.092971265 -0.28473642 -0.05380171 -0.13243179 0.2225978 -0.111921005 -0.098343246 -0.74627084
-0.10531994 -0.21012296 -0.16412114 -0.24652794 -0.2642125 -0.53104454 -0.067993686 -0.04627572
-0.27391505 -0.13299549 -0.8494664 -0.15565644 -0.25858614 -0.16052513 -0.12701422 -0.20210494

network.3.weight f4 [32, 32]
00000000: b8a3 653e 0658 353e 8d1d 4bc0 689e 753e
00000010: d664 053f 7247 66bf aeef d6bf 139c 83bf
00000020: 5209 253e 42a1 c0bf bd18 96be bba2 e5bf
00000030: 41dc c8be fb75 93bf 0833 39bf 8fe0 f0bf
00000040: 4f29 06c0 6237 adbf b504 f6be e256 11c0
00000050: 8d09 44c0 7b43 623e 75f1 48be a824 783e
00000060: 381e 54c0 1628 fcbd bc84 31c0 f3cd 3d3e
00000070: 2403 e2ba c95f 02bc 29f3 7bbf 132f 50c0
00000080: 411c 8dbd 1f4f ad3e 08ec 2cc0 7779 f23d
00000090: 8f4b b7be df7e a9bf f940 d3bf 0d38 b7bf
000000a0: 4a18 9abe 3c0c e6bf 0a9e 4dbe 5920 f2bf
000000b0: 4045 a03e 522c 08c0 6ac8 90bf 25f4 0dbf
000000c0: cefe 9bbf 5bcd fdbf 561f 093f d05f 28c0
000000d0: a16a 44c0 1236 87bd 18d8 9b3d c2c6 e63c
000000e0: d1dd 3ec0 956b a3be d254 c1bf 7f5f 82bc
000000f0: 65b1 a33b 7b8a 2fbd 2afc d5bf 7dcf 3ec0
00000100: 0a58 7bbd 1cae 0d3f 1c1e 1dc0 dc3f 823d
00000110: 290a 09bf f08d acbf 504f 29c0 8279 043e
00000120: 8a49 563e 25bc 8fbf 4a3b 123f 8dbc 03c0
00000130: e62e ef3e 37ce f3bf 9950 02c0 b27c fabd
00000140: e37d 4ec0 49a5 8fbe 572d 513e 1a5c 31c0
00000150: d0b5 4fc0 1acf 68be 480a 66be 9986 483e
00000160: bb79 5ac0 5eeb 603e fbd8 3dbf 769b 9dbe
00000170: e843 fd3c d623 15bd 0f6d dbbf 2398 61c0
00000180: d2f8 91be f0c3 25bf 2ce9 533f 380a 45bd
00000190: 427d e5bc abda 213f fce0 563f f9b7 463f
000001a0: 06f4 a83d 5d5c 4fbf 965c 1b3f 2f6c a5bf
000001b0: 8a80 b5bf 9396 613f f319 da3f ddfe c7bf
000001c0: b876 1b3f b9d8 4b3f 8b72 543d 5368 9cbf
000001d0: 31d5 89bf bc3a 04bb 1d9e d93b c9ad 463f
000001e0: 9450 02be e73b b73f 4d68 1bc0 471c 30be
000001f0: 0e42 8c3d 2e03 9fbe 8abb 353f 4169 683f
00000200: 7b9b 9bbe 386e 41be ab71 6fc0 09e7 5abc
00000210: 090b e13e a509 b4bf c9da 43c0 a00f b5bf
00000220: ea30 33be a36d f6bf 3577 f7be f849 e4bf
00000230: 1e2b 47bf 754b f8bf a696 3cbf 6faf e2bf
00000240: bb0c 65c0 013e 06c0 4bbd e63e 2dc8 0bc0
00000250: 50ea 49c0 e98b a53d 7cea c63d 5f58 9e3e
00000260: c08c 47c0 3261 0c3e 8f25 4dc0 f3ee c0bd
00000270: 20c2 c7be 2f78 5cbd cec6 91bf 0243 39c0
00000280: 2a80 56bd f66c 1abd 272f e03e a57d 513e
00000290: c7a1 2240 cf3a 2f3f 2f64 b2bd 3b42 b93e
000002a0: 62c2 903b dce7 823f 957c ee3b 8900 1f40
000002b0: 8e4c fbbf 3a06 5fbe 542b 633f 456d 39c0
000002c0: 49a2 063f 4e76 dc3e c098 4dbc a3a6 10bf
000002d0: e864 0a40 8dad a83d 60d8 33bd 68ac a0bd
000002e0: f8e7 3a40 ba12 213f be15 39c0 97d8 b23d
000002f0: 095d 12bd 6578 e8be 05bd 0f40 72bd 2240
00000300: 2bd0 9b3e 40ad ec3c a0ec 083f 3bac 92be
00000310: e74b 1940 ca12 0a3f 10cd 2a3f 4afd 463e
00000320: 3325 223e 0e20 8c3f 7c85 0a3d d0f3 1540
00000330: 4d4e 00c0 9cf3 123f 2f18 953f 4a12 e3bf
00000340: 22fe 653e 4393 ec3e 95df 71bc 7d5b 0240
00000350: ea38 3c40 7824 123e 2916 043d 6bbf ccbd
00000360: e647 3440 6aea 403f f7a1 10c0 a613 ec3c
00000370: a2b0 5cbe 77d4 87be 0c18 0140 f071 3f40
00000380: f49c cfbd e800 f0be ed52 eebd 40cd a5be
00000390: 1d9f 12bf f8f1 343f 05ea e03e 69a2 1b3f
000003a0: 6edb 3abe e50e 48bf de71 813f 8634 0cbf
000003b0: d588 bebf 146b 4a3f 2cf3 bf3f 4b15 54bf
000003c0: de35 a73e 6075 103e 01da c8bb 2403 9abf
000003d0: 57a5 79bf 9c92 32bd 520e c7bd 5994 d23f
000003e0: 5366 9cbe 8da3 c83f 9d24 c0bf a79f 753e
000003f0: e023 343d 17f7 4bbe 4779 6abf 0d94 203e
0.22425735 0.1770936 -3.1736786 0.23986208 0.5210699 -0.89952767 -1.6791894 -1.0282005
0.16116837 -1.5049212 -0.2931575 -1.7940286 -0.3923054 -1.152038 -0.7234349 -1.881853
-2.0962713 -1.3532526 -0.48050466 -2.270928 -3.063083 0.22096054 -0.19623359 0.24232733
-3.3143444 -0.12312333 -2.7737265 0.18535595 -0.0017243368 -0.007957407 -0.9841791 -3.2528732
-0.06890155 0.33849427 -2.7019062 0.11839574 -0.35799834 -1.3241843 -1.6504203 -1.431398
-0.30096656 -1.7972484 -0.20079818 -1.8916122 0.31302834 -2.127705 -1.1311162 -0.5545066
-1.2187135 -1.9828295 0.5356344 -2.630848 -3.069008 -0.0660211 0.07609576 0.028170947
-2.9822886 -0.31918016 -1.510401 -0.015914677 0.0049955123 -0.042856675 -1.6717579 -2.981414
-0.061363257 0.55343795 -2.4549627 0.063598365 -0.5353113 -1.3480816 -2.6454659 0.12936977
0.2092649 -1.1229292 0.5712172 -2.0583832 0.46715468 -1.9047307 -2.0361693 -0.12230815
-3.2264335 -0.2805579 0.20427452 -2.7712464 -3.245472 -0.22735253 -0.2246486 0.19582595
-3.4136798 0.21964785 -0.7415921 -0.3078267 0.03091617 -0.03641113 -1.7142657 -3.5249107
-0.28510147 -0.647521 0.8277767 -0.04810545 -0.02801383 0.63224286 0.8393705 0.7762447
0.08249669 -0.8100031 0.6068815 -1.292364 -1.4179852 0.88120383 1.7039169 -1.5624653
0.60728025 0.7962757 0.05186705 -1.2219337 -1.0768186 -0.002017661 0.006641163 0.77608925
-0.1272605 1.4315156 -2.428241 -0.17198287 0.068485364 -0.31057113 0.70989287 0.90785605
-0.3039206 -0.18889701 -3.7413127 -0.013360747 0.43953732 -1.4065443 -3.0602286 -1.4145393
-0.17499128 -1.9252208 -0.48333135 -1.7835073 -0.77800167 -1.9398028 -0.7366737 -1.7709788
-3.578902 -2.0975344 0.45066294 -2.1840928 -3.1549263 0.08083326 0.09712693 0.30926797
-3.1179657 0.13708952 -3.2054174 -0.09420576 -0.39015293 -0.053825554 -1.1388795 -2.8947148
-0.05236832 -0.03770157 0.43785974 0.20458086 2.541124 0.6844911 -0.08710515 0.36183342
0.0044177035 1.0227008 0.007278035 2.4844077 -1.9632738 -0.21779719 0.8873799 -2.8972943
0.5259138 0.4305901 -0.0125486255 -0.5650427 2.1624088 0.08236227 -0.043907523 -0.07845384
2.9204082 0.629192 -2.891952 0.087327175 -0.035733256 -0.45404354 2.2459118 2.5428128
0.30432257 0.028891206 0.5348606 -0.28647026 2.3952577 0.5393492 0.6671915 0.1943256
0.15834503 1.0947282 0.033818707 2.3430061 -2.004779 0.5740297 1.1648005 -1.7739956
0.22460225 0.46206102 -0.014762779 2.036834 2.9409738 0.14271724 0.032247696 -0.099974476
2.8168883 0.7535769 -2.2598855 0.028817963 -0.21551755 -0.26529285 2.0170927 2.9913292
-0.10137358 -0.4687569 -0.116369106 -0.32383156 -0.5727404 0.70681715 0.43928543 0.60794693
-0.18247768 -0.7814773 1.0112875 -0.54767644 -1.4885508 0.7906964 1.4996085 -0.8284499
0.32658285 0.14107275 -0.0061295037 -1.2032208 -0.97517914 -0.04359685 -0.09719528 1.6451522
-0.30546817 1.5674912 -1.5011173 0.23986684 0.043979526 -0.19918476 -0.91591305 0.15681477

network.3.bias f4 [32]
00000000: fccd a73d aba7 1a3e f5db 3e3e 8afa 83bb
00000010: baf4 af3d 9946 09bc c9b2 b73a edfe b83a
00000020: f75a 103e 4051 bcbc 6c1b d63d 30db e73d
00000030: 1bce b23d cb99 143e 802f 403a 1da5 243e
00000040: bc15 883d bc3b b93d 498b 253e 1489 4c3e
00000050: e2e0 a4be 1920 6bbc 8135 7d3a 1c6b 0c3e
00000060: 4cb0 84bb 22e8 953d 331b ff3d 56b5 9bbb
00000070: 76af c73d 6afd dd3d 6b27 5f3e 421b 9cba
0.08193585 0.15103023 0.18638594 -0.0040276693 0.085916 -0.008378648 0.0014015074 0.001411406
0.140972 -0.022987962 0.10454449 0.113211036 0.08730718 0.14511792 0.0007331297 0.1607861
0.066447705 0.090445966 0.16166414 0.19974166 -0.32202822 -0.014350914 0.0009659157 0.13712734
-0.0040493365 0.073196664 0.1245636 -0.0047518415 0.097502634 0.108393505 0.2179238 -0.0011909979

network.6.weight f4 [2, 32]
00000000: 4da8 a23f 70a0 523f 903f 3c3f 87e1 87bf
00000010: 7eee a63f 5eed 31c0 0dfa 00c0 ff05 86bf
00000020: c9bb 693f f67a b2c0 3e0e 8c3f 75fe 823f
00000030: a301 b83f 94e8 5f3f cf93 a2bf c068 623f
00000040: c976 c23f 00ea c63f 5e4b 583f 8d75 2e3f
00000050: 818e a1be 29c4 b6bf dc80 acbf 06b8 653f
00000060: 103e 01c0 4da8 e23f 9345 913f 235f 88bf
00000070: ba9a b73f 8218 903f f84b 243f b8bc 9cbf
00000080: 54d0 b23f 3f17 783f f2c7 413f 89d2 b5bf
00000090: aec7 bb3f 40d7 8bbf d0a4 90bf 42b5 12c0
000000a0: 87c8 7a3f d269 69c0 c403 973f 013b 9a3f
000000b0: 3ca0 aa3f feaa 593f c461 cebf 7004 773f
000000c0: b822 c33f 7116 663f 2399 5b3f d0b1 493f
000000d0: e81d 05c0 5451 9fbf 5bb8 c3bf ddf5 8a3f
000000e0: 7071 bbbf a917 ec3f d8ab 903f 80d9 d9bf
000000f0: 53cc bc3f fda0 a33f b332 293f 2292 f0bf
1.2707611 0.8227606 0.7353449 -1.06157 1.3041532 -2.7801127 -2.015262 -1.047058
0.9130216 -5.57751 1.0941846 1.0233904 1.43755 0.8746426 -1.2701358 0.88441086
1.51925 1.5540161 0.8449 0.6814812 -0.31554034 -1.4278613 -1.3476825 0.8973392
-2.019413 1.7707611 1.1349357 -1.0654033 1.4344094 1.1257479 0.6417842 -1.2245092
1.3969827 0.9691047 0.7569572 -1.4204875 1.4670312 -1.0925064 -1.1300297 -2.292313
0.9796223 -3.6470838 1.1798024 1.2049257 1.333015 0.8502654 -1.6123586 0.96491146
1.524497 0.8987799 0.85780543 0.78786945 -2.0799503 -1.2446694 -1.5290636 1.0856282
-1.4643993 1.844472 1.1302443 -1.7019501 1.4749855 1.2783505 0.66092986 -1.8794596

network.6.bias f4 [2]
00000000: 2596 8441 80d1 8341
16.573313 16.477295

exp_avg f4 [32, 4]
00000000: 0000 0000 0000 0000 0000 0000 0000 0000
00000010: 0400 0000 0400 0000 0400 0080 0400 0080
00000020: c117 40bc cbfb 47bc a97e 323c e94d afbc
00000030: 0400 0000 0400 0000 0400 0080 0400 0080
00000040: 2c3c 643d 2eb0 2a3d c245 693c 2a53 2fbd
00000050: 0f77 c5bb fc98 d0bb 857b ac3b b139 48bc
00000060: cc4a 0dbc ee94 23bc a81e 82bb d2a8 333c
00000070: d9ee a93b 3000 fe3b c7f5 2c3a 95fb 093c
00000080: 0400 0000 0400 0000 0400 0080 0400 0080
00000090: 0400 0000 0400 0000 0400 0000 0400 0080
000000a0: 9daa 19bb 00ad f8ba 99dd 1d3b 57e0 0ebc
000000b0: dc3a 943d 2af0 4b3d bdfe ecbc d309 cbbd
000000c0: 369f 333b 3d50 c33a 5fb0 3e3a b297 2fbc
000000d0: 5089 c13b bb56 0f3c 2e56 183c b072 f9b9
000000e0: 170c 5ebb 6767 eeba 5744 f53b bb34 5e3c
000000f0: 043f 683a 8179 afbb debb a03a f975 a8bb
00000100: 82e5 a4bb b5a6 afbb e8ad a43b 3763 39bc
00000110: 9230 42bb ed9b 12bb addf aa3b b339 babb
00000120: 0400 0000 0400 0000 0400 0080 0400 0000
00000130: 0400 0000 0400 0000 0400 0000 0400 0080
00000140: 0400 0000 0400 0000 0400 0000 0400 0080
00000150: 0400 0000 0400 0000 0400 0000 0400 0080
00000160: 0400 0000 0400 0000 0400 0080 0400 0000
00000170: 9343 93ba da95 83b9 a83d 313b 80a6 45bb
00000180: bfe7 4e3d 2e7c 183d 99f0 163c b275 35bd
00000190: 6d18 e1bb 23dc debb e12e 103c 2723 60bc
000001a0: 1a33 023b 306a 203b 678d 313a e8fa 183b
000001b0: 0400 0000 0400 0000 0400 0080 0400 0080
000001c0: 0400 0000 0400 0000 0400 0080 0400 0000
000001d0: 0400 0000 0400 0000 0400 0080 0400 0080
000001e0: 5e8d 673d 82a7 2d3d 7afb efbb cc3f 6abd
000001f0: a545 a43d a801 823d c008 963b 8aed 87bd
0.0 0.0 0.0 0.0 6e-45 6e-45 -6e-45 -6e-45
-0.011724413 -0.012206028 0.010894456 -0.021399455 6e-45 6e-45 -6e-45 -6e-45
0.055721447 0.041671924 0.014237823 -0.04280392 -0.006026156 -0.0063658934 0.005263748 -0.012220786
-0.00862379 -0.009984238 -0.0039709397 0.010965543 0.0051859436 0.007751487 0.0006597903 0.008421798
6e-45 6e-45 -6e-45 -6e-45 6e-45 6e-45 6e-45 -6e-45
-0.002344764 -0.0018972456 0.0024088381 -0.008720479 0.07237789 0.049789585 -0.028930062 -0.09913983
0.002740813 0.0014901232 0.0007274206 -0.010717319 0.0059062615 0.0087487055 0.009297891 -0.0004757843
-0.0033881718 -0.0018188775 0.0074849534 0.013562377 0.0008859488 -0.0053550606 0.001226302 -0.0051410166
-0.0050322423 -0.005360449 0.005025614 -0.011315159 -0.0029631 -0.002237077 0.0052146525 -0.005683148
6e-45 6e-45 -6e-45 6e-45 6e-45 6e-45 6e-45 -6e-45
6e-45 6e-45 6e-45 -6e-45 6e-45 6e-45 6e-45 -6e-45
6e-45 6e-45 -6e-45 6e-45 -0.0011235349 -0.00025097915 0.0027044807 -0.0030159056
0.05051398 0.037227802 0.009212636 -0.044301696 -0.006869367 -0.0068011447 0.008800239 -0.013680256
0.0019866885 0.0024477355 0.0006773085 0.002334291 6e-45 6e-45 -6e-45 -6e-45
6e-45 6e-45 -6e-45 6e-45 6e-45 6e-45 -6e-45 -6e-45
0.056531303 0.042396076 -0.0073236795 -0.057189748 0.08021096 0.06347972 0.00457868 -0.06637104

exp_avg_sq f4 [32, 4]
00000000: 0000 0000 0000 0000 0000 0000 0000 0000
00000010: f401 0000 f401 0000 f401 0000 f401 0000
00000020: 80e2 3e3b ac2c 9a3b dd78 903a 2968 243c
00000030: f401 0000 f401 0000 f401 0000 f401 0000
00000040: 0a01 c43b 353a 6d3b 681d ae3b 189c db3b
00000050: cfbf 3a3b 42d2 b13b 574c a13a 609c ef3b
00000060: 9dd1 a23b a7c2 073c ee7e e03a bb7f ed3b
00000070: bb40 a23a 493d 093b 91d4 563a cadf 7e3b
00000080: f401 0000 f401 0000 f401 0000 f401 0000
00000090: bd0c 4916 d463 c915 f7e4 0116 b623 0417
000000a0: fb1a d33a 014d 1c3b d9ce c53a b877 473b
000000b0: b2c8 013d e1b9 8d3c e2aa 8a3c a811 333d
000000c0: 0869 4f39 725e 3638 92e8 d538 9f6d af3a
000000d0: 30f1 ff3b d911 4d3c a242 463b 3bc3 0d3c
000000e0: 6513 323c 28e3 9f3c 3dbf 883b 4a5c a83c
000000f0: 6dce c33b 21c8 1e3c c7f2 aa3a b5ea 0f3c
00000100: 65a4 153b c5a1 863b eab1 7d3a 2a41 ce3b
00000110: 5358 b03a aa68 0a3b 7d58 7a3a 4b55 8b3b
00000120: f401 0000 f401 0000 f401 0000 f401 0000
00000130: 0af7 6416 4806 ce15 cd26 0115 4b13 c816
00000140: 232e db30 46e9 3430 0e42 1430 539d 5731
00000150: a058 1830 62a5 3330 b73d 5830 dc7a 1e30
00000160: f401 0000 f401 0000 f401 0000 f401 0000
00000170: 0385 843a 59b1 043b cc9d e539 7ab7 223b
00000180: e9d0 af3b 763b 4c3b cbbf 7e3b 3d6b ee3b
00000190: 0b32 8c3b 1eef 023c 06f8 e13a f3f3 433c
000001a0: 70cf 583b 83b2 a13b 5363 163a 9190 af3b
000001b0: f401 0000 f401 0000 f401 0000 f401 0000
000001c0: f401 0000 f401 0000 f401 0000 f401 0000
000001d0: f401 0000 f401 0000 f401 0000 f401 0000
000001e0: 0803 b03c 7907 403c 7ef6 2f3c 314e f63c
000001f0: 68dc 633c 3517 043c 8e19 f73b eb5b b83c
0.0 0.0 0.0 0.0 7e-43 7e-43 7e-43 7e-43
0.0029126704 0.0047050323 0.0011022348 0.010034599 7e-43 7e-43 7e-43 7e-43
0.005981569 0.0036198024 0.005313564 0.0067019574 0.0028495674 0.005426676 0.0012306076 0.0073123425
0.0049688355 0.008286155 0.0017127672 0.0072478927 0.001237891 0.002094107 0.0008195127 0.0038890713
7e-43 7e-43 7e-43 7e-43 1.624067e-25 8.1340754e-26 1.0492786e-25 4.2696574e-25
0.0016106063 0.002384961 0.0015091553 0.0030436348 0.03168554 0.017300548 0.016927186 0.04371801
0.00019780186 4.348014e-05 0.00010199951 0.001338411 0.007810734 0.012516462 0.0030252119 0.008652504
0.010868882 0.019517496 0.004173188 0.02055182 0.0059755356 0.009691269 0.0013042324 0.008783986
0.0022833582 0.00410864 0.00096776953 0.0062943893 0.0013454057 0.0021119514 0.0009549929 0.004252111
7e-43 7e-43 7e-43 7e-43 1.8495645e-25 8.321265e-26 2.608195e-26 3.2323918e-25
1.594746e-09 6.581512e-10 5.3935956e-10 3.1376046e-09 5.542322e-10 6.5354844e-10 7.8668044e-10 5.765466e-10
7e-43 7e-43 7e-43 7e-43 0.0010110441 0.002024731 0.00043795852 0.0024828599
0.00536548 0.0031163371 0.0038871642 0.0072759674 0.0042784265 0.00799158 0.0017240054 0.0119600175
0.0033082627 0.0049346103 0.00057368464 0.00535781 7e-43 7e-43 7e-43 7e-43
7e-43 7e-43 7e-43 7e-43 7e-43 7e-43 7e-43 7e-43
0.02148582 0.011720532 0.010739921 0.030066581 0.013907529 0.008062174 0.007540888 0.022504767

exp_avg f4 [32]
00000000: 0000 0000 0400 0000 39df fbbc 0400 0000
00000010: 083b aa3d 3515 6bbc ff08 1abc 476d 213c
00000020: 0400 0000 0400 0000 be42 90bb e434 fd3d
00000030: af25 583c 2706 453c fc4b 31bb 01f7 b4bb
00000040: 4d96 51bc 0e32 c8bb 0400 0000 0400 0000
00000050: 0400 0000 0400 0000 0400 0000 2527 38bb
00000060: cb44 933d 3335 91bc 7027 353b 0400 0000
00000070: 0400 0000 0400 0000 03fb a33d f77a cf3d
0.0 6e-45 -0.03074609 6e-45 0.083120406 -0.014348318 -0.009401559 0.009852714
6e-45 6e-45 -0.0044024875 0.12363604 0.013192578 0.012025393 -0.0027053347 -0.005522609
-0.012792182 -0.0061094826 6e-45 6e-45 6e-45 6e-45 6e-45 -0.0028099504
0.071908556 -0.017725563 0.0027641915 6e-45 6e-45 6e-45 0.08006861 0.101308756

exp_avg_sq f4 [32]
00000000: 0000 0000 f401 0000 f75c 843c f401 0000
00000010: 2292 8a3c 3aed 523c 8acd 843c 76a9 b03b
00000020: f401 0000 d18d 0817 69fb dd3b 8872 e53d
00000030: 9c95 143b 2c8e b23c b049 193d 8987 633c
00000040: ef75 323c bbf5 c73b f401 0000 6b77 fa16
00000050: bf91 7331 c1d0 9d30 f401 0000 49cd 853b
00000060: 098a 823c cd75 993c 0e99 dc3b f401 0000
00000070: f401 0000 f401 0000 4094 9d3d d496 3d3d
0.0 7e-43 0.01615761 7e-43 0.016915385 0.012873942 0.01621129 0.005391295
7e-43 4.4122968e-25 0.006774355 0.11203486 0.0022672182 0.021796308 0.03742379 0.013887295
0.010892375 0.0061022914 7e-43 4.0465042e-25 3.5444e-09 1.1482585e-09 7e-43 0.00408331
0.01593496 0.01873293 0.0067321127 7e-43 7e-43 7e-43 0.07694292 0.04628642

exp_avg f4 [32, 32]
00000000: 0000 0000 0400 0000 cc1d 1937 0400 0000
00000010: 9ac5 c1b7 a775 2db0 70fb 0cb4 fb29 ddb6
00000020: 0400 0000 0400 0080 6412 f935 6066 9cb7
00000030: f45b b3b8 c23a 1836 e006 dab4 c09c 1db7
00000040: 8e31 05b0 244a cea9 0400 0000 0400 0000
00000050: 0400 0080 0400 0080 0400 0080 ead5 c037
00000060: 7384 4b36 069a 2db6 01ad 8934 0400 0000
00000070: 0400 0080 0400 0000 fb2f f8b7 a974 e6b6
00000080: 0000 0000 0400 0000 9596 e236 0400 0000
00000090: 5320 3bb7 fee1 8632 6ae2 2d38 9676 8fb6
000000a0: 0400 0080 0400 0000 c0fb a936 8c52 12b7
000000b0: 9c23 96b8 cce4 f5b4 7bb7 2837 c888 6eb8
000000c0: c25d bd32 f94c d531 0400 0000 0400 0080
000000d0: 0400 0080 0400 0080 0400 0080 c8ca 1037
000000e0: 199f 3436 1283 f5b5 60ce 8cb6 0400 0080
000000f0: 0400 0080 0400 0000 e6de a6b7 2dec b2b6
00000100: 0000 0000 0400 0000 ed70 1335 0400 0000
00000110: 74bd 2ab7 d4a8 5637 0ce1 71b3 13fb eeb5
00000120: 0400 0080 0400 0080 56a0 a538 9fe6 3eb7
00000130: 6610 b4b8 4934 fd34 f41e 65b4 ca0f a135
00000140: 62ad d237 8d69 7b38 0400 0000 0400 0000
00000150: 0400 0080 0400 0080 0400 0080 6b07 8338
00000160: 5fab 7b35 0e53 bd38 c5d8 4534 0400 0080
00000170: 0400 0080 0400 0000 9aa6 94b7 25e9 88b6
00000180: 0000 0000 0400 0080 e4ff d838 0400 0080
00000190: db14 0439 19ee e538 227c 0939 8163 56b7
000001a0: 0400 0080 0400 0080 3245 f1b8 8f6d c939
000001b0: 05b4 8ab4 0068 2d39 5b52 0839 cc44 3ab8
000001c0: 443f e038 3609 84b8 0400 0080 0400 0000
000001d0: 0400 0000 0400 0000 0400 0000 f7e9 8138
000001e0: 8f95 6739 9759 9cb8 2ed2 82b5 0400 0000
000001f0: 0400 0000 0400 0000 32dd cd39 8f98 c339
00000200: 0000 0000 0400 0000 3e3c 2b37 0400 0000
00000210: d85c c4b7 1bac 75b0 550b 3eb3 55c6 2eb4
00000220: 0400 0000 0400 0080 d1f3 cd37 f379 b5b7
00000230: 4caf fab8 d519 04b6 a4eb c0b4 93df 16b8
00000240: c07a e9af 9a1b b7a9 0400 0000 0400 0080
00000250: 0400 0080 0400 0080 0400 0000 fa99 8437
00000260: 2169 142c 9646 5137 4626 8d34 0400 0000
00000270: 0400 0080 0400 0000 6139 1cb8 43cb 0db7
00000280: 0000 0000 0400 0000 08bd 2a3a 0400 0080
00000290: 969a 3239 a96b 9339 a3a4 9039 7071 1e39
000002a0: 0400 0000 0400 0000 ff04 6439 d888 6039
000002b0: fac8 94b9 d82f 8739 1b20 8339 c9f5 5438
000002c0: ccba 8239 a591 0239 0400 0000 0400 0000
000002d0: 0400 0000 0400 0000 0400 0080 e44b 9f39
000002e0: 6528 5e39 f93b e839 d89d f2b2 0400 0000
000002f0: 0400 0000 0400 0080 02c5 5f39 b534 6939
00000300: 0000 0000 0400 0000 73dd 8f39 0400 0000
00000310: befd 2c39 7da9 4739 6de8 8139 d818 5538
00000320: 0000 0000 0400 0000 480e 2db9 d712 7b39
00000330: dd48 5cb9 6855 9e39 cdd5 6439 22ac 5fb8
00000340: 57d8 5939 71b0 76b8 0000 0000 0400 0000
00000350: 0400 0000 0400 0080 0400 0000 270f dd38
00000360: 10fd 3c39 6063 cdb8 7e5d 67b5 0000 0000
00000370: 0400 0000 0400 0080 a3ac 8339 2c15 5239
00000380: 0000 0000 0400 0080 6e91 5b38 0400 0000
00000390: cf46 0380 845f 6438 a881 cd38 07ad 3eb8
000003a0: 0400 0080 0400 0000 5570 12b9 ac5e ba31
000003b0: b66b 2235 15c6 0139 664d 0139 ce37 0eb8
000003c0: c5ce 3738 7c98 78b8 0400 0080 0400 0000
000003d0: 0400 0080 0400 0000 0400 0000 3dee d536
000003e0: f98b a585 cec0 05b9 24aa 3636 0400 0000
000003f0: 0400 0000 0400 0000 94aa e5b6 dafc 2337
0.0 6e-45 9.126448e-06 6e-45 -2.3099408e-05 -6.310423e-10 -1.3129988e-07 -6.5912004e-06
6e-45 -6e-45 1.8557298e-06 -1.8644321e-05 -8.552513e-05 2.2683967e-06 -4.0610666e-07 -9.394425e-06
-4.845554e-10 -9.161099e-14 6e-45 6e-45 -6e-45 -6e-45 -6e-45 2.2987795e-05
3.0326453e-06 -2.5868662e-06 2.5644115e-07 6e-45 -6e-45 6e-45 -2.9586246e-05 -6.868115e-06
0.0 6e-45 6.752855e-06 6e-45 -1.1153595e-05 1.5702422e-08 4.145728e-05 -4.2755373e-06
-6e-45 6e-45 5.0659e-06 -8.721498e-06 -7.15919e-05 -4.5801278e-07 1.00563e-05 -5.687101e-05
2.2045132e-08 6.2078667e-09 6e-45 -6e-45 -6e-45 -6e-45 -6e-45 8.6302825e-06
2.6914697e-06 -1.8292069e-06 -4.1963503e-06 -6e-45 -6e-45 6e-45 -1.9892537e-05 -5.332308e-06
0.0 6e-45 5.4926096e-07 6e-45 -1.01769e-05 1.2794702e-05 -5.6316864e-08 -1.7805454e-06
-6e-45 -6e-45 7.897678e-05 -1.1378578e-05 -8.586123e-05 4.7162965e-07 -2.1338548e-07 1.200003e-06
2.5114688e-05 5.9941365e-05 6e-45 6e-45 -6e-45 -6e-45 -6e-45 6.2479485e-05
9.3754164e-07 9.0276924e-05 1.8425915e-07 -6e-45 -6e-45 6e-45 -1.7720555e-05 -4.0802574e-06
0.0 -6e-45 0.00010347346 -6e-45 0.0001259627 0.0001096392 0.00013111581 -1.27785615e-05
-6e-45 -6e-45 -0.00011504664 0.00038419335 -2.5835485e-07 0.00016537309 0.0001300065 -4.4409928e-05
0.000106929365 -6.295966e-05 -6e-45 6e-45 6e-45 6e-45 6e-45 6.194779e-05
0.00022085592 -7.455347e-05 -9.746925e-07 6e-45 6e-45 6e-45 0.0003926545 0.00037306963
0.0 6e-45 1.02064205e-05 6e-45 -2.3408254e-05 -8.937506e-10 -4.424813e-08 -1.6277166e-07
6e-45 -6e-45 2.455144e-05 -2.1633668e-05 -0.000119535805 -1.968457e-06 -3.5934238e-07 -3.5971007e-05
-4.2469672e-10 -8.1316206e-14 6e-45 -6e-45 -6e-45 -6e-45 6e-45 1.5807327e-05
2.1090423e-12 1.2473805e-05 2.6291144e-07 6e-45 -6e-45 6e-45 -3.7246737e-05 -8.4515805e-06
0.0 6e-45 0.0006513153 -6e-45 0.0001703299 0.00028118238 0.00027588484 0.00015110313
6e-45 6e-45 0.00021745636 0.00021413283 -0.000283785 0.00025784853 0.00025010188 5.0773644e-05
0.00024934707 0.00012452023 6e-45 6e-45 6e-45 6e-45 -6e-45 0.00030383386
0.00021186618 0.0004429517 -2.8244287e-08 6e-45 6e-45 -6e-45 0.00021340328 0.00022240246
0.0 6e-45 0.00027440078 6e-45 0.00016497725 0.00019041258 0.00024777968 5.0806295e-05
0.0 6e-45 -0.00016503886 0.00023944244 -0.00021007979 0.0003019974 0.00021823421 -5.3327654e-05
0.00020775326 -5.8815294e-05 0.0 6e-45 6e-45 -6e-45 6e-45 0.000105409235
0.0001802335 -9.793672e-05 -8.6190255e-07 0.0 6e-45 -6e-45 0.00025114891 0.00020035048
0.0 -6e-45 5.234911e-05 6e-45 -3.00908e-40 5.4448392e-05 9.799312e-05 -4.5460674e-05
-6e-45 6e-45 -0.00013965492 5.4240754e-09 6.0506443e-07 0.0001237619 0.00012331232 -3.390741e-05
4.382317e-05 -5.926982e-05 -6e-45 6e-45 -6e-45 6e-45 6e-45 6.3756293e-06
-1.5567943e-35 -0.00012755694 2.7219148e-06 6e-45 6e-45 6e-45 -6.8445897e-06 9.774429e-06

exp_avg_sq f4 [32, 32]
00000000: 0000 0000 f401 0000 fc25 b22f f401 0000
00000010: cb24 4033 952e cb30 0485 4930 c474 5331
00000020: f401 0000 c1f8 a308 8465 7834 5ada f531
00000030: 2045 a733 811d 9d31 51f5 a631 da68 2832
00000040: 07e3 1c2f 53ad 1d30 f401 0000 a4a7 4c09
00000050: 63e4 df22 fe17 132b f401 0000 796e fe32
00000060: c203 af2f 9e25 0833 7098 4a2f f401 0000
00000070: f401 0000 f401 0000 aa63 8432 17cb 4730
00000080: 0000 0000 f401 0000 7aeb ee2f f401 0000
00000090: 623e b132 fc82 6030 7d47 5430 3888 0231
000000a0: f401 0000 e5e8 6409 3852 ee33 053f de31
000000b0: 12a3 8733 e25f 1231 01f2 2d31 0f28 1c34
000000c0: 85d8 2c2f abbb 0130 f401 0000 1b35 bd08
000000d0: a3b5 2322 7a51 7b2a f401 0000 2b8f 9b32
000000e0: d1e5 a92f 7c1c b132 cac7 3031 f401 0000
000000f0: f401 0000 f401 0000 f14b 1c32 0929 e430
00000100: 0000 0000 f401 0000 33ec 3b32 f401 0000
00000110: 7293 3832 8b14 4631 b670 3730 eadd 0133
00000120: f401 0000 ef3b 8109 c1e5 0b34 d7eb d631
00000130: 00a6 6933 9790 1731 c49f 2131 fa2c ee34
00000140: acae 8830 d8b7 a832 f401 0000 da3b 9108
00000150: 1ef5 0b22 6a05 3f2a f401 0000 1a89 1933
00000160: 6642 f02f 444d bd33 9eb9 8232 f401 0000
00000170: f401 0000 f401 0000 c61a 0732 36af c830
00000180: 0000 0000 f401 0000 0ecb b935 f401 0000
00000190: de35 6634 742e 8535 6895 8335 0586 3535
000001a0: f401 0000 c75e 0300 99e6 ab35 d76b 8e34
000001b0: f571 102f 779b 6135 a899 8f35 ed26 2034
000001c0: c91a 7835 23d2 5e35 f401 0000 f401 0000
000001d0: 08a1 a91a ef3c 8e29 f401 0000 5421 a835
000001e0: ab1f 2e34 df84 1c36 3154 0533 f401 0000
000001f0: f401 0000 f401 0000 4947 bf34 9375 f234
00000200: 0000 0000 f401 0000 b8ce 6f2f f401 0000
00000210: 4c2c 5833 9214 2a30 76fd db2f 608f be30
00000220: f401 0000 ed59 4108 28af 7934 3a82 f831
00000230: 958f 6933 abf2 0831 c1a6 8031 c271 4932
00000240: fb22 7e2e 2578 9e2f f401 0000 8ee1 3b09
00000250: 7395 b322 b29f 0e2b f401 0000 d8b8 e632
00000260: 02ac cc2f 6e7d fd32 8a15 242f f401 0000
00000270: f401 0000 f401 0000 3083 6a32 d442 7830
00000280: 0000 0000 f401 0000 c129 1237 f401 0000
00000290: a2cf 8634 1b98 cd36 1104 ca36 2d3e 8b36
000002a0: f401 0000 2a6d a60f e845 eb36 ffaf c734
000002b0: 37e0 9c34 f1f3 af36 9091 e136 d603 3a34
000002c0: 3c0e c836 9c4f a436 f401 0000 5fcf 550d
000002d0: 00d2 9528 0131 f52b f401 0000 2108 f536
000002e0: 836b 2a34 d332 6937 dbd3 1d32 f401 0000
000002f0: f401 0000 f401 0000 54c2 c834 1388 b934
00000300: 0000 0000 f401 0000 1199 9936 f401 0000
00000310: 4915 7d34 64ef 5f36 91ee 6236 9551 1636
00000320: 0000 0000 9f6c 550f 3465 8236 c935 ba34
00000330: 3880 4634 21f2 4336 2d93 7536 7b53 6534
00000340: 6e41 5336 cf96 3436 0000 0000 9e20 0c0d
00000350: 4006 6625 4436 9b2b f401 0000 7163 8636
00000360: 5d5c 3434 f59a fc36 3e67 8e32 0000 0000
00000370: f401 0000 f401 0000 def7 ba34 3327 b834
00000380: 0000 0000 f401 0000 ef76 e735 f401 0000
00000390: 043e 0e2d 8ff9 a835 4533 a035 fceb 5c35
000003a0: f401 0000 1c67 a902 62a5 de35 0333 2c2e
000003b0: 2272 8330 4b74 8935 6d36 b335 f951 9234
000003c0: cd36 9d35 446f 8635 f401 0000 d8be 0100
000003d0: 64e8 b31e bebb c72a f401 0000 b4d1 d935
000003e0: 7585 1430 4515 4936 76ff 8a33 f401 0000
000003f0: f401 0000 f401 0000 327d 842f 541a f932
0.0 7e-43 3.2405e-10 7e-43 4.4736947e-08 1.4783433e-09 7.33124e-10 3.0770915e-09
7e-43 9.868687e-34 2.3133731e-07 7.155262e-09 7.789117e-08 4.5726556e-09 4.859125e-09 9.8027275e-09
1.4268774e-10 5.7362576e-10 7e-43 2.4634431e-33 6.0686085e-18 5.2258187e-13 7e-43 2.9619729e-08
3.1834985e-10 3.169918e-08 1.842595e-10 7e-43 7e-43 7e-43 1.5412144e-08 7.2684386e-10
0.0 7e-43 4.3459264e-10 7e-43 2.063388e-08 8.1676865e-10 7.722674e-10 1.8994921e-09
7e-43 2.7554008e-33 1.1097694e-07 6.468215e-09 6.31609e-08 2.13003e-09 2.5312377e-09 1.4543205e-07
1.5720232e-10 4.719662e-10 7e-43 1.1387509e-33 2.2186777e-18 2.2321546e-13 7e-43 1.810948e-08
3.0904215e-10 2.0618465e-08 2.5724938e-09 7e-43 7e-43 7e-43 9.097662e-09 1.6600846e-09
0.0 7e-43 1.0938538e-08 7e-43 1.0743735e-08 2.882447e-09 6.6735184e-10 3.0236983e-08
7e-43 3.111198e-33 1.3028968e-07 6.2550316e-09 5.4400516e-08 2.2055582e-09 2.35194e-09 4.436368e-07
9.944947e-10 1.9641377e-08 7e-43 8.740941e-34 1.8967777e-18 1.6966086e-13 7e-43 3.574778e-08
4.3702925e-10 8.815053e-08 1.52184e-08 7e-43 7e-43 7e-43 7.864122e-09 1.4601713e-09
0.0 7e-43 1.3842671e-06 7e-43 2.1440016e-07 9.922792e-07 9.803744e-07 6.762278e-07
7e-43 3.09506e-40 1.2807606e-06 2.6528025e-07 1.313721e-10 8.404526e-07 1.069905e-06 1.4915322e-07
9.2426177e-07 8.3007234e-07 7e-43 7e-43 7.015692e-23 6.316637e-14 7e-43 1.2526675e-06
1.6216534e-07 2.3323153e-06 3.1043047e-08 7e-43 7e-43 7e-43 3.562839e-07 4.516156e-07
0.0 7e-43 2.1810365e-10 7e-43 5.0331707e-08 6.187487e-10 4.0015963e-10 1.3865069e-09
7e-43 5.818453e-34 2.3253654e-07 7.232555e-09 5.4380127e-08 1.9928545e-09 3.744248e-09 1.1725605e-08
5.7783982e-11 2.88254e-10 7e-43 2.2615362e-33 4.8676283e-18 5.0670156e-13 7e-43 2.6859581e-08
3.7229603e-10 2.9510115e-08 1.4923365e-10 7e-43 7e-43 7e-43 1.3650421e-08 9.0316843e-10
0.0 7e-43 8.712e-06 7e-43 2.5110518e-07 6.1271835e-06 6.0205425e-06 4.149761e-06
7e-43 1.6410912e-29 7.011684e-06 3.7194692e-07 2.9220402e-07 5.243805e-06 6.7224682e-06 1.7323995e-07
5.9621216e-06 4.8968486e-06 7e-43 6.5885306e-31 1.6633396e-14 1.7421898e-12 7e-43 7.3025153e-06
1.5871596e-07 1.3899716e-05 9.186773e-09 7e-43 7e-43 7e-43 3.7394295e-07 3.4557942e-07
0.0 7e-43 4.5775746e-06 7e-43 2.3570205e-07 3.3368933e-06 3.3815488e-06 2.2399229e-06
0.0 1.05226305e-29 3.8860835e-06 3.4684334e-07 1.8486833e-07 2.9198202e-06 3.6593513e-06 2.1357657e-07
3.1479535e-06 2.6909872e-06 0.0 4.318009e-31 1.9951438e-16 1.1028474e-12 7e-43 4.0050877e-06
1.6797408e-07 7.5282246e-06 1.6577925e-08 0.0 7e-43 7e-43 3.4825547e-07 3.4301192e-07
0.0 7e-43 1.7245455e-06 7e-43 8.085536e-12 1.2589607e-06 1.193585e-06 8.229979e-07
7e-43 2.48915e-37 1.6588422e-06 3.915358e-11 9.563943e-10 1.0241141e-06 1.3352379e-06 2.7254262e-07
1.1713361e-06 1.001616e-06 7e-43 1.60297e-40 1.9048477e-20 3.5479773e-13 7e-43 1.6228792e-06
5.403174e-10 2.9963714e-06 6.472594e-08 7e-43 7e-43 7e-43 2.4099617e-10 2.8999388e-08

exp_avg f4 [32]
00000000: 2b52 51bb 20e8 86ba b2ed e9ba 9a65 593b
00000010: 3af7 b9bb 0a06 723b 46ef 3c3b 0022 2fbb
00000020: d327 19bb acab 443c 60a1 16bb 9a0c 61ba
00000030: c3ab 09bb 951e 00bb 9597 a83b 369b a739
00000040: b823 e5b9 dd12 b3ba 6787 d039 94cc 0aba
00000050: 808c f13a e86c 633b d732 8a3b b305 333a
00000060: 6e38 833b 1d82 1ebb b2c1 d0ba c3f0 ce3b
00000070: e4c3 7dbb 6e25 90bb 49e1 c1ba 8b2e da3b
-0.0031939845 -0.0010292567 -0.0017847328 0.0033172132 -0.0056752237 0.003692987 0.0028829142 -0.0026723146
-0.0023369684 0.01200382 -0.002298437 -0.00085849466 -0.002100692 -0.0019549478 0.005145023 0.00031968363
-0.00043704896 -0.0013662238 0.00039773734 -0.0005294767 0.0018428713 0.0034702364 0.0042174864 0.00068291574
0.0040045297 -0.002418644 -0.0015926866 0.006315322 -0.0038721496 -0.004398993 -0.0014791872 0.0066583804

exp_avg_sq f4 [32]
00000000: dea2 153a a828 8839 e22c 5539 d333 9b39
00000010: 83b0 1f3a 9958 5f3a 3a33 253a ea7f cf39
00000020: a921 a439 1792 263b d9eb d439 cf44 d239
00000030: 26ef 233a 3610 9539 468c e439 32bc 9839
00000040: 75ca 413a b5e8 353a 017c 8839 4905 4039
00000050: b739 1138 e1e4 cc39 51ae f439 ca67 b539
00000060: a960 113a fcc0 8a3a 20bb e539 c95f d039
00000070: a838 3e3a 6f2e fb39 6d10 2039 7724 153a
0.0005708168 0.00025970233 0.00020329983 0.00029602516 0.0006091671 0.0008519977 0.0006301884 0.0003957742
0.00031305596 0.0025416666 0.0004061151 0.00040105588 0.00062535924 0.00028431573 0.0004359206 0.00029131916
0.0007392534 0.0006939278 0.00026032332 0.00018312516 3.4624445e-05 0.0003908044 0.00046669182 0.0003460034
0.00055457145 0.0010586078 0.00043817703 0.00039744217 0.0007256367 0.00047909046 0.00015264908 0.00056893326

exp_avg f4 [2, 32]
00000000: d276 98b8 88d5 1138 c9cf bab8 d22a 7dba
00000010: 39e2 09b8 eaed 55b9 ac8f a4b9 85b1 3cba
00000020: d336 83b8 c79f 6fb8 40f2 b4b7 c90c f437
00000030: a317 4bb8 274b 94b8 39c3 9eb9 fe4c 99b8
00000040: 3069 0eb8 2f23 f3b7 222c 5139 0aa7 2eb9
00000050: 0400 0080 7e1b 0aba 505e 39b9 c31c d2b8
00000060: ea63 b9b9 4368 a0b8 c260 5f36 e0f3 bdb9
00000070: a7b9 2eb8 4f17 03b9 7501 3ab9 62f8 2cb9
00000080: 888b 90b8 8d57 55b9 bca8 b0b9 6c56 7439
00000090: 9320 2ab9 e96a 54bb 66a0 3bbb f397 a539
000000a0: 37e4 8eb9 861a afba 1d71 05b9 d6ea d7b8
000000b0: 9f0b af37 aa4b 78b9 b6f8 89ba 2555 0a38
000000c0: d1bf 7538 9e18 df37 ca77 8eb8 b018 04b9
000000d0: 5fa5 5ab8 fa84 1abb 8496 c8ba 27d8 ee38
000000e0: 04a2 03bb 4e09 e037 b22c e5b7 0320 1dba
000000f0: 4966 eeb7 3cc3 35b9 2114 b0b9 fc46 93ba
-7.270057e-05 3.476956e-05 -8.907874e-05 -0.0009657565 -3.287403e-05 -0.00020401893 -0.00031387561 -0.00071980833
-6.2567786e-05 -5.7130845e-05 -2.1570479e-05 2.909302e-05 -4.8420985e-05 -7.071188e-05 -0.0003028156 -7.3099494e-05
-3.39534e-05 -2.8984241e-05 0.00019948234 -0.0001665616 -6e-45 -0.0005268379 -0.00017678109 -0.000100189376
-0.00035360391 -7.648815e-05 3.328591e-06 -0.0003623059 -4.1657735e-05 -0.00012501817 -0.00017738885 -0.00016495728
-6.892445e-05 -0.00020345878 -0.00033695053 0.00023301848 -0.00016224598 -0.0032412356 -0.002862954 0.00031584463
-0.00027254384 -0.0013359345 -0.00012726006 -0.000102957405 2.0867037e-05 -0.0002367931 -0.0010526392 3.298106e-05
5.8591195e-05 2.6595135e-05 -6.7934e-05 -0.00012597698 -5.2129264e-05 -0.0023577795 -0.0015303646 0.00011388986
-0.0020085583 2.6707214e-05 -2.731974e-05 -0.0005993845 -2.8419441e-05 -0.00017334236 -0.00033584333 -0.0011236365

exp_avg_sq f4 [2, 32]
00000000: 1477 b335 c5aa 8736 e3c7 0337 d055 8738
00000010: b7f2 aa35 f121 2437 b38e 9737 09e8 7238
00000020: f87f 8b36 0c69 3436 f209 0136 b9ad 1e36
00000030: df63 be35 7319 c436 ec19 2638 b0f1 8f36
00000040: 769a 8535 693a 9036 9837 b736 2771 0d37
00000050: 3bce 4630 0835 0938 5ab5 2b38 266e 5c36
00000060: 302d 6137 ac83 7e35 a348 4236 9053 7138
00000070: 2968 e235 6579 0236 416e 4137 7cfe 6938
00000080: cf25 3935 8e7a 1136 0653 6e36 c76d df36
00000090: b3ab 3b35 a3bc bd37 4373 c837 7ec0 a436
000000a0: b6d4 f435 e661 5836 b38b 8835 849d af35
000000b0: e5a1 3435 5dda 1636 f0bf dd36 2a30 1236
000000c0: 7a22 0635 e8cc 8535 1ec5 2536 0610 6c36
000000d0: 4d05 9e33 4d7a 8637 e0ca 3637 d8bc ee35
000000e0: dfe1 4e37 0e18 f334 b88d b635 2571 b936
000000f0: 08b0 5b35 b7bf 8535 08a9 9b36 3334 2337
1.3371196e-06 4.0431937e-06 7.854748e-06 6.4532855e-05 1.2736626e-06 9.783064e-06 1.8067052e-05 5.7913396e-05
4.1574203e-06 2.6883235e-06 1.9228287e-06 2.3644955e-06 1.418517e-06 5.844218e-06 3.9601626e-05 4.2898682e-06
9.954226e-07 4.2983343e-06 5.460297e-06 8.4306e-06 7.232505e-10 3.2712735e-05 4.0938474e-05 3.284667e-06
1.3421566e-05 9.481398e-07 2.8950533e-06 5.75367e-05 1.6868627e-06 1.944217e-06 1.1529367e-05 5.5788536e-05
6.897289e-07 2.167802e-06 3.551309e-06 6.6586977e-06 6.9912784e-07 2.2618397e-05 2.389553e-05 4.90999e-06
1.8241324e-06 3.2243493e-06 1.0173447e-06 1.3084359e-06 6.7290813e-07 2.2478846e-06 6.6086577e-06 2.178373e-06
4.996906e-07 9.968908e-07 2.4701653e-06 3.5176067e-06 7.3584125e-08 1.6030996e-05 1.0895281e-05 1.7787343e-06
1.23311465e-05 4.527978e-07 1.3601302e-06 5.5266014e-06 8.1840017e-07 9.965069e-07 4.639038e-06 9.727711e-06

exp_avg f4 [2]
00000000: b31a 253a e0f7 a5bb
0.0006298229 -0.0050649494

exp_avg_sq f4 [2]
00000000: c0fa 8b39 454c 0b39
0.0002669897 0.00013284486
