learner/models/rl_coach_model_episode_0.pth (torch, 31341 bytes, 24 tensors)

network.0.weight f4 [32, 4]
0	0xbe8fbf2f	-0.2807555
1	0xbee9e926	-0.4568569
2	0xbda2729c	-0.07932016
3	0xbec8edce	-0.3924393
4	0xbe93de6e	-0.28880638
5	0xbe4c8293	-0.19971685
6	0xbd9b04c8	-0.07569271
7	0xbe975dd8	-0.29563785
8	0x3f1d72f7	0.6150355
9	0xbefaefa4	-0.49010956
10	0x3d6b451f	0.057438966
11	0xbac3a696	-0.0014926966
12	0xbf26c82b	-0.6514918
13	0x3f2f95b9	0.68587834
14	0xbda26a17	-0.07930391
15	0xbb777d00	-0.0037763715
16	0xbe11931e	-0.14216277
17	0xbed129f4	-0.4085232
18	0xbd92bea5	-0.07165269
19	0x3ec26c66	0.37973326
20	0x3d67f953	0.05663426
21	0x3e3241c2	0.17407897
22	0x3e0c89d8	0.13724458
23	0xbed68a2a	-0.41902286
24	0x3eee31e9	0.46522453
25	0xbe8578fe	-0.26068872
26	0xbe4d1638	-0.20028007
27	0x3d306f45	0.043074865
28	0xbe945bc5	-0.28976265
29	0xbeb47581	-0.35245898
30	0xbdd4fb95	-0.10399548
31	0xbeadab79	-0.33919886
32	0x3e9352db	0.2877415
33	0xbd0dd96b	-0.034631174
34	0x3e9a3e1a	0.30125505
35	0x3d5e1dc7	0.054227617
36	0xbba7ae4a	-0.0051172124
37	0xbedc7ce9	-0.4306405
38	0xbdcdb582	-0.100443855
39	0x3e58f065	0.21185453
40	0x3e233c6e	0.15941021
41	0x3e0e763f	0.13912295
42	0xbe55973d	-0.20858474
43	0xbeb5c9fe	-0.3550567
44	0x3ec7eaea	0.39046413
45	0xbf174441	-0.5908852
46	0xbdd75897	-0.10514944
47	0xbc11a71c	-0.00888994
48	0x3f0b3b0c	0.54386973
49	0xbe66d4d7	-0.2254213
50	0x3e61e8c1	0.22061445
51	0xbde8d336	-0.1136841
52	0x3e89c1ad	0.26905575
53	0xbe349c03	-0.17637639
54	0xbde293a3	-0.11063316
55	0xbd2ed0d8	-0.042679638
56	0xbe71ba63	-0.23606257
57	0xbe647f43	-0.22314171
58	0xbda909d5	-0.082538284
59	0x3da62a1c	0.081135005
60	0x3d6ca090	0.05777031
61	0xbee64e8c	-0.44981802
62	0xbf13d219	-0.5774246
63	0x3e722e50	0.2365048
64	0xbe8f690a	-0.28009826
65	0xbe47c2de	-0.1950793
66	0xbd630a70	-0.055429876
67	0xbe3bf859	-0.18356456
68	0xbd38fff5	-0.045165975
69	0x3e1cd6c4	0.15316302
70	0xbcd5949e	-0.026071843
71	0x3d83a049	0.06427056
72	0x3ecb7036	0.39734048
73	0xbee99e85	-0.45628753
74	0xbd57f6e8	-0.052725703
75	0xbc1697c2	-0.009191455
76	0xbf052a50	-0.5201769
77	0x3f0c5e1e	0.5483111
78	0xbd42f38d	-0.04759555
79	0xba0ae50a	-0.00052984117
80	0xbd1a3cfc	-0.037655815
81	0x3f14d4cd	0.5813721
82	0xbd86d752	-0.06584038
83	0x3b7d3bd5	0.00386404
84	0x3edb044a	0.4277671
85	0xbed397f2	-0.41326863
86	0x3cf82d80	0.030295134
87	0xbb2c3a47	-0.0026279853
88	0xbec39c47	-0.38205168
89	0xbe839be3	-0.2570487
90	0xbddc7fbf	-0.10766553
91	0x3e69afb8	0.22820938
92	0xbc7f8eb7	-0.015597991
93	0xbdb0990a	-0.0862294
94	0xbe6d52e7	-0.23176156
95	0x3d554b29	0.05207363
96	0xbd15054b	-0.036382
97	0xbda211f7	-0.07913583
98	0xbe3f1dfd	-0.18663783
99	0x3e972385	0.29519287
100	0x3e70803f	0.23486422
101	0xbe2d4e8e	-0.16924497
102	0xbd394b4c	-0.045237824
103	0xbdb1da24	-0.08684185
104	0xbe8cfbe9	-0.27535942
105	0xbeaf935d	-0.34292117
106	0xbe8c5e61	-0.27415755
107	0xbd202a44	-0.039102808
108	0xbf0ea4dd	-0.5572031
109	0x3f2071b9	0.62673527
110	0xbd6cea8e	-0.057840876
111	0x3ba1fe32	0.0049436325
112	0x3da39a65	0.07988433
113	0xbebd8e67	-0.37022707
114	0xbebb054d	-0.36527482
115	0x3eb710e8	0.35755086
116	0xbecf0565	-0.40433803
117	0x3f1d6394	0.6148007
118	0x3c14339e	0.00904551
119	0x3bf2292c	0.007390162
120	0xbe9d094c	-0.30671155
121	0xbec460b3	-0.38355026
122	0xbe253981	-0.16135217
123	0x3e82ae06	0.25523394
124	0xbd745158	-0.059647888
125	0xbdc6cdd1	-0.09707225
126	0x3e92bd75	0.2866017
127	0xbe09963a	-0.13436213

network.0.bias f4 [32]
0	0x3dc8fc24	0.09813717
1	0x3ce88db7	0.028387887
2	0x3d9d808e	0.076905355
3	0xbd8434a2	-0.064553514
4	0x3dd6a16e	0.10480009
5	0xbd8a559b	-0.06754609
6	0x3dac1f11	0.08404363
7	0x3da90528	0.082529366
8	0x3d862b90	0.06551278
9	0x3c6ec892	0.014574187
10	0xbdeb18ed	-0.114793636
11	0x3e28a17d	0.16467853
12	0x3da67f2a	0.08129723
13	0x3db2b86c	0.08726582
14	0xbbb936b7	-0.0056522745
15	0x3ddfe0cd	0.10931549
16	0x3e16d678	0.14730251
17	0x3d60e169	0.054902468
18	0x3e150457	0.14552437
19	0xbd2a8779	-0.041633103
20	0xbe3827d0	-0.17983937
21	0x3dc2c285	0.09509758
22	0xbdf2c907	-0.11854749
23	0xbdd7e675	-0.10542003
24	0x3d949d52	0.07256569
25	0x3dcfe221	0.101505525
26	0xbd371746	-0.04469993
27	0xbd8c57fa	-0.06852718
28	0x3cbbd5b7	0.022929056
29	0xbdc83ba8	-0.097770035
30	0x3d08a124	0.0333568
31	0x3d67f1fa	0.05662725

network.3.weight f4 [32, 32]
0	0x3c58b5fc	0.013226982
1	0x3ec184ad	0.37796536
2	0x3e55367d	0.20821567
3	0xbd627c87	-0.05529454
4	0x3e7f204c	0.24914664
5	0x3e86eccc	0.26352537
6	0x3e191d35	0.14952548
7	0x3e2cc84c	0.16873282
8	0x3d7c48e3	0.061592948
9	0x3dfc8ee7	0.12331944
10	0x3db527f0	0.08845508
11	0x3f03b9c2	0.5145532
12	0x3e3b671c	0.18301052
13	0x3e185294	0.14875251
14	0xbea0c691	-0.31401494
15	0x3e4c676d	0.19961329
16	0x3ec2c211	0.38038686
17	0x3ccc707d	0.024955982
18	0x3dcd4f01	0.100248344
19	0xbeec7b09	-0.46187618
20	0xbe94b187	-0.29041693
21	0x3f0a6152	0.5405475
22	0xbe58cb52	-0.2117131
23	0x3d8f1702	0.0698681
24	0xbd0be0d7	-0.03414997
25	0xbe2fa253	-0.17151766
26	0xbe252375	-0.16126807
27	0xbe9901e9	-0.2988427
28	0x3d80e336	0.06293337
29	0xbea6f2b2	-0.32607037
30	0x3e302d60	0.17204809
31	0xbd3a6f89	-0.045516524
32	0x3c72cbae	0.014819069
33	0xbe04e3c1	-0.12977506
34	0x3eeca300	0.4621811
35	0xbf2fa806	-0.6861576
36	0xbdd1587b	-0.102219544
37	0xbde2d729	-0.11076195
38	0x3ea6b39c	0.32558906
39	0xbd100abb	-0.035166483
40	0xbd1196ac	-0.035544083
41	0x3e7f46f0	0.24929404
42	0x3e4f52c1	0.20246412
43	0x3ed798de	0.42108816
44	0x3c978a38	0.018498525
45	0xbe3d0a2d	-0.18460913
46	0xbe6d0f4c	-0.23150367
47	0x3e4f2e8c	0.202326
48	0x3e0c6fd9	0.13714541
49	0x3df3f428	0.119118035
50	0x3dde166f	0.108441226
51	0xbeaa35e3	-0.33244237
52	0xbe6ad6cd	-0.22933502
53	0x3e209d21	0.1568494
54	0x3de03c5e	0.10949014
55	0xbe5b53b0	-0.21418643
56	0x3d8c015e	0.06836198
57	0x3e80e275	0.25172773
58	0x3e696f40	0.22796345
59	0xbf1824c3	-0.59431094
60	0xbd88ab49	-0.06673295
61	0xbefa2f7e	-0.4886436
62	0x3d8d930c	0.069128126
63	0x3d8cbc16	0.06871812
64	0x3e72378e	0.23654005
65	0xbdc1963f	-0.09452485
66	0x3e23d850	0.16000485
67	0xbed8a134	-0.42310488
68	0xbd71da6d	-0.059046198
69	0x3e4b071b	0.1982693
70	0xbe19c85b	-0.15017836
71	0xbe3b81b2	-0.18311194
72	0x3e6764b0	0.22597003
73	0xbd93b523	-0.072122835
74	0x3e88842c	0.2666334
75	0x3e09971e	0.13436553
76	0x3e85ddf9	0.26145914
77	0xbdb42c9c	-0.08797571
78	0x3def7388	0.11691958
79	0x3e42adb0	0.19011569
80	0x3e4c7cae	0.19969437
81	0x3e6d5433	0.2317665
82	0x3e2d1355	0.16901906
83	0xbef88195	-0.48536363
84	0xbd79403d	-0.060852278
85	0x3eac5f76	0.3366658
86	0x3d41a17f	0.047273155
87	0xbe8d415c	-0.27588928
88	0x3e0a1405	0.134842
89	0xbd994bc7	-0.074851565
90	0xbe82770c	-0.2548145
91	0xbed3a7c3	-0.4133893
92	0x3e88cea9	0.2672017
93	0xbeaf1bfa	-0.34201032
94	0xbdc15d5a	-0.094416335
95	0xbdb40f9b	-0.08792039
96	0xbe513bc2	-0.20432952
97	0xbe3130dc	-0.17303795
98	0xbeff2b1d	-0.4983758
99	0x3ee9f537	0.45694897
100	0xbd79fb64	-0.06103076
101	0x3e2ebc28	0.17063963
102	0x3de24502	0.110483184
103	0xbdd9599f	-0.10612797
104	0xbcf61f0c	-0.030044101
105	0xbe1fecb4	-0.15617639
106	0x3e895922	0.26825815
107	0xbec971c0	-0.39344597
108	0xbd04d44b	-0.03242902
109	0x3e3d9643	0.18514352
110	0xbe392e93	-0.18084173
111	0xbdfb01d9	-0.12256212
112	0xbe345257	-0.17609535
113	0xbd85da56	-0.06535785
114	0x3e51783d	0.20456024
115	0x3e06c8dc	0.1316256
116	0xbe308889	-0.17239584
117	0xbd926dfc	-0.07149884
118	0x3e5853d3	0.21125726
119	0x3dda5c20	0.10662103
120	0x3e345455	0.17610295
121	0xbe415c46	-0.18882856
122	0x3da8d6c2	0.08244087
123	0x3e4e861c	0.20168346
124	0x3e0f8f62	0.1401954
125	0x3e7577eb	0.23971526
126	0xbeda2b0e	-0.42610973
127	0x3d412448	0.04715374
128	0x3eb28b0a	0.34871703
129	0xbe1589f0	-0.146034
130	0x3edd7b7b	0.4325827
131	0xbf1ad5db	-0.6048257
132	0xbce366d7	-0.027758999
133	0x3ea7cd2b	0.32773718
134	0x3d9339a1	0.07188726
135	0x3ea4a4b2	0.32156903
136	0xbcd4195a	-0.025890995
137	0x3ec7786c	0.38959062
138	0x3e56a747	0.20962249
139	0x3f34faa0	0.70694923
140	0xbd831e87	-0.06402307
141	0x3e4b8e37	0.1987847
142	0xbe263898	-0.16232526
143	0x3e22ec6e	0.15910503
144	0x3e8db05d	0.27673617
145	0x3ca3c7a8	0.019992664
146	0x3ec46540	0.38358498
147	0xbc0581ab	-0.008148591
148	0x3ddc0dd9	0.10744829
149	0x3f014afa	0.5050503
150	0xbe6a9ac8	-0.22910607
151	0x3d42f983	0.047601234
152	0x3e972931	0.29523614
153	0x3e9f7b8a	0.3114894
154	0x3ea3cc73	0.3199192
155	0xbea80148	-0.32813478
156	0x3eba17b4	0.3634621
157	0xbd109518	-0.035298437
158	0x3da70387	0.0815497
159	0x3d7eb7e7	0.0621871
160	0x3e1ee76b	0.15517966
161	0x3d9cafd0	0.07650721
162	0x3f1864b4	0.5952866
163	0xbf22091c	-0.6329515
164	0x3e81c0c3	0.25342378
165	0x3e160481	0.14650156
166	0x3e19a732	0.15005186
167	0x3d1d59d3	0.03841574
168	0x3e4277cc	0.18991011
169	0x3ec2a75e	0.38018316
170	0xbe974929	-0.29548004
171	0x3f250abb	0.644695
172	0xbe306520	-0.17226076
173	0x3ec082f3	0.37599906
174	0x3e3b493e	0.18289658
175	0xbdaef0cc	-0.08542022
176	0xbd478e45	-0.048719663
177	0xbe29d618	-0.16585577
178	0x3ec73ec9	0.3891509
179	0xbee6482b	-0.44976935
180	0xbe872f00	-0.26403046
181	0x3e9af20c	0.30262792
182	0x3d4c249d	0.049839605
183	0xbea2456f	-0.316936
184	0xbdba69ae	-0.09102188
185	0x3e9b76f1	0.30364183
186	0x3b9761e8	0.0046198256
187	0xbf34f269	-0.7068239
188	0xbc80fbc9	-0.01574506
189	0xbf08da80	-0.53458405
190	0xbdec2454	-0.115303665
191	0x3b4581af	0.0030137112
192	0x3daac275	0.08337871
193	0x3dbf647d	0.093453385
194	0x3e7946de	0.2434344
195	0xbe73186e	-0.23739788
196	0x3edf8689	0.4365733
197	0x3d1cd51a	0.038289167
198	0x3ec4b91d	0.3842248
199	0xbd793179	-0.060838196
200	0x3df2b46e	0.118508205
201	0x3e7538d4	0.2394746
202	0x3e06a568	0.13149035
203	0x3ef30854	0.4746729
204	0x3e913caf	0.2836661
205	0x3ea76b0a	0.32698852
206	0x3e2e49a7	0.17020284
207	0x3e938283	0.2881051
208	0x3eb4c64f	0.35307547
209	0xbe10bbe2	-0.14134172
210	0x3df0df41	0.11761332
211	0xbe28885c	-0.16458267
212	0xbedd64b4	-0.43240893
213	0x3f176d2a	0.59150946
214	0xbe42cd16	-0.19023547
215	0x3ce8c744	0.02841533
216	0xbe10abc1	-0.14128019
217	0x3d4eb84f	0.05046874
218	0xbe2b01c8	-0.16699898
219	0xbf3ea2f0	-0.7446737
220	0x3edef12b	0.43543372
221	0xbf2881bb	-0.65822953
222	0xbdbbcd85	-0.09170059
223	0x3e9b4be3	0.30331334
224	0xbe27f284	-0.16401106
225	0xbe67c701	-0.22634508
226	0xbedc2e4c	-0.43004072
227	0x3f12d010	0.5734873
228	0x3d06a66d	0.03287356
229	0x3dc7aa11	0.097492345
230	0xbceac12a	-0.02865656
231	0x3e2af278	0.16694057
232	0x3d15d8d7	0.036583748
233	0xbe8aa688	-0.27080178
234	0x3e6ca1f2	0.23108652
235	0xbe767c63	-0.24070887
236	0x3e2477ed	0.16061373
237	0xbe13fc5b	-0.14451735
238	0x3e37a207	0.17932902
239	0x3d47fb30	0.048823535
240	0xbd8bdc45	-0.068291225
241	0xbde2e6dd	-0.1107919
242	0xbe9954a1	-0.2994738
243	0x3efaf43a	0.49014455
244	0xbd6952fa	-0.0569639
245	0xbf1226c6	-0.57090414
246	0x3cca66e0	0.024707258
247	0xbdc1b9d7	-0.09459274
248	0x3e158839	0.14602746
249	0xbe8bd382	-0.27309805
250	0xbe5a38a7	-0.21310674
251	0x3ece6a33	0.403154
252	0xbc6b664a	-0.014367649
253	0x3e6b6c49	0.22990526
254	0xbdbd8b1d	-0.092550494
255	0xbdc32235	-0.09528009

network.3.bias f4 [32]
0	0x3e1894bb	0.14900486
1	0x3e3eb652	0.18624237
2	0x3e435243	0.19074349
3	0xbab084cc	-0.0013467311
4	0x3e713bf5	0.23558028
5	0x3e61aafe	0.22037885
6	0x3e708de8	0.23491633
7	0x3d9bf474	0.07614985
8	0xbd08cdc6	-0.033399366
9	0x3e4cae1f	0.19988297
10	0x3ce8ee81	0.02843404
11	0xbc677afa	-0.014128441
12	0xbd91f6e6	-0.0712717
13	0xbd2e2d3c	-0.042523608
14	0x3db04a56	0.086079285
15	0xbd524a18	-0.051340193
16	0xbd99d753	-0.07511773
17	0x3d4881c8	0.048951894
18	0x3e3b0ee0	0.18267393
19	0xbdc74114	-0.097292095
20	0x3e284c7f	0.16435431
21	0x3c7eee7b	0.015559788
22	0x3e595db6	0.21227154
23	0xbc1f582e	-0.0097256135
24	0xbd7ea6e3	-0.062170874
25	0xbd6c0eb0	-0.057631195
26	0xbcde6858	-0.027149364
27	0xbd40cb68	-0.047068983
28	0x3e5970ea	0.2123448
29	0x3e3d9aaf	0.18516038
30	0x3e510e60	0.2041564
31	0xbcdda1a3	-0.027054613

network.6.weight f4 [2, 32]
0	0x3f1267a7	0.5718941
1	0x3f313093	0.69214743
2	0x3e1b69a8	0.15177023
3	0xbe93b9b5	-0.2885262
4	0x3e26e318	0.16297567
5	0x3f0b06a7	0.54307026
6	0x3e8d069f	0.27544114
7	0xbe873470	-0.26407194
8	0xbea76e39	-0.3270128
9	0x3ed1e41d	0.4099435
10	0xbe710db2	-0.2354038
11	0x3e4c75ee	0.19966862
12	0xbe6e719a	-0.23285523
13	0xbe5ab1ef	-0.21356939
14	0xbecf0153	-0.40430698
15	0xbe1afe62	-0.15136102
16	0xbe8f1195	-0.27943102
17	0xbe8b4db1	-0.2720771
18	0x3ee0862e	0.4385237
19	0x3e9af991	0.3026853
20	0x3ec213d6	0.3790576
21	0xbe98533e	-0.2975101
22	0x3f04ecb1	0.5192366
23	0xbeb37e0c	-0.35057104
24	0xbe6dde30	-0.23229289
25	0x3ce31db8	0.027724132
26	0xbeadbc81	-0.3393288
27	0xbd10593a	-0.035241343
28	0x3f0cba63	0.54971904
29	0x3edadb39	0.4274538
30	0x3e8cac17	0.27475044
31	0xbe8c914c	-0.27454603
32	0x3ea0ffd4	0.3144518
33	0x3f25164f	0.64487165
34	0x3f02b6be	0.5106009
35	0xbec20051	-0.37890866
36	0x3e7f4e22	0.24932149
37	0x3f16abd0	0.58855915
38	0x3ea72a98	0.32649684
39	0xbe9bd829	-0.30438355
40	0x3ebbb141	0.36658671
41	0x3e804f3c	0.2506045
42	0xbec04e55	-0.37559763
43	0xbee212d6	-0.44154996
44	0x3e15da4e	0.14634058
45	0xbc27f56c	-0.010251384
46	0xbf29049d	-0.66022664
47	0xbd592065	-0.05300941
48	0x3e0938e9	0.13400616
49	0xbeb14b83	-0.34627923
50	0x3ebaccc2	0.36484343
51	0xbe9311fa	-0.28724653
52	0x3ea5283e	0.32257265
53	0x3e46057f	0.19338034
54	0x3f35146d	0.7073429
55	0xbe7d22b0	-0.24720263
56	0xbe0adca9	-0.13560738
57	0xbd21b8e4	-0.039482966
58	0xbe64e5c2	-0.2235327
59	0xbd8df5d2	-0.06931652
60	0x3ea57204	0.3231355
61	0x3e71aaad	0.23600264
62	0x3ec5370b	0.38518557
63	0xbe2373dc	-0.15962166

network.6.bias f4 [2]
0	0x3e192047	0.14953719
1	0x3ea5baf2	0.3236919

network.0.weight f4 [32, 4]
0	0xbe93b317	-0.28847572
1	0xbee330a5	-0.4437305
2	0xbd4b9f55	-0.049712498
3	0xbed2b28f	-0.41151854
4	0xbe91229d	-0.2834672
5	0xbe34743d	-0.17622466
6	0xbd5182a8	-0.051149994
7	0xbea4d1a4	-0.32191193
8	0x3f1c948b	0.6116416
9	0xbef0c898	-0.4702804
10	0x3dba5f29	0.091001816
11	0xbb1a2d04	-0.0023525367
12	0xbf1f00ab	-0.62110394
13	0x3f271d0f	0.65278715
14	0xbde8e2c1	-0.11371375
15	0x3c840cd1	0.016119393
16	0xbe198e57	-0.14995705
17	0xbec98462	-0.39358813
18	0xbd9886d4	-0.074475914
19	0x3ec8727c	0.39149845
20	0x3d66dd6d	0.05636351
21	0x3e24361c	0.16036266
22	0x3de1e6aa	0.11030324
23	0xbec773db	-0.38955578
24	0x3eeb18e7	0.45917436
25	0xbe6cc57a	-0.23122206
26	0xbe6c543e	-0.23079011
27	0x3d487c91	0.04894692
28	0xbe948fbe	-0.29015917
29	0xbeabf4d4	-0.33585227
30	0xbdab9ea4	-0.08379868
31	0xbeb88a74	-0.3604313
32	0x3e8dd655	0.27702585
33	0xbac0f9f4	-0.0014722929
34	0x3e9ba2ba	0.30397588
35	0x3d5be564	0.05368556
36	0xbb95d94c	-0.004573023
37	0xbed93b66	-0.4242813
38	0xbdc1bb3d	-0.09459541
39	0x3e5f97a1	0.21835186
40	0x3e34597f	0.17612265
41	0x3e295cbe	0.16539285
42	0xbe802964	-0.2503158
43	0xbeaefc5e	-0.34176916
44	0x3ec7e591	0.39042333
45	0xbf19d2ba	-0.6008717
46	0xbdffd82e	-0.12492405
47	0x3acf7f84	0.0015830849
48	0x3f0528c8	0.5201535
49	0xbe454d71	-0.19267823
50	0x3e849f2f	0.25902697
51	0xbe139726	-0.14413127
52	0x3e7decb7	0.24797331
53	0xbe11335c	-0.14179748
54	0xbdf4f7bc	-0.11961314
55	0xbd46c657	-0.048528995
56	0xbe71ba63	-0.23606257
57	0xbe647f43	-0.22314171
58	0xbda909d5	-0.082538284
59	0x3da62a1c	0.081135005
60	0x3d0e68ea	0.034768023
61	0xbee4db3c	-0.44698513
62	0xbf107442	-0.56427395
63	0x3e8ccc0f	0.27499434
64	0xbe93e4bb	-0.28885445
65	0xbe2e6d11	-0.17033793
66	0xbce687b5	-0.028140882
67	0xbe599515	-0.21248277
68	0xbd3755d1	-0.044759575
69	0x3e1daf27	0.15398847
70	0xbbe7d662	-0.007075117
71	0x3d8307f1	0.06397999
72	0x3ec5555a	0.3854168
73	0xbedd0835	-0.43170324
74	0xbdb2ffd1	-0.08740199
75	0xbc703c82	-0.014662864
76	0xbeff3bce	-0.49850315
77	0x3efb341d	0.49063197
78	0xbcb8fe99	-0.02258234
79	0x3bcee8f7	0.0063143927
80	0xbb9fcb0e	-0.004876501
81	0x3f0b7fd1	0.5449191
82	0xbd9b3176	-0.07577793
83	0xb946a907	-0.00018945719
84	0x3ed58167	0.4170029
85	0xbec39739	-0.3820131
86	0x3c9b5fcb	0.018966576
87	0x3be93695	0.0071171024
88	0xbec39c47	-0.38205168
89	0xbe839be3	-0.2570487
90	0xbddc7fbf	-0.10766553
91	0x3e69afb8	0.22820938
92	0xbc9e9033	-0.019355869
93	0xbdbd8227	-0.0925334
94	0xbe6859ec	-0.22690552
95	0x3d4716b5	0.04860564
96	0xbd10ad4f	-0.03532153
97	0xbd65375b	-0.055960994
98	0xbe37c2f4	-0.17945462
99	0x3e942694	0.28935683
100	0x3e65d2c9	0.2244369
101	0xbdf07a0c	-0.117420286
102	0xbd947071	-0.07248009
103	0xbdd4d463	-0.10392072
104	0xbe8cfbe9	-0.27535942
105	0xbeaf935d	-0.34292117
106	0xbe8c5e61	-0.27415755
107	0xbd202a44	-0.039102808
108	0xbf061591	-0.5237666
109	0x3f183a26	0.5946373
110	0xbd40b5dc	-0.047048435
111	0x3a84674e	0.0010101588
112	0x3d7c8cd9	0.06165776
113	0xbebb1f38	-0.36547256
114	0xbec1b02c	-0.3782972
115	0x3ec0482c	0.37555063
116	0xbebf9eb7	-0.37425777
117	0x3f14cd8b	0.58126134
118	0x3cdd2641	0.02699578
119	0xbc2e9b10	-0.010657087
120	0xbe98e045	-0.29858604
121	0xbeb7457b	-0.35795197
122	0xbe109d50	-0.1412251
123	0x3e87ef0b	0.26549563
124	0xbdabf4d8	-0.083963096
125	0xbddd2431	-0.107979186
126	0x3e8fa2c4	0.28053868
127	0xbe1b344b	-0.15156667

network.0.bias f4 [32]
0	0x3dbf480a	0.09339912
1	0x3d19e96c	0.037576124
2	0x3d912766	0.07087593
3	0xbd649ed9	-0.05581555
4	0x3dbc51a0	0.09195256
5	0xbdb31d18	-0.087457836
6	0x3d96bfb6	0.07360785
7	0x3daef8c5	0.08543543
8	0x3d357ae9	0.04430667
9	0x3c5a5ba6	0.013327515
10	0xbdf6d947	-0.12053161
11	0x3e23099c	0.15921634
12	0x3d2e97c7	0.042625215
13	0x3d6d9a93	0.05800874
14	0xbbb936b7	-0.0056522745
15	0x3db7b8fd	0.089708306
16	0x3df2892f	0.11842572
17	0x3d0594e4	0.032612696
18	0x3e14500b	0.14483659
19	0xbd14666f	-0.0362305
20	0xbe2b4c2b	-0.16728275
21	0x3db623e0	0.08893561
22	0xbdf2c907	-0.11854749
23	0xbde1f85b	-0.11033698
24	0x3d31e25a	0.043428756
25	0x3d9e4051	0.07727111
26	0xbd371746	-0.04469993
27	0xbd9044a4	-0.07044342
28	0x3c447a89	0.011992105
29	0xbdc4e361	-0.096136816
30	0x3d1f0ee5	0.038832564
31	0x3cc3487f	0.02383828

network.3.weight f4 [32, 32]
0	0x3ca3960b	0.019969007
1	0x3ec1484e	0.37750477
2	0x3e210d03	0.1572762
3	0x3ce8f354	0.02843634
4	0x3e76b4b0	0.24092364
5	0x3e7f4da9	0.24931969
6	0x3e05c247	0.13062392
7	0x3e2daf69	0.16961445
8	0x3d0e9568	0.034810454
9	0x3de078fd	0.10960577
10	0x3da977c3	0.08274796
11	0x3f036751	0.51329523
12	0x3e231037	0.15924154
13	0x3de69dc9	0.11260564
14	0xbea0c691	-0.31401494
15	0x3e5145b1	0.20436741
16	0x3eb9f231	0.3631759
17	0x3c7ec587	0.015550024
18	0x3d7ff95f	0.06249368
19	0xbec2fe5e	-0.38084692
20	0xbe85485f	-0.26031777
21	0x3efbcf2b	0.49181494
22	0xbe58cb52	-0.2117131
23	0x3d8fc8d6	0.07020728
24	0xbd385394	-0.04500158
25	0xbe53b1e1	-0.20673324
26	0xbe252375	-0.16126807
27	0xbe69234c	-0.22767371
28	0x3d852915	0.065019764
29	0xbe8889c8	-0.2666762
30	0x3e20cd8a	0.15703407
31	0xbd30cbe8	-0.04316321
32	0x3d1646d0	0.036688626
33	0xbe00fc8c	-0.12596339
34	0x3ee64ab2	0.44978863
35	0xbf16b0ef	-0.5886373
36	0xbdd9edf4	-0.10641089
37	0xbde90964	-0.11378744
38	0x3ea55fb7	0.32299587
39	0xbca11830	-0.019664854
40	0xbd76c728	-0.060248524
41	0x3e7c8b0d	0.24662419
42	0x3e596c2b	0.21232669
43	0x3eea6b00	0.4578476
44	0x3ad74742	0.0016424435
45	0xbe522cb3	-0.20524864
46	0xbe6d0f4c	-0.23150367
47	0x3e5f128d	0.2178442
48	0x3e10897f	0.1411495
49	0x3de992d5	0.11404959
50	0x3dc531df	0.09628653
51	0xbe748043	-0.23877053
52	0xbe45b371	-0.19306733
53	0x3e0cc6d9	0.1374773
54	0x3de03c5e	0.10949014
55	0xbe5acd34	-0.21367341
56	0x3d830923	0.06398227
57	0x3e705712	0.23470715
58	0x3e696f40	0.22796345
59	0xbf01aa4b	-0.5065047
60	0xbd60e303	-0.054903995
61	0xbed54aad	-0.41658536
62	0x3d86d84c	0.06584224
63	0x3daacf72	0.08340348
64	0x3e7133dd	0.2355494
65	0xbddcd224	-0.10782269
66	0x3e1787ca	0.14797893
67	0xbea74c2f	-0.3267531
68	0xbd3f8973	-0.04676194
69	0x3e312ddd	0.17302652
70	0xbe2e0b3d	-0.16996475
71	0xbe3cd4bb	-0.18440525
72	0x3e58d67b	0.21175568
73	0xbd740c1c	-0.05958186
74	0x3e81f647	0.25383207
75	0x3e1f381e	0.15548751
76	0x3e724636	0.23659596
77	0xbe053d6b	-0.1301171
78	0x3def7388	0.11691958
79	0x3e53f30d	0.20698185
80	0x3e2dc71f	0.1697049
81	0x3e676b9f	0.22599648
82	0x3e0f1bf6	0.1397551
83	0xbecce918	-0.40021586
84	0xbccad1cb	-0.02475824
85	0x3e9cbed8	0.30614352
86	0x3d41a17f	0.047273155
87	0xbe8d40a2	-0.27588373
88	0x3e139680	0.1441288
89	0xbde961c2	-0.11395599
90	0xbe82770c	-0.2548145
91	0xbea8dd4b	-0.32981333
92	0x3e952e3d	0.2913684
93	0xbe8daf80	-0.27672958
94	0xbdb0830f	-0.086187474
95	0xbdb5c6c6	-0.08875804
96	0xbe66ecec	-0.22551316
97	0xbe53937f	-0.20661734
98	0xbed3e23e	-0.41383547
99	0x3ed7dcea	0.42160732
100	0xbd55f414	-0.052234724
101	0x3e26c95d	0.16287751
102	0x3dfa59cf	0.12224161
103	0xbdf1752d	-0.11789928
104	0xbd507e63	-0.05090178
105	0xbd74c0a4	-0.05975403
106	0x3e896bdf	0.26840112
107	0xbea49bd2	-0.3215013
108	0xbd2263dc	-0.039646015
109	0x3e4683a0	0.19386148
110	0xbe392e93	-0.18084173
111	0xbdbf9589	-0.093546934
112	0xbe4e28dd	-0.20132776
113	0xbdc46425	-0.095894136
114	0x3e7a237c	0.24427599
115	0x3d1e3a3e	0.038629763
116	0xbe42583c	-0.18978971
117	0x3ae884ab	0.0017739733
118	0x3e5853d3	0.21125726
119	0x3dda72f1	0.106664546
120	0x3e26a54a	0.1627399
121	0xbe47574e	-0.19466898
122	0x3da8d6c2	0.08244087
123	0x3e37e3bb	0.17957966
124	0x3e258a81	0.16166116
125	0x3e45cbf9	0.1931609
126	0xbebd3483	-0.36954126
127	0x3bb87063	0.005628632
128	0x3eb391ff	0.35072324
129	0xbe22c746	-0.1589633
130	0x3ec92d3f	0.39292333
131	0xbf0865d7	-0.53280395
132	0xbcc51c07	-0.024061216
133	0x3e9b82fd	0.30373374
134	0x3d22b7fc	0.039726242
135	0x3ea38244	0.31935322
136	0xbd7ba500	-0.061436653
137	0x3ec6bf14	0.38817656
138	0x3e4b3bac	0.19846982
139	0x3f376ac1	0.7164727
140	0xbdd363d1	-0.10321773
141	0x3e1454d6	0.14485487
142	0xbe263898	-0.16232526
143	0x3e2001c7	0.15625678
144	0x3e77b7e6	0.24191245
145	0xbc50dc84	-0.0127478875
146	0x3eb194ac	0.3468374
147	0x3d940a00	0.0722847
148	0x3e0c34de	0.13692042
149	0x3eebd4c0	0.46060753
150	0xbe6a9ac8	-0.22910607
151	0x3d4605ce	0.04834538
152	0x3e8ffc48	0.28122163
153	0x3e862647	0.26201078
154	0x3ea3cc73	0.3199192
155	0xbe87273b	-0.26397118
156	0x3ec1576f	0.3776202
157	0x3c8739be	0.016507026
158	0x3da2fb3f	0.07958078
159	0x3d7a2015	0.061065752
160	0x3e305fed	0.17224093
161	0x3d9f67fe	0.07783507
162	0x3f1ac6ba	0.6045948
163	0xbf0813bb	-0.53155106
164	0x3e90add6	0.28257626
165	0x3e047308	0.12934506
166	0x3e0fcf5a	0.14043942
167	0x3d33aa4f	0.04386359
168	0x3e3b2c14	0.18278533
169	0x3ed0db53	0.4079233
170	0xbea1e639	-0.31620958
171	0x3f33a917	0.70179886
172	0xbe4614b5	-0.19343837
173	0x3eb22516	0.3479392
174	0x3e3b493e	0.18289658
175	0xbd44e6ff	-0.048071858
176	0xbd7f6a1b	-0.06235705
177	0xbe307d24	-0.17235237
178	0x3ec5f5a1	0.38663962
179	0xbeb3b774	-0.351009
180	0xbe704524	-0.23463875
181	0x3e97d672	0.29655796
182	0x3d4c249d	0.049839605
183	0xbea27ff0	-0.31738234
184	0xbd9bca51	-0.07606948
185	0x3e8b1d75	0.2717091
186	0x3b9761e8	0.0046198256
187	0xbf1c282b	-0.6099879
188	0x3ca5b670	0.020228595
189	0xbeefa8c6	-0.4680845
190	0xbdb70308	-0.08936125
191	0x3c8e2250	0.017350346
192	0x3dbe8163	0.09302022
193	0x3db5eba5	0.08882836
194	0x3e5bf88f	0.21481536
195	0xbdd30323	-0.10303333
196	0x3ede012a	0.43360263
197	0x3d156190	0.036469996
198	0x3eb97283	0.36220178
199	0xbd683b84	-0.056697384
200	0x3dbf40ee	0.09338556
201	0x3e71bc84	0.23607069
202	0x3e0ce051	0.13757445
203	0x3efd9686	0.49528903
204	0x3e84f9a9	0.25971726
205	0x3e9682e8	0.2939675
206	0x3e2e49a7	0.17020284
207	0x3e96c80c	0.294495
208	0x3eae39c4	0.34028447
209	0xbe1a77f9	-0.15084828
210	0x3da78828	0.081802666
211	0xbd053a2d	-0.032526184
212	0xbec0c706	-0.37651843
213	0x3f0c63fa	0.5484005
214	0xbe42cd16	-0.19023547
215	0x3cee280d	0.029071832
216	0xbe1b4e1a	-0.15166512
217	0x3c935f42	0.017989758
218	0xbe2b01c8	-0.16699898
219	0xbf1eb62f	-0.6199674
220	0x3ee251a6	0.44202918
221	0xbf106684	-0.56406426
222	0xbdd5d787	-0.10441499
223	0x3ea6c3c0	0.3257122
224	0xbe3b1bca	-0.1827232
225	0xbe870195	-0.26368394
226	0xbea48ce9	-0.32138756
227	0x3f0b1490	0.5432825
228	0x3cd4b3b4	0.025964595
229	0x3dd4940c	0.103798
230	0xbc8d60e3	-0.017258113
231	0x3e343a2e	0.17600319
232	0x3d439952	0.04775364
233	0xbe6bb3b2	-0.23017767
234	0x3e71db18	0.23618734
235	0xbe06aba4	-0.13151413
236	0x3e409dae	0.1881015
237	0xbe0a8bf8	-0.13529956
238	0x3e37a207	0.17932902
239	0x3d6da1b9	0.05801556
240	0xbd9a59b4	-0.07536641
241	0xbe01ef8d	-0.12689038
242	0xbe855226	-0.26039237
243	0x3ed57e89	0.416981
244	0xbd994c45	-0.074852504
245	0xbefdf018	-0.4959724
246	0x3cca66e0	0.024707258
247	0xbdc16cbd	-0.09444568
248	0x3df58d9a	0.11989899
249	0xbe8f4520	-0.27982426
250	0xbe5a38a7	-0.21310674
251	0x3ebf4dba	0.37363988
252	0xbcf9e6be	-0.030505534
253	0x3e4e836b	0.2016732
254	0xbd24b289	-0.040209327
255	0xbe011feb	-0.12609832

network.3.bias f4 [32]
0	0x3dcbee94	0.099576145
1	0x3e12603f	0.14294527
2	0x3e033293	0.12812261
3	0xbc87103a	-0.01648723
4	0x3e20d2d0	0.15705419
5	0x3e33313c	0.1749925
6	0x3e3306a0	0.17482996
7	0x3d8a7b4b	0.067617975
8	0xbd6387ce	-0.055549435
9	0x3e197a5c	0.14988083
10	0x3c9780b2	0.018493984
11	0xbc8a855f	-0.0169093
12	0xbd909b94	-0.07060924
13	0xbd217377	-0.039416756
14	0x3da5d3e3	0.08097055
15	0xbd4acbcd	-0.049510766
16	0xbd94291d	-0.07234404
17	0x3c4726aa	0.012155214
18	0x3e0b615d	0.1361136
19	0xbdb74227	-0.089481644
20	0x3dd97a26	0.10619001
21	0x3b03a135	0.00200851
22	0x3e29abf7	0.16569506
23	0xbcc18dec	-0.023627244
24	0xbd6e8b88	-0.058238536
25	0xbd622253	-0.055208515
26	0xbccb699b	-0.02483063
27	0xbd40cb68	-0.047068983
28	0x3e128da8	0.1431185
29	0x3df358b7	0.118821554
30	0x3e10ba3d	0.14133544
31	0xbd1e644f	-0.03866988

network.6.weight f4 [2, 32]
0	0x3f082f15	0.5319684
1	0x3f216795	0.6304868
2	0x3da79e7b	0.081845246
3	0xbe910ae8	-0.28328633
4	0x3de7cbb0	0.11318147
5	0x3ef63baa	0.48092395
6	0x3e5e0c67	0.21684419
7	0xbe7d084d	-0.24710198
8	0xbead854a	-0.33890754
9	0x3ebc8122	0.3681727
10	0xbe7298b9	-0.23691072
11	0x3e690a55	0.22757848
12	0xbe760263	-0.24024348
13	0xbe5ab1ef	-0.21356939
14	0xbec64b73	-0.38729438
15	0xbe1af74b	-0.15133397
16	0xbe8f20be	-0.27954668
17	0xbe796968	-0.24356616
18	0x3ec513f2	0.3849178
19	0x3e9dc185	0.30811706
20	0x3ea9537f	0.33071515
21	0xbea2a3ae	-0.31765503
22	0x3eec4a59	0.46150473
23	0xbeae13a7	-0.3399937
24	0xbe4ef8ce	-0.20212099
25	0x3ce68777	0.028140767
26	0xbeb0f2a0	-0.34560108
27	0xbd10593a	-0.035241343
28	0x3ef8b7e8	0.4857781
29	0x3ec49486	0.38394564
30	0x3e4e5bce	0.20152208
31	0xbe8ae7dc	-0.2713002
32	0x3e85716e	0.26063102
33	0x3f1b8d04	0.6076205
34	0x3ee7f5e4	0.45304787
35	0xbeb8ad0d	-0.36069527
36	0x3e634917	0.2219585
37	0x3f148c10	0.5802622
38	0x3e93fa37	0.28901836
39	0xbe663bc1	-0.22483732
40	0x3eb221ac	0.34791315
41	0x3e56a919	0.20962943
42	0xbeb69007	-0.3565676
43	0xbed1535e	-0.40883917
44	0x3e0f7475	0.14009269
45	0xbce11702	-0.027476791
46	0xbf1a67ea	-0.6031481
47	0xbd578ccc	-0.05262451
48	0x3e08d4f1	0.1336248
49	0xbe8205d7	-0.2539508
50	0x3ea6a400	0.32546997
51	0xbe951b1f	-0.29122254
52	0x3e93c2c0	0.2885952
53	0x3e1393c9	0.14411844
54	0x3f341de7	0.7035813
55	0xbe7a9977	-0.24472605
56	0xbe127d5b	-0.14305632
57	0xbd14989a	-0.036278345
58	0xbe511f66	-0.20422134
59	0xbd8df5d2	-0.06931652
60	0x3e73f011	0.23822047
61	0x3e27631c	0.16346401
62	0x3eb32e9c	0.34996498
63	0xbe203d7a	-0.15648451

network.6.bias f4 [2]
0	0x3dd89941	0.10576106
1	0x3e65cf1c	0.22442287

exp_avg f4 [32, 4]
0	0x3b1b343f	0.0023682264
1	0x3bc83ebe	0.006110995
2	0x3b9020fd	0.0043984638
3	0xbc743923	-0.014906201
4	0x3a90ef8e	0.0011057721
5	0x3b0d8a41	0.0021597298
6	0x3a9f07f9	0.0012133113
7	0xbba7086a	-0.0050974386
8	0xbb11b004	-0.0022230158
9	0xbbaab956	-0.005210082
10	0x3caeb5ea	0.021326978
11	0xbc6d2636	-0.014474442
12	0x3a59b4ae	0.00083048164
13	0xbc8ee834	-0.017444707
14	0xbb96ba53	-0.0045998483
15	0x3d15d042	0.036575563
16	0xbaf234a8	-0.0018478828
17	0xba919aa6	-0.0011108711
18	0xba748b9e	-0.0009328666
19	0xbb3f22af	-0.002916496
20	0xba397790	-0.0007075006
21	0xbae5f917	-0.0017545548
22	0xba69e5ea	-0.00089225045
23	0x3b236f75	0.002493826
24	0x3a865a45	0.0010250291
25	0x3b50464c	0.0031780181
26	0xbaee331e	-0.0018173193
27	0xbc1dc0ec	-0.009628516
28	0x3b0ef873	0.0021815568
29	0x3b90311f	0.004400387
30	0x3b5058a3	0.0031791113
31	0xbc489e2b	-0.012244741
32	0x3b1e3bf8	0.002414463
33	0x3b99de5b	0.0046956963
34	0x3a8dff9f	0.0010833627
35	0xbb9f6d51	-0.0048653265
36	0x3b9371c0	0.004499644
37	0x3b28088d	0.0025639862
38	0x3a14a7bd	0.0005670747
39	0x3c7c12b0	0.015385315
40	0x39f8f085	0.00047481447
41	0x3a997263	0.0011707064
42	0xba9d6dd9	-0.0012010887
43	0x390f6fc4	0.00013679179
44	0x3c0d3f41	0.008621038
45	0x3b7902b1	0.003799599
46	0xbaa2551d	-0.0012384985
47	0xbc97e375	-0.018541077
48	0x3b43888b	0.0029836025
49	0x3c076f2c	0.0082662515
50	0x3b9bce98	0.0047548525
51	0xbc80422e	-0.015656557
52	0x3b93bdc1	0.0045087044
53	0x3c18f5ea	0.009335974
54	0xb9dc9b5d	-0.00042077425
55	0xbc41a454	-0.011818964
56	0x00046605	4.0394e-40
57	0x00022819	1.98055e-40
58	0x8000cbd3	-7.3118e-41
59	0x00106469	1.505388e-39
60	0xba2d8a29	-0.0006620014
61	0x39ceee79	0.00039469058
62	0x3b08fe3b	0.0020903486
63	0x3c9c33a4	0.019067593
64	0x38cce4a0	9.770063e-05
65	0x3b2cd591	0.0026372413
66	0x3b4bd311	0.0031101147
67	0xbbe16579	-0.0068785516
68	0x3b24cac2	0.0025145267
69	0x3b23d74c	0.0025000153
70	0x39a8d762	0.0003220393
71	0xbacfb43e	-0.0015846563
72	0xbb04797e	-0.0020214017
73	0xba4bf93d	-0.0007780975
74	0xbb91a0d0	-0.004444219
75	0xbcfae9a1	-0.030628981
76	0x3a5d540d	0.00084430055
77	0xbc7e087e	-0.015504954
78	0xbb9821d9	-0.004642707
79	0x3d3f6055	0.04672273
80	0x3aa7debc	0.0012807469
81	0xbbaf2e09	-0.005346064
82	0xbbbbaf58	-0.0057276897
83	0x3c25f047	0.010128087
84	0x3a27ed82	0.0006405936
85	0x3b3688ac	0.002785246
86	0x3979d794	0.000238268
87	0xbc923ac5	-0.01785029
88	0x0184f21a	4.883654e-38
89	0x01294abf	3.1094025e-38
90	0x801e9862	-2.80973e-39
91	0x0276c186	1.8128764e-37
92	0xb96be3d7	-0.00022496223
93	0xb9a61633	-0.00031678527
94	0x3a063b2c	0.00051205116
95	0x392e14b9	0.00016601653
96	0x3afbc045	0.0019207081
97	0x3b16e0b5	0.002302212
98	0xb92d2d77	-0.00016515503
99	0x3b82c13c	0.0039903205
100	0x3b042979	0.0020166321
101	0x3bd5f00f	0.0065288614
102	0x3acf34f0	0.0015808623
103	0xbbf6bd03	-0.007529856
104	0x00000004	6e-45
105	0x00000004	6e-45
106	0x80000004	-6e-45
107	0x80000004	-6e-45
108	0xbb24aafe	-0.0025126333
109	0xbcc394e4	-0.023874708
110	0xbc24ecd6	-0.010066232
111	0x3d0cfd0b	0.034421008
112	0x39cae895	0.0003870173
113	0x3aa1c42b	0.0012341788
114	0xbad2bf3a	-0.0016078718
115	0x3b9f0b3c	0.004853634
116	0x3b13a088	0.0022526104
117	0xbc514441	-0.012772621
118	0xbc0ae264	-0.008476827
119	0x3cc54f7e	0.024085756
120	0x3ae75642	0.0017649608
121	0xb91de2d9	-0.00015057194
122	0xba327749	-0.0006807936
123	0x3bb5b0d0	0.0055447593
124	0xba7e45fa	-0.00096997584
125	0xba8ca019	-0.0010728865
126	0xb9d1f4e6	-0.0004004605
127	0xba07f38e	-0.0005186134

exp_avg_sq f4 [32, 4]
0	0x39fbd18a	0.0004803057
1	0x3a5ed2c1	0.0008500033
2	0x3a193853	0.000584488
3	0x3b4d5a1d	0.003133423
4	0x38ae6126	8.315062e-05
5	0x392e5a87	0.00016627657
6	0x3905b41e	0.00012750967
7	0x3a096eab	0.0005242626
8	0x3bab7d7f	0.005233466
9	0x3bf5eba6	0.007504898
10	0x3aecdf9a	0.001807201
11	0x3c9cbdbb	0.01913344
12	0x3b451ec4	0.0030078152
13	0x3bbb74d0	0.0057207122
14	0x3afda293	0.0019350819
15	0x3c260454	0.010132868
16	0x38fc20b5	0.000120223885
17	0x3941f862	0.00018498444
18	0x373c54fe	1.1225462e-05
19	0x3a3d6956	0.0007225474
20	0x37dd6809	2.6393698e-05
21	0x38320b53	4.2449054e-05
22	0x379d228d	1.8731947e-05
23	0x38a9b459	8.09214e-05
24	0x3a09bdac	0.00052543986
25	0x3a32f519	0.00068266835
26	0x394b010f	0.00019359983
27	0x3afe5578	0.0019404134
28	0x397eeeef	0.00024312337
29	0x39e2c78c	0.00043254753
30	0x399dcfa6	0.00030100084
31	0x3ad393c9	0.0016142066
32	0x3982cb64	0.0002494707
33	0x39ac1b11	0.00032826563
34	0x386b1d81	5.6055844e-05
35	0x3a57dbeb	0.00082343695
36	0x3989130b	0.00026144864
37	0x39caac40	0.0003865678
38	0x377420cb	1.45511685e-05
39	0x3b0c9fb3	0.0021457493
40	0x3859ce9f	5.1929263e-05
41	0x389ddb6c	7.527214e-05
42	0x381f0c5e	3.7920072e-05
43	0x3926ca66	0.00015906393
44	0x3bce1485	0.006289067
45	0x3c03ed41	0.008052171
46	0x3b575a62	0.003286027
47	0x3cd483a6	0.025941681
48	0x399e83e1	0.00030234366
49	0x39f15064	0.00046026998
50	0x392d5d78	0.00016533385
51	0x3a6f1705	0.00091205566
52	0x39e10bde	0.00042924186
53	0x3a1f8bb1	0.00060861843
54	0x39347a7a	0.00017211764
55	0x3ab3c086	0.0013713993
56	0x3391b749	6.785428e-08
57	0x3396eb84	7.027759e-08
58	0x310944fb	1.9975335e-09
59	0x35486791	7.4656515e-07
60	0x39e9d7b3	0.00044601932
61	0x3a28ae8e	0.0006434702
62	0x399ab1b9	0.00029505583
63	0x3aef8fcf	0.0018277111
64	0x394a05a0	0.00019266317
65	0x39963444	0.0002864917
66	0x39370e94	0.00017457671
67	0x3a85beac	0.0010203919
68	0x38729104	5.7832352e-05
69	0x38a8b5ed	8.0447506e-05
70	0x3811cb32	3.4759934e-05
71	0x3962193d	0.00021562442
72	0x3aa7ba3e	0.0012796593
73	0x3adf6a29	0.0017045188
74	0x39f8d6ca	0.00047462276
75	0x3b8e9eca	0.004352425
76	0x3af4340e	0.0018631236
77	0x3b6bcf10	0.0035981573
78	0x3a8bedf1	0.001067577
79	0x3bcf1652	0.0063197995
80	0x3a2356b1	0.00062308746
81	0x3a7fed97	0.00097628817
82	0x39988a09	0.00029094543
83	0x3abc96b6	0.0014388177
84	0x3b32df2b	0.0027293663
85	0x3b81a69d	0.0039566294
86	0x3a8bbd33	0.0010661244
87	0x3c2f9b42	0.010718169
88	0x361212af	2.176657e-06
89	0x35dbdcec	1.6381068e-06
90	0x337f2eaf	5.9414273e-08
91	0x37b61c9f	2.1709418e-05
92	0x379c5953	1.8638244e-05
93	0x37dc9f65	2.6300268e-05
94	0x383ac582	4.45298e-05
95	0x38493665	4.7972793e-05
96	0x37f368a3	2.9016583e-05
97	0x3842495a	4.632152e-05
98	0x36f660d7	7.342645e-06
99	0x38e4d6be	0.00010911886
100	0x397fa94e	0.00024381766
101	0x39bc47e6	0.00035911723
102	0x390cea61	0.00013438753
103	0x3a326650	0.0006805407
104	0x35074f2d	5.0406635e-07
105	0x35209d9a	5.9833985e-07
106	0x35f58c5d	1.8294774e-06
107	0x36438fec	2.9141038e-06
108	0x3b4798c7	0.0030456053
109	0x3bbb7ac1	0.0057214205
110	0x3b004417	0.0019571835
111	0x3c29eca4	0.010371361
112	0x39ac0d18	0.00032816152
113	0x3a0a7eb4	0.00052831625
114	0x38a327b6	7.7798424e-05
115	0x3ac19c42	0.00147713
116	0x3b2bf737	0.002623988
117	0x3b9b8ffa	0.004747388
118	0x3ab24fb8	0.001360408
119	0x3c052a62	0.008127781
120	0x38e30fe7	0.000108271655
121	0x39318876	0.00016930871
122	0x36d6e15b	6.403932e-06
123	0x3a9078fc	0.0011022384
124	0x389f31d5	7.590993e-05
125	0x3904519a	0.000126189
126	0x37fccdc9	3.0136567e-05
127	0x39a294e0	0.00031009968

exp_avg f4 [32]
0	0x3c428d64	0.01187453
1	0x3ba19534	0.0049311165
2	0x3b9d312b	0.004797121
3	0xbced9ded	-0.029005969
4	0xbbde6dbf	-0.006787985
5	0xbb2c66b1	-0.0026306326
6	0x3c0a6ab3	0.008448291
7	0x3c36bf46	0.011154002
8	0x3baa433e	0.005196004
9	0x3c90c1c7	0.017670525
10	0xba00c7d1	-0.00049125875
11	0x3cc090ca	0.02350654
12	0x3c148524	0.009064946
13	0x3c64ad80	0.013957381
14	0x001197c9	1.615654e-39
15	0x3ae76bc5	0.0017656019
16	0x3a92a95d	0.001118939
17	0x3bb889cd	0.0056316615
18	0x3b899411	0.004198559
19	0xbc7eba09	-0.015547284
20	0xbb80dc86	-0.0039325384
21	0x3c80a26a	0.015702445
22	0x0284d891	1.951996e-37
23	0xba2ff48c	-0.00067121605
24	0x3b9ae7be	0.004727333
25	0x3c10a0a5	0.008827363
26	0x00000004	6e-45
27	0xbd0d0b6a	-0.034434713
28	0x3b4c0914	0.003113334
29	0xbbe692ad	-0.007036528
30	0x3be83767	0.0070866826
31	0xbb5407b7	-0.0032353231

exp_avg_sq f4 [32]
0	0x3baa6212	0.005199679
1	0x3a505d7a	0.00079484994
2	0x3d2450be	0.040116064
3	0x3ca1f37e	0.019769426
4	0x3a97ee8c	0.0011591478
5	0x392e3e11	0.00016617055
6	0x3b92ecb6	0.0044837845
7	0x3b2f46e2	0.002674513
8	0x3b0a59cd	0.0021110654
9	0x3b666293	0.003515397
10	0x39c0c52b	0.00036767995
11	0x3d68beaf	0.056822475
12	0x3b05ff57	0.0020446384
13	0x3b4ff7a9	0.003173331
14	0x358fee9d	1.0723776e-06
15	0x3b767d3b	0.0037611264
16	0x3b0e6104	0.0021725306
17	0x39dc6a3b	0.00042040818
18	0x3c29fed1	0.010375694
19	0x3c497ea4	0.01229826
20	0x3b5f40b6	0.003406567
21	0x3cb5c2c4	0.022187598
22	0x38101fc0	3.4361845e-05
23	0x38be5658	9.075989e-05
24	0x398838d8	0.00025982293
25	0x3ae53f63	0.0017490204
26	0x3689ca11	4.106442e-06
27	0x3ca11b73	0.01966641
28	0x3b29a0dd	0.0025883236
29	0x3c8481d3	0.016175186
30	0x3adcca64	0.0016844985
31	0x3a24f4e4	0.0006292595

exp_avg f4 [32, 32]
0	0x3acb0c4c	0.0015491336
1	0x3a7dc858	0.00096810376
2	0x394f2d71	0.00019757987
3	0x3aca9b9b	0.0015457751
4	0xbad23a15	-0.0016039038
5	0x3b2e2317	0.0026571208
6	0xb988bb4c	-0.00026079488
7	0x3ae409d0	0.0017397944
8	0xb9f7ec7c	-0.00047287706
9	0x3a07d72e	0.00051819056
10	0x3a5fbc25	0.00085348106
11	0x3a04efdb	0.00050711416
12	0x3a5f174d	0.0008510247
13	0x3a209fdb	0.0006127336
14	0x800065fd	-3.6587e-41
15	0x39e57298	0.00043763663
16	0x3a5bf749	0.00083910354
17	0xb99de280	-0.0003011413
18	0xba492ea3	-0.0007674491
19	0x3a8fe22c	0.0010977439
20	0x3a2c0516	0.0006562037
21	0xb827cc2a	-4.0006045e-05
22	0x801381ec	-1.791482e-39
23	0x36e1fac0	6.7347137e-06
24	0x39ef9d15	0.00045702668
25	0xb78a827f	-1.6511649e-05
26	0x80000004	-6e-45
27	0x3ab1924c	0.0013547628
28	0xba14837f	-0.00056653464
29	0x3ab442de	0.0013752838
30	0x398cbb77	0.00026842553
31	0x3a3008da	0.0006715186
32	0x3b1276ab	0.0022348564
33	0x3a402dec	0.00073310616
34	0x3ad60234	0.0016327561
35	0x3afdc3dc	0.0019360739
36	0xba8c40c1	-0.001070045
37	0x3b6e7705	0.003638686
38	0xba552fc1	-0.0008132421
39	0x3ae9d7d3	0.001784081
40	0x3a16daab	0.000575463
41	0x3ab80311	0.0014039
42	0x3ad24fd0	0.0016045514
43	0x3ac7b8b2	0.0015237539
44	0x3b181a8a	0.0023209178
45	0x3a57c759	0.0008231304
46	0x800059b6	-3.2182e-41
47	0x3ace2d51	0.0015730058
48	0x39c973d5	0.0003842401
49	0x39305ef6	0.00016820044
50	0x398621cc	0.00025583652
51	0x3b06ce26	0.0020569651
52	0x3ab490cf	0.0013776066
53	0x3934f0b9	0.00017255814
54	0x8020e843	-3.022056e-39
55	0x3717fa39	9.058561e-06
56	0x39fb4aa3	0.0004793006
57	0x3aa45a9d	0.0012539212
58	0x80000004	-6e-45
59	0x3afac7c6	0.0019133023
60	0xb99841f8	-0.0002904085
61	0x3aeec245	0.0018215856
62	0x3a548230	0.00081065577
63	0x3ac18a97	0.0014766034
64	0x3a79f4f6	0.0009535098
65	0x395ce3d8	0.00021065713
66	0x3ab4d6cc	0.0013796925
67	0x3aac072c	0.0013124696
68	0x39857623	0.00025455756
69	0x3ae51a5e	0.0017479172
70	0x38fb3ef6	0.0001198034
71	0x3a927c4e	0.0011175962
72	0x3ab21116	0.0013585414
73	0x3a71fff0	0.0009231558
74	0x3a84cb73	0.0010131433
75	0x3a939867	0.0011260629
76	0x3b0f5aad	0.0021874115
77	0x3a3839eb	0.00070276734
78	0x800033ef	-1.863e-41
79	0x3aac4995	0.0013144488
80	0x39d09be6	0.00039789005
81	0x3aabb604	0.001310051
82	0xb8ccb2d4	-9.760787e-05
83	0x3a90f0e6	0.0011058121
84	0x3aaa3b00	0.0012987554
85	0x3a08a256	0.0005212178
86	0x8013f882	-1.834022e-39
87	0x35f4542e	1.8203916e-06
88	0x3ab553dd	0.0013834197
89	0x39bce1c3	0.0003602636
90	0x00000004	6e-45
91	0x3ab6911e	0.0013928746
92	0x39fc4b92	0.0004812149
93	0x3ace7a85	0.0015753066
94	0x3a06b9eb	0.0005139398
95	0x3a92b68a	0.0011193317
96	0xb8d3c9c7	-0.00010098848
97	0x38728494	5.782077e-05
98	0x3a03e2ab	0.00050310296
99	0xba56779f	-0.0008181277
100	0x3a69341c	0.00088960095
101	0xba120a79	-0.00055710186
102	0x3a7b9db0	0.00095983874
103	0xb933c56e	-0.00017144319
104	0xba3bf6ba	-0.0007170249
105	0x3966a188	0.00021994684
106	0x396147ab	0.0002148437
107	0x39bcb68c	0.00035994162
108	0xbaaefe1d	-0.0013350878
109	0x36a86848	5.01893e-06
110	0x00000000	0.0
111	0x3958b531	0.00020666864
112	0xb8ec7555	-0.00011275212
113	0xba0b164f	-0.00053057534
114	0x3a77e224	0.0009456
115	0xba4372f6	-0.000745579
116	0xba225ef5	-0.0006193959
117	0x3a46662d	0.0007568326
118	0x00000004	6e-45
119	0xb528c609	-6.2873056e-07
120	0x39d7c9c5	0.00041158326
121	0xb93459c3	-0.00017199577
122	0x00000004	6e-45
123	0xba658e97	-0.0008756904
124	0x3a38b5ec	0.00070461514
125	0xba8d284b	-0.0010769455
126	0x39257bfb	0.00015781813
127	0xba3139ad	-0.00067606085
128	0x3a2165c0	0.00061568245
129	0x399145ff	0.00027708706
130	0x3a0e162d	0.00054201746
131	0x3a451061	0.0007517394
132	0xb894278d	-7.064557e-05
133	0x3a957de0	0.0011405312
134	0x396efb44	0.00022791052
135	0x3a11dd8b	0.00055643235
136	0x3a51bed4	0.0008001153
137	0x3a0a8cb6	0.000528525
138	0x39b69210	0.0003482257
139	0x3a0821d5	0.00051930296
140	0x3a08b32d	0.00052146876
141	0x39f50b4d	0.0004673846
142	0x8000245c	-1.3043e-41
143	0x3a3bdcf5	0.0007166409
144	0x3996d48e	0.00028768595
145	0x3a00eaea	0.00049178174
146	0x39727c82	0.00023125301
147	0x3a31ebfc	0.00067871786
148	0x3a1294bc	0.0005591621
149	0x396f9409	0.00022847964
150	0x800bc24d	-1.079892e-39
151	0x358a9580	1.0325311e-06
152	0x3a2707b6	0.00063716935
153	0x39860b30	0.00025566807
154	0x80000004	-6e-45
155	0x3a4c87b3	0.0007802203
156	0x39873470	0.00025788276
157	0x3a634c5e	0.00086707424
158	0x39b5ea60	0.00034697633
159	0x3a24d719	0.00062881556
160	0x3b1c2aaf	0.0023829152
161	0x3a628219	0.0008640602
162	0x3a9000ea	0.00109866
163	0x3a9ecd82	0.001211569
164	0x37c875ff	2.3896804e-05
165	0x3b24ddeb	0.0025156687
166	0xba801285	-0.0009771144
167	0x3ace6e9f	0.001574952
168	0xba9fb6af	-0.0012185181
169	0x3abbdbee	0.0014332512
170	0x3a3cbf3b	0.00072001264
171	0x3ab3b416	0.0013710286
172	0x38cd2819	9.7826305e-05
173	0x3a1f098a	0.000606679
174	0x8000082d	-2.933e-42
175	0x3ad29c53	0.0016068317
176	0x3a30ade2	0.0006739778
177	0xba9ac200	-0.0011807084
178	0x3915b9f9	0.00014279028
179	0x3a9716af	0.0011527146
180	0x383878b0	4.3981418e-05
181	0x39ae00b1	0.0003318838
182	0x8021d184	-3.105731e-39
183	0x36b4e571	5.3911285e-06
184	0xba181012	-0.00058007345
185	0x3812f67a	3.503866e-05
186	0x80000004	-6e-45
187	0x3a845d88	0.0010098675
188	0x39e76d7a	0.0004414132
189	0x3a0c8a15	0.0005361152
190	0x3a69537f	0.00089006865
191	0x3a17aed7	0.0005786246
192	0x3a7052a5	0.00091675884
193	0x39140514	0.00014116272
194	0x3a1e0974	0.00060286303
195	0x3a9aeb5a	0.0011819408
196	0xb9e24e3f	-0.00043164377
197	0x3addb43c	0.0016914676
198	0x386064e0	5.349971e-05
199	0x3a396653	0.00070724374
200	0x39cfe998	0.00039656158
201	0x3a0e60aa	0.0005431274
202	0x3a6486da	0.0008717604
203	0x3a06cdde	0.0005142371
204	0x3ac08472	0.0014687909
205	0x3a34de00	0.00068995357
206	0x80003806	-2.0097e-41
207	0x3a8eb8b3	0.0010888785
208	0x3910e6cb	0.00013818887
209	0x3a3c748a	0.00071889965
210	0xb8d92829	-0.00010354847
211	0x3a938937	0.0011256103
212	0x3a722a21	0.0009237845
213	0x38d00dbb	9.9207704e-05
214	0x80137ac1	-1.78891e-39
215	0x35982230	1.1334832e-06
216	0x3a120df0	0.0005571535
217	0x3909716c	0.00013107591
218	0x80000004	-6e-45
219	0x3aa9fcd1	0.0012969022
220	0x3962f539	0.00021644392
221	0x3aa9380c	0.001291038
222	0x39714fb7	0.00023013247
223	0x3a3488b1	0.00068868237
224	0xb97a6cef	-0.00023882439
225	0x38d70c81	0.00010254328
226	0x3a04ebff	0.00050705665
227	0xba3212fa	-0.0006792989
228	0xb994fe09	-0.0002841803
229	0xba937369	-0.0011249605
230	0xb97a14f8	-0.0002384967
231	0xb70fee46	-8.578942e-06
232	0xba617484	-0.0008600431
233	0x37e1e5d5	2.6929114e-05
234	0xb90a3d9b	-0.00013183655
235	0x3a0511c4	0.00050761946
236	0xba15d4ed	-0.00057156273
237	0xb985fcd6	-0.00025556114
238	0x00000107	3.69e-43
239	0x39061619	0.00012787468
240	0xb7c4db6f	-2.3467202e-05
241	0xba523052	-0.00080180645
242	0x3988d30f	0.00026097192
243	0xba2aab26	-0.00065104885
244	0xb9ed4725	-0.0004525717
245	0x395fea1d	0.00021354151
246	0x00020921	1.86946e-40
247	0xb60a9a07	-2.0653258e-06
248	0xba60544e	-0.0008557484
249	0xba065675	-0.00051245774
250	0x00000004	6e-45
251	0xba575833	-0.0008214742
252	0xb8c2942e	-9.2782415e-05
253	0xba3dfbe9	-0.00072473154
254	0x374da5f3	1.225759e-05
255	0xba10b0cb	-0.0005519508

exp_avg_sq f4 [32, 32]
0	0x3818291d	3.6277914e-05
1	0x37915f23	1.7329648e-05
2	0x37ed11ff	2.8260982e-05
3	0x37ab4aab	2.0419558e-05
4	0x380b760f	3.3250133e-05
5	0x390ce2af	0.00013435887
6	0x38f97073	0.000118941905
7	0x37f0305c	2.8632749e-05
8	0x38862da0	6.398116e-05
9	0x36ffc72a	7.622778e-06
10	0x39596638	0.00020732812
11	0x380db601	3.3786524e-05
12	0x38d2dbf0	0.00010054547
13	0x38330a92	4.268677e-05
14	0x31aea4f7	5.082821e-09
15	0x38181b56	3.6265083e-05
16	0x37975826	1.804165e-05
17	0x3822ab22	3.878319e-05
18	0x3891c680	6.951112e-05
19	0x37a35b3f	1.9473604e-05
20	0x38c0f6ba	9.20123e-05
21	0x37edec05	2.8362507e-05
22	0x3427f638	1.5642661e-07
23	0x359e08b0	1.1774446e-06
24	0x383c57a2	4.4904307e-05
25	0x3882db19	6.239693e-05
26	0x33b66369	8.493118e-08
27	0x37b3220c	2.1354317e-05
28	0x38104da6	3.440459e-05
29	0x37f7a98d	2.9523648e-05
30	0x36a18906	4.8141255e-06
31	0x372f793c	1.045904e-05
32	0x38b239fc	8.498502e-05
33	0x38204b42	3.8217062e-05
34	0x38987c54	7.271083e-05
35	0x380db52a	3.3785742e-05
36	0x38abc3f6	8.190416e-05
37	0x398a71b7	0.00026406135
38	0x39881bbb	0.00025960602
39	0x3882fc30	6.245857e-05
40	0x390cc42d	0.00013424522
41	0x379a139d	1.8367364e-05
42	0x39daa476	0.00041702733
43	0x38b3edcb	8.5796775e-05
44	0x39670a3a	0.00022033686
45	0x38c482cf	9.370373e-05
46	0x320597ee	7.776164e-09
47	0x38ad96a7	8.277344e-05
48	0x383937ab	4.4159282e-05
49	0x38ad7fc0	8.273078e-05
50	0x39265d2e	0.00015865706
51	0x3823c8a5	3.9049093e-05
52	0x39385cfe	0.0001758225
53	0x38912de6	6.922688e-05
54	0x35421c2e	7.231164e-07
55	0x35fc35d8	1.8791134e-06
56	0x38db7549	0.0001046458
57	0x390ec405	0.00013615198
58	0x33cfb332	9.671784e-08
59	0x380f9c6f	3.4239547e-05
60	0x38adc99a	8.286834e-05
61	0x383fc61b	4.572245e-05
62	0x3742ab51	1.1603189e-05
63	0x37c0bb08	2.2975277e-05
64	0x37e73c27	2.7565357e-05
65	0x374bbc07	1.2143521e-05
66	0x37ebf71a	2.8129249e-05
67	0x372e377e	1.03841285e-05
68	0x37f26daa	2.8899714e-05
69	0x38b6be90	8.713931e-05
70	0x38a0f56d	7.675109e-05
71	0x37ab89a1	2.0448877e-05
72	0x385dd051	5.2884516e-05
73	0x36d2c295	6.28114e-06
74	0x38dd423b	0.000105504376
75	0x37ff41e2	3.0429048e-05
76	0x38af0523	8.345607e-05
77	0x38016c95	3.085712e-05
78	0x30660fac	8.3695784e-10
79	0x37e39e9b	2.7134365e-05
80	0x378303ab	1.5618125e-05
81	0x37f26b1c	2.8898525e-05
82	0x385c3a38	5.2506308e-05
83	0x375518f6	1.2701601e-05
84	0x3862593e	5.3965712e-05
85	0x37df05a5	2.65863e-05
86	0x34362fed	1.6967506e-07
87	0x34746d36	2.2764002e-07
88	0x381286e2	3.4934732e-05
89	0x382d26d6	4.1282583e-05
90	0x317d4fcf	3.6861711e-09
91	0x3725c507	9.88064e-06
92	0x37e0eb72	2.6812519e-05
93	0x37a43759	1.9576097e-05
94	0x367d2560	3.7721693e-06
95	0x3710fd19	8.641998e-06
96	0x36f388c9	7.2578882e-06
97	0x36c82d36	5.9657277e-06
98	0x35f49981	1.8224092e-06
99	0x370d5e04	8.426145e-06
100	0x3665d151	3.4245497e-06
101	0x38ab3a23	8.164744e-05
102	0x38843405	6.30394e-05
103	0x37094938	8.182884e-06
104	0x3774622d	1.4566392e-05
105	0x3487dee1	2.5307875e-07
106	0x392b8871	0.00016358659
107	0x36884474	4.061085e-06
108	0x3829a9ae	4.0450766e-05
109	0x37cf0474	2.4678397e-05
110	0x00000000	0.0
111	0x36a0b61f	4.7895733e-06
112	0x367277d5	3.6130562e-06
113	0x373e0977	1.1327086e-05
114	0x38095bbe	3.2748787e-05
115	0x36774fd2	3.685233e-06
116	0x387c424d	6.014323e-05
117	0x36e104c6	6.7060782e-06
118	0x3394e8f5	6.934162e-08
119	0x3593ccf4	1.1012003e-06
120	0x37140b27	8.824084e-06
121	0x381730e6	3.6046746e-05
122	0x3397ab71	7.0626704e-08
123	0x378acb97	1.6545686e-05
124	0x367d9371	3.778576e-06
125	0x3720384a	9.549849e-06
126	0x3469247d	2.171309e-07
127	0x36730a13	3.6215686e-06
128	0x37021619	7.753749e-06
129	0x365e0b15	3.3087028e-06
130	0x36fea22c	7.588669e-06
131	0x3659709d	3.240107e-06
132	0x36fcc659	7.533276e-06
133	0x37c0a445	2.2964678e-05
134	0x37ae5caa	2.0785566e-05
135	0x36bdfe72	5.6622603e-06
136	0x376e7b02	1.4214545e-05
137	0x35d92e80	1.6181293e-06
138	0x37e5cf29	2.7395394e-05
139	0x3707f013	8.102524e-06
140	0x37b90f28	2.2060776e-05
141	0x370e6222	8.486708e-06
142	0x2feb3d31	4.278973e-10
143	0x36fa598e	7.461006e-06
144	0x3693efb3	4.408846e-06
145	0x370051db	7.648453e-06
146	0x37667003	1.3735148e-05
147	0x366ed1cf	3.5586888e-06
148	0x376fd261	1.4294493e-05
149	0x36eab736	6.995072e-06
150	0x337b3f7c	5.849823e-08
151	0x336e7161	5.551681e-08
152	0x37225cb9	9.677541e-06
153	0x37362e20	1.0858785e-05
154	0x305b5552	7.9792983e-10
155	0x364124c2	2.8780637e-06
156	0x36f18a7a	7.1984805e-06
157	0x36b6b15e	5.444671e-06
158	0x35903f3f	1.0747243e-06
159	0x36150fd6	2.2211948e-06
160	0x387c1248	6.0098508e-05
161	0x37cf0e4a	2.4682977e-05
162	0x387ce6fc	6.0296603e-05
163	0x379a5a0a	1.8400158e-05
164	0x3887d4a3	6.476908e-05
165	0x3919b3d2	0.00014658205
166	0x390ed2dc	0.00013620727
167	0x3838addf	4.403095e-05
168	0x38ce63c6	9.84143e-05
169	0x375615e1	1.2760488e-05
170	0x39198dd0	0.00014644046
171	0x388ad7f9	6.620581e-05
172	0x39147eff	0.0001416169
173	0x386a1191	5.5806308e-05
174	0x3217b199	8.829738e-09
175	0x387dfd5e	6.0555867e-05
176	0x3809b9ec	3.28365e-05
177	0x384b8a60	4.8527843e-05
178	0x38d2412d	0.0001002572
179	0x37993dc4	1.8267783e-05
180	0x3897438f	7.212825e-05
181	0x385171b7	4.993539e-05
182	0x33edb01b	1.1068206e-07
183	0x34780765	2.309949e-07
184	0x3897c9cd	7.2378294e-05
185	0x3887ee27	6.481661e-05
186	0x2fb5a3a1	3.3039974e-10
187	0x3779a548	1.4880039e-05
188	0x386d93fe	5.664303e-05
189	0x37fe69a7	3.0328358e-05
190	0x371a72ba	9.205827e-06
191	0x3786eb0c	1.6083497e-05
192	0x377f2074	1.52067405e-05
193	0x36d78db6	6.4239966e-06
194	0x37684a5a	1.3845589e-05
195	0x36bac0bd	5.5656697e-06
196	0x377da817	1.5119112e-05
197	0x3825c9a8	3.9526873e-05
198	0x3811c750	3.475632e-05
199	0x37365c22	1.0869497e-05
200	0x37c5a1e1	2.355961e-05
201	0x3641db00	2.8886716e-06
202	0x38397142	4.4212917e-05
203	0x378398c0	1.5687547e-05
204	0x381abb3d	3.689084e-05
205	0x3777cdac	1.4770234e-05
206	0x30a23f74	1.1805086e-09
207	0x376f0c72	1.4248408e-05
208	0x370e8d0d	8.4967005e-06
209	0x3746411b	1.1816878e-05
210	0x37cb08dc	2.4203611e-05
211	0x36afc4ae	5.238303e-06
212	0x37abe5c4	2.0491781e-05
213	0x374fb7d4	1.2380962e-05
214	0x338ad0f6	6.4641355e-08
215	0x339281b5	6.8222484e-08
216	0x3797053f	1.8003046e-05
217	0x379750ee	1.8038289e-05
218	0x30135ebb	5.361291e-10
219	0x369a0359	4.5899474e-06
220	0x37618331	1.344159e-05
221	0x370bce61	8.333097e-06
222	0x3611d0d1	2.172823e-06
223	0x368e6750	4.243957e-06
224	0x36291180	2.5193149e-06
225	0x35db2ea7	1.6330349e-06
226	0x35fada19	1.8689926e-06
227	0x368aa6ae	4.1321246e-06
228	0x362b42d7	2.5519892e-06
229	0x37a28d0c	1.9377585e-05
230	0x373790b7	1.0941344e-05
231	0x363d9c29	2.8254092e-06
232	0x373326d9	1.0678276e-05
233	0x34810be9	2.4036788e-07
234	0x37c7c008	2.381207e-05
235	0x35df55a5	1.6639721e-06
236	0x37615cd5	1.3432659e-05
237	0x369a92fa	4.606668e-06
238	0x2e7ee6ef	5.7958024e-11
239	0x364b6a47	3.0311219e-06
240	0x3608b28b	2.0369505e-06
241	0x36c4d2f5	5.865814e-06
242	0x369d56b1	4.689057e-06
243	0x36405c33	2.8663897e-06
244	0x3744ea8c	1.173712e-05
245	0x35dd2984	1.6477866e-06
246	0x30aedb24	1.272245e-09
247	0x33a02f62	7.4591995e-08
248	0x36cbacb1	6.0699754e-06
249	0x36c34bd6	5.8202813e-06
250	0x3201eca2	7.562592e-09
251	0x3670a079	3.5856194e-06
252	0x3622cfc2	2.4260812e-06
253	0x36b689e8	5.440077e-06
254	0x342c6fb9	1.6059393e-07
255	0x35c50b17	1.4680871e-06
