learner/rl_coach_final_model.pth (torch, 31133 bytes, 24 tensors)

network.0.weight f4 [32, 4]
-0.8297943 -1.5876768 0.1722154 -0.114003934 -0.65755945 -0.16420765 -0.007893023 0.010947316
1.1504028 -1.139082 0.019761812 -0.013964157 -1.1583694 1.1401241 -0.050353672 0.016735649
-0.655113 -0.45361334 -0.0035301782 -0.0051884395 0.32340163 0.61383694 0.031103652 0.10297024
0.77423686 -0.65177625 0.18159711 -0.086717136 -1.0316644 -1.6446412 -0.016858788 -0.10351296
0.732813 -0.7235438 0.106465414 -0.047175158 -0.41627926 -0.47064587 -0.052208405 0.014677505
-0.0043969844 0.31205654 0.42239997 -0.058157526 1.1081885 -1.1091009 0.023039723 -0.014435963
0.89489806 -0.89214116 0.10026 -0.026753943 0.801325 -0.77289945 0.10055079 -0.023980124
-0.2935881 -0.2659982 -0.12155594 0.04308096 0.103584096 -0.6419931 -0.31847173 -0.33483005
-0.7201337 -0.2687114 0.009432301 -0.0054156124 -0.5652317 -0.2388397 0.07803522 -0.015938498
0.89743835 -0.87138104 0.09983703 -0.026184723 -1.0874459 1.0750598 -0.05491347 0.021446118
-1.0058583 1.0001159 -0.018658051 0.015027483 0.9344653 -0.8907849 0.11447326 -0.04527746
-0.41938332 -0.24396865 -0.5303722 0.18133198 -0.7294397 0.5952798 -0.29140475 0.13715573
-0.8428581 -0.5195415 -0.031622693 -0.002034613 0.9140622 -0.960713 0.14519307 -0.049477346
-0.33595833 -0.41170782 -0.21490426 0.013809287 -1.0693598 1.0511403 -0.23155726 0.15802345
0.060480885 0.03033055 -0.74985987 0.13512126 -1.1198977 1.1058289 -0.10729456 0.059440233
-0.57538736 -0.52365303 -0.09970908 0.12747903 -0.9298677 -1.0415745 0.056128994 -0.11107291
00000000: 666d 54bf fe38 cbbf 3c59 303e e57a e9bd
00000010: d155 28bf 0d26 28be bd51 01bc 5f5c 333c
00000020: 6640 933f 70cd 91bf 86e3 a13c ebc9 64bc
00000030: 7345 94bf 96ef 913f a73f 4ebd 3319 893c
00000040: 7cb5 27bf 0240 e8be 905a 67bb c903 aabb
00000050: e694 a53e 6b24 1d3f 16cd fe3c 10e2 d23d
00000060: 6334 463f cfda 26bf 98f4 393e c198 b1bd
00000070: 940d 84bf 9a83 d2bf 711b 8abc 9afe d3bd
00000080: a299 3b3f 2b3a 39bf 8a0a da3d bd3a 41bd
00000090: 8e22 d5be 7ff8 f0be 7bd8 55bd eb79 703c
000000a0: 9414 90bb e0c5 9f3e cf44 d83e 9636 6ebd
000000b0: 1fd9 8d3f 05f7 8dbf cdbd bc3c d184 6cbc
000000c0: 0a18 653f 5d63 64bf 1d55 cd3d 162b dbbc
000000d0: a323 4d3f bddc 45bf 93ed cd3d f771 c4bc
000000e0: 2e51 96be eb30 88be 52f2 f8bd a975 303d
000000f0: e623 d43d a959 24bf ba0e a3be d86e abbe
00000100: af5a 38bf 8a94 89be f089 1a3c 7375 b1bb
00000110: 06b3 10bf 6592 74be eed0 9f3d 7491 82bc
00000120: 85be 653f d412 5fbf 5b77 cc3d 5881 d6bc
00000130: 6d31 8bbf 8f9b 893f f2ec 60bd c5af af3c
00000140: f7bf 80bf cc03 803f c5d8 98bc d535 763c
00000150: 1e39 6f3f 7b0a 64bf f570 ea3d dc74 39bd
00000160: 69b9 d6be ebd2 79be 79c6 07bf 17af 393e
00000170: 8fbc 3abf 4264 183f 0133 95be 8d72 0c3e
00000180: 8cc5 57bf ac00 05bf cc86 01bd 2457 05bb
00000190: fbff 693f 4af1 75bf 7ead 143e c2a8 4abd
000001a0: bb02 acbe 5ecb d2be dd0f 5cbe 5940 623c
000001b0: c8e0 88bf c48b 863f 591d 6dbe e6d0 213e
000001c0: ceba 773d c677 f83c d1f6 3fbf 3a5d 0a3e
000001d0: cf58 8fbf cd8b 8d3f 40bd dbbd 9a77 733d
000001e0: 964c 13bf 200e 06bf 4634 ccbd dd89 023e
000001f0: cf0b 6ebf 5052 85bf 84e7 653d 327a e3bd

network.0.bias f4 [32]
0.38684753 0.16929758 -0.15782502 -0.16265143 0.16642977 -0.77857465 0.08809671 0.4397437
0.13413869 0.099608645 -0.2719331 -0.15463701 0.1555553 0.13185057 -0.04557007 -0.15366548
0.16357192 0.14386256 0.13072169 -0.15121396 -0.13834833 -0.16937669 -0.19128184 -0.10928139
0.45773688 -0.11405066 -0.10878809 -0.24261075 -0.36884746 -0.17572857 -0.029264517 0.37059268
00000000: e110 c63e 585c 2d3e e29c 21be 198e 26be
00000010: 916c 2a3e ab50 47bf 0c6c b43d 1626 e13e
00000020: a75b 093e 9eff cb3d d13a 8bbe 2a59 1ebe
00000030: e349 1f3e d603 073e afa7 3abd 7c5a 1dbe
00000040: 667f 273e b550 133e e8db 053e d5d7 1abe
00000050: 2fab 0dbe 1571 2dbe 63df 43be ecce dfbd
00000060: 7d5c ea3e 6493 e9bd 4acc debd f46e 78be
00000070: 93d9 bcbe 31f2 33be 24bc efbc 53be bd3e

network.3.weight f4 [32, 32]
1.0102772 0.33450097 -3.8852952 -4.7050495 0.14223331 -1.7978325 -0.038040023 1.5255356
0.026111135 0.02961824 0.046356652 -3.6386297 -0.031307254 -0.01043487 -0.2947947 -0.0061583156
0.3373177 0.15996791 -0.04277206 -4.6996617 -3.580938 -1.3796768 -0.14305432 -0.3656241
0.09751377 -0.6731489 -0.10520033 -2.557689 -0.13968284 -4.542015 0.12111562 0.65064234
-1.5680273 -0.07605896 -4.690673 -5.8138504 -0.2422379 -1.4047226 0.02170897 -1.5178628
-0.0006605909 0.14245939 -0.089057386 -4.759476 0.0034373486 -0.0087995855 0.04084302 0.017338006
-0.10572806 0.24215391 -0.014488532 -5.5854177 -3.9927957 -1.7549706 0.46664768 -0.24913158
-0.06279184 -1.8554974 0.2875286 -4.8982115 -0.085608445 -5.201736 -0.10400843 -0.69070125
-0.19885975 -0.124685906 -4.9189057 -4.7925906 -0.21315444 -1.5851532 0.026012233 -1.4799211
0.030739766 -0.17351817 -0.06599015 -5.141164 0.061629336 0.0057758377 0.2528091 -0.007905106
-0.038407244 0.23190786 0.017499892 -4.6010833 -2.8218853 -1.8522843 0.44675454 -0.6161368
-0.06515748 -1.3349102 -0.2480362 -4.5422063 -0.07767603 -5.0269136 -0.23618637 -0.37693736
-0.33222 -0.57201076 -2.0181339 0.2799963 -0.571728 -2.5261266 -0.563213 -1.3047142
-1.8875961 -0.46685004 -0.1056233 -1.467962 -4.0712886 -2.6311393 -0.17888053 -1.2397995
-0.57501394 -0.20453282 -4.3317356 0.31084716 0.051015694 -1.5279264 -0.10675928 0.34845105
-2.0292401 -0.7450051 0.1014183 0.36876547 0.33810747 0.36420634 -0.5303652 -2.4050288
1.642296 -0.07231952 -4.479143 -5.255974 0.00058282283 1.7604221 -0.10469274 1.8072685
-0.17050613 0.33023912 0.17900254 -4.2602015 -0.058030523 -0.10273138 -0.21980745 -0.04528315
0.3209847 0.2552208 0.016037526 -4.7620816 -4.227597 -1.9589721 -0.14371055 0.44268736
0.41180685 -1.1804291 0.29438138 -0.0748688 0.45443198 -2.5970562 0.039114732 0.6722047
-1.0200951 0.20023672 -5.3253093 -4.822959 0.08380841 -1.739489 0.037054572 -1.3300197
0.027551288 0.19496791 -0.09689973 -5.5520086 -0.04226819 0.068631254 0.294017 0.0071015595
-0.018300725 0.04610037 0.040441174 -4.5646443 -3.392529 -2.487036 0.2581934 -0.3498206
-0.13334532 -2.043593 0.025677776 -2.7690234 -0.16902244 -4.286591 -0.3312148 -0.35603583
1.2484231 0.19530475 -4.173934 -5.6632056 0.22826067 -1.8755906 -0.09282962 1.4522581
-0.037783634 0.0685351 0.048640158 -3.9589064 -0.022202156 -0.005885815 0.14491576 -0.06766577
0.290809 -0.064065136 -0.02744568 -5.5393248 -3.8843203 -1.5625125 -0.055874053 0.12511177
0.0729663 -0.78474385 -0.11076392 -2.3344033 0.016517641 -4.352235 -0.24792384 0.8625439
-0.41503683 -0.50745195 -1.9259477 0.28516087 -0.5006457 -2.349977 -0.6777675 -1.0226912
-2.214857 -0.362042 -0.10539175 -1.433377 -4.8672786 -3.16627 0.23330317 -1.2432342
-0.525518 -0.26866674 -5.223508 0.41665688 0.0511612 -2.1044881 -0.43809086 0.25330132
-1.8700873 -0.8286473 -0.17342848 0.5077413 0.19187382 0.10608331 -0.29505163 -2.358421
00000000: c350 813f b643 ab3e ada8 78c0 c48f 96c0
00000010: 9ca5 113e 601f e6bf dbcf 1bbd c044 c33f
00000020: 05e7 d53c f4a1 f23c 79e0 3d3d 4fdf 68c0
00000030: 093c 00bd 04f7 2abc 55ef 96be b2cb c9bb
00000040: e8b4 ac3e a1ce 233e c131 2fbd a163 96c0
00000050: 172e 65c0 4099 b0bf d57c 12be 1533 bbbe
00000060: 4db5 c73d 7c53 2cbf 4573 d7bd 2db1 23c0
00000070: 0509 0fbe 3058 91c0 770b f83d 7f90 263f
00000080: 1eb5 c8bf cdc4 9bbd fe19 96c0 100b bac0
00000090: 360d 78be f3cd b3bf 03d7 b13c 5449 c2bf
000000a0: 812b 2dba e0e0 113e b863 b6bd a14d 98c0
000000b0: 2445 613b 232c 10bc 034b 273d 6f08 8e3c
000000c0: f487 d8bd 32f7 773e 4f61 6dbc bebb b2c0
000000d0: f789 7fc0 e0a2 e0bf 72ec ee3e 591c 7fbe
000000e0: 0299 80bd f080 edbf f336 933e 26be 9cc0
000000f0: 7b53 afbd 9f74 a6c0 5f02 d5bd ccd1 30bf
00000100: e4a1 4bbe 535b ffbd ad67 9dc0 e75c 99c0
00000110: 2845 5abe 4de6 cabf 9b17 d53c 0e6e bdbf
00000120: f6d1 fb3c bfae 31be d825 87bd 6a84 a4c0
00000130: 0b6f 7c3d 3d43 bd3b 3270 813e 6b84 01bc
00000140: ea50 1dbd 4179 6d3e ef5b 8f3c 133c 93c0
00000150: c599 34c0 a717 edbf 03bd e43e 24bb 1dbf
00000160: 4971 85bd 56de aabf 34fd 7dbe c159 91c0
00000170: 9c14 9fbd 7adc a0c0 d7da 71be effd c0be
00000180: bd18 aabe 4c6f 12bf 1b29 01c0 ad5b 8f3e
00000190: c45c 12bf 0fac 21c0 ba2e 10bf e000 a7bf
000001a0: c09c f1bf f806 efbe 0751 d8bd 2ee6 bbbf
000001b0: ff47 82c0 9664 28c0 752c 37be c0b1 9ebf
000001c0: 1d34 13bf 0d71 51be 949d 8ac0 5c27 9f3e
000001d0: d5f5 503d 1893 c3bf 9ca4 dabd 2d68 b23e
000001e0: 12df 01c0 a7b8 3ebf 66b4 cf3d d4ce bc3e
000001f0: 6c1c ad3e 4179 ba3e 04c6 07bf feeb 19c0
00000200: c136 d23f 421c 94bd 2455 8fc0 f030 a8c0
00000210: 94c8 183a 8355 e13f 2669 d6bd 9354 e73f
00000220: 2999 2ebe 1a15 a93e 714c 373e 9253 88c0
00000230: 6ab1 6dbd d464 d2bd 3415 61be d37a 39bd
00000240: 1b58 a43e 4dac 823e 2161 833c f962 98c0
00000250: 7a48 87c0 99bf fabf dc28 13be eba7 e23e
00000260: 59d8 d23e 4d18 97bf 28b9 963e d054 99bd
00000270: 4fab e83e 2b36 26c0 c536 203d 9b15 2c3f
00000280: 7a92 82bf db0a 4d3e ef68 aac0 ae55 9ac0
00000290: bea3 ab3d 93a7 debf 89c6 173d 163e aabf
000002a0: 3db3 e13c aba5 473e 5e73 c6bd 0eaa b1c0
000002b0: 6921 2dbd 8b8e 8c3d 6589 963e 33b4 e83b
000002c0: 67eb 95bc bed3 3c3d a5a5 253d 9111 92c0
000002d0: 321f 59c0 992b 1fc0 ed31 843e b01b b3be
000002e0: ad8b 08be 3aca 02c0 335a d23c ae37 31c0
000002f0: 3814 2dbe c12b 89c0 fc94 a9be 544a b6be
00000300: 54cc 9f3f f8fd 473e de90 85c0 fb38 b5c0
00000310: 2abd 693e 5a13 f0bf 751d bebd 98e3 b93f
00000320: 03c3 1abd 215c 8c3d e73a 473d b95e 7dc0
00000330: 4ce1 b5bc cbdd c0bb cc64 143e 5a94 8abd
00000340: ebe4 943e 9534 83bd c3d5 e0bc 2642 b1c0
00000350: b498 78c0 6900 c8bf 31dc 64bd 4d1d 003e
00000360: 5b6f 953d f9e4 48bf 32d8 e2bd dd66 15c0
00000370: 0150 873c 8245 8bc0 bfdf 7dbe adcf 5c3f
00000380: b57f d4be 5fe8 01bf 7485 f6bf 9b00 923e
00000390: 512a 00bf 0666 16c0 2c82 2dbf 8ce7 82bf
000003a0: 38c0 0dc0 925d b9be a1d7 d7bd e678 b7bf
000003b0: bfc0 9bc0 2ba4 4ac0 07e7 6e3e 4c22 9fbf
000003c0: 5988 06bf b08e 89be fa26 a7c0 0d54 d53e
000003d0: 688e 513d efaf 06c0 724d e0be b6b0 813e
000003e0: 055f efbf 3b22 54bf 3c97 31be 55fb 013f
000003f0: 927a 443e 3542 d93d 0211 97be 5ff0 16c0

network.3.bias f4 [32]
0.2362109 0.17214532 0.1848691 0.28268895 0.36960962 0.21541014 0.27090278 0.28288057
0.16286156 0.3431142 0.1346376 0.2075095 0.1926377 0.3381145 0.32756343 0.32680976
0.32236543 0.24859737 0.24144155 -0.21615355 0.30537063 0.22589177 0.15968676 0.31816983
0.3233856 0.033803884 0.2006052 0.39854154 0.24995787 0.28884763 0.23777604 0.11063625
00000000: 45e1 713e dd46 303e 534e 3d3e 9bbc 903e
00000010: 793d bd3e 7a94 5c3e c5b3 8a3e b9d5 903e
00000020: 2ec5 263e aaac af3e 70de 093e 5f7d 543e
00000030: d142 453e 581d ad3e 65b6 a73e 9c53 a73e
00000040: 150d a53e 4f90 7e3e 743c 773e 5b57 5dbe
00000050: 8a59 9c3e 2c50 673e ed84 233e 28e7 a23e
00000060: cc92 a53e f175 0a3d 736b 4d3e a30d cc3e
00000070: f5f4 7f3e d6e3 933e 907b 733e 4295 e23d

network.6.weight f4 [2, 32]
0.9085694 1.5685943 1.2014813 -1.5876802 0.6416079 1.0976638 0.813171 -1.7422876
1.428134 0.68520594 -0.95055836 -1.5052836 1.2899371 -2.9928064 -1.9091961 -2.867947
0.7598296 0.8932509 1.0446957 0.19622058 0.79329336 0.98486656 1.4872773 -0.77862656
-2.229328 -1.139992 -1.5087153 -2.1210997 1.0898466 0.7834473 1.01041 -5.1716204
0.9998494 1.5057948 1.2381307 -1.6168132 0.5784777 1.0628546 0.85518366 -1.3952228
1.3096073 0.69254816 -1.7002599 -1.4649842 1.2284131 -2.7602932 -2.5657477 -2.3630996
0.701969 0.89187056 1.0166998 -0.2914271 0.8051651 0.9784688 1.4986349 -2.4959235
-1.9606012 -1.0191984 -1.7485586 -1.8960254 1.0320541 0.8471543 1.0155267 -4.3866034
00000000: 0198 683f b3c7 c83f 24ca 993f 1b39 cbbf
00000010: 6a40 243f 3f80 8c3f fa2b 503f 4803 dfbf
00000020: 18cd b63f a869 2f3f cb57 73bf 22ad c0bf
00000030: a91c a53f 248a 3fc0 8a60 f4bf 728c 37c0
00000040: 3184 423f 17ac 643f 97b8 853f 0cee 483e
00000050: 4615 4b3f 3720 7c3f 1a5f be3f 1254 47bf
00000060: 4fad 0ec0 42eb 91bf 951d c1bf 19c0 07c0
00000070: 1880 8b3f 0190 483f 1d55 813f ea7d a5c0
00000080: 21f6 7f3f e2bd c03f 117b 9e3f bcf3 cebf
00000090: 1d17 143f 9f0b 883f 51ed 5a3f a996 b2bf
000000a0: 36a1 a73f d64a 313f 1ea2 d9bf 9a84 bbbf
000000b0: a43c 9d3f a5a8 30c0 3635 24c0 063d 17c0
000000c0: 3eb4 333f a151 643f 3823 823f ef35 95be
000000d0: 4d1f 4e3f ee7c 7a3f 45d3 bf3f 36bd 1fc0
000000e0: fbf4 fabf 1875 82bf c5d0 dfbf f6b0 f2bf
000000f0: 591a 843f 1bdf 583f c7fc 813f 0e5f 8cc0

network.6.bias f4 [2]
14.848741 14.961125
00000000: 7194 6d41 c560 6f41

network.0.weight f4 [32, 4]
-0.8153263 -1.5745835 0.19964923 -0.11580227 -0.65755945 -0.16420765 -0.007893023 0.010947316
1.144354 -1.1427042 0.02237912 -0.009729983 -1.1534646 1.1441498 -0.05287897 0.012811802
-0.655113 -0.45361334 -0.0035301782 -0.0051884395 0.31873065 0.6093894 -0.0021208955 0.09998085
0.7824839 -0.6457374 0.16208863 -0.08563206 -1.0311671 -1.6447668 -0.0040267957 -0.10242195
0.7344794 -0.7188126 0.10537594 -0.039710913 -0.41627926 -0.47064587 -0.052208405 0.014677505
0.006149834 0.32090834 0.41359815 -0.038353734 1.1091117 -1.1034919 0.023976373 -0.015196544
0.89072275 -0.89878607 0.08698793 -0.022774033 0.7970869 -0.7758856 0.09530005 -0.01752358
-0.2935881 -0.2659982 -0.12155594 0.04308096 0.11189592 -0.6341746 -0.31599218 -0.33664766
-0.7201337 -0.2687114 0.009432301 -0.0054156124 -0.5652317 -0.2388397 0.07803522 -0.015938498
0.8986718 -0.87037176 0.08725598 -0.020079702 -1.0918485 1.0727203 -0.053130016 0.008038027
-1.0162255 0.99202573 -0.011378173 0.008448339 0.9325248 -0.8907563 0.11088084 -0.05968004
-0.41236237 -0.23602435 -0.5286562 0.19696571 -0.74193573 0.58325344 -0.28687492 0.1422247
-0.8401308 -0.52155745 -0.036561202 -0.0059539084 0.9117886 -0.95996714 0.14217941 -0.04576856
-0.33595833 -0.41170782 -0.21490426 0.013809287 -1.0735931 1.0515149 -0.2375649 0.16091983
0.036550067 0.00799119 -0.7491405 0.12619272 -1.1179463 1.1046436 -0.09955512 0.055356834
-0.57538736 -0.52365303 -0.09970908 0.12747903 -0.92080426 -1.0315642 0.08175382 -0.11238054
00000000: 39b9 50bf f48b c9bf d970 4c3e be29 edbd
00000010: d155 28bf 0d26 28be bd51 01bc 5f5c 333c
00000020: 317a 923f 2244 92bf 6b54 b73c 826a 1fbc
00000030: baa4 93bf 8073 923f 9e97 58bd 98e8 513c
00000040: 7cb5 27bf 0240 e8be 905a 67bb c903 aabb
00000050: aa30 a33e f200 1c3f b9fe 0abb c3c2 cc3d
00000060: dd50 483f 0c4f 25bf 90fa 253e dd5f afbd
00000070: 49fd 83bf b887 d2bf 36f3 83bb 99c2 d1bd
00000080: d806 3c3f 1a04 38bf 57cf d73d e9a7 22bd
00000090: 8e22 d5be 7ff8 f0be 7bd8 55bd eb79 703c
000000a0: 8c84 c93b 194e a43e 23c3 d33e ce18 1dbd
000000b0: 5ff7 8d3f 393f 8dbf 196a c43c edfa 78bc
000000c0: 6806 643f d816 66bf ba26 b23d 9c90 babc
000000d0: e30d 4c3f 70a0 46bf ac2c c33d 9c8d 8fbc
000000e0: 2e51 96be eb30 88be 52f2 f8bd a975 303d
000000f0: b029 e53d 4459 22bf bac9 a1be 155d acbe
00000100: af5a 38bf 8a94 89be f089 1a3c 7375 b1bb
00000110: 06b3 10bf 6592 74be eed0 9f3d 7491 82bc
00000120: 5b0f 663f afd0 5ebf 43b3 b23d 307e a4bc
00000130: b1c1 8bbf e64e 893f dc9e 59bd eeb1 033c
00000140: ad13 82bf 66f5 7d3f 846b 3abc e76a 0a3c
00000150: f2b9 6e3f 9b08 64bf 7e15 e33d 0f73 74bd
00000160: 2921 d3be 5eb0 71be 0356 07bf 61b1 493e
00000170: 80ef 3dbf 1950 153f 45e1 92be 5aa3 113e
00000180: d012 57bf ca84 05bf 33c1 15bd 0119 c3bb
00000190: fa6a 693f 68c0 75bf 7b97 113e d077 3bbd
000001a0: bb02 acbe 5ecb d2be dd0f 5cbe 5940 623c
000001b0: 806b 89bf 0a98 863f 3744 73be 2bc8 243e
000001c0: 86b5 153d 7bed 023c acc7 3fbf aa38 013e
000001d0: dd18 8fbf f664 8d3f 8ee3 cbbd d9bd 623d
000001e0: 964c 13bf 200e 06bf 4634 ccbd dd89 023e
000001f0: d4b9 6bbf 4c0a 84bf 8c6e a73d c527 e6bd

network.0.bias f4 [32]
0.40064687 0.16929758 -0.15898156 -0.16082706 0.16642977 -0.78281343 0.0882532 0.44046667
0.13531153 0.099608645 -0.26418117 -0.15549512 0.14169079 0.1281322 -0.04557007 -0.1539401
0.16357192 0.14386256 0.13265371 -0.14588784 -0.13734902 -0.1683765 -0.19118093 -0.11257211
0.4566989 -0.1222126 -0.10878809 -0.22837302 -0.3685234 -0.17992513 -0.029264517 0.37932464
00000000: 9621 cd3e 585c 2d3e 10cc 22be d9af 24be
00000010: 916c 2a3e 7666 48bf 18be b43d d984 e13e
00000020: 1b8f 0a3e 9eff cb3d c142 87be 1d3a 1fbe
00000030: 6417 113e 1635 033e afa7 3abd 79a2 1dbe
00000040: 667f 273e b550 133e 60d6 073e 9f63 15be
00000050: 39a5 0cbe e46a 2cbe efc4 43be 358c e6bd
00000060: 70d4 e93e 9a4a fabd 4acc debd 9eda 69be
00000070: 19af bcbe 4b3e 38be 24bc efbc d736 c23e

network.3.weight f4 [32, 32]
1.0148734 0.33450097 -3.8092139 -4.706407 0.14223331 -1.7875363 -0.041781988 1.5299702
0.02625589 0.02961824 0.056141336 -3.5795476 -0.03189408 -0.010311195 -0.2947947 -0.020356994
0.3373177 0.15996791 -0.040538073 -4.73321 -3.661184 -1.3684562 -0.19548385 -0.37708822
0.10553044 -0.6639571 -0.10520033 -2.55003 -0.14784539 -4.5424957 0.12111562 0.65927523
-1.5645878 -0.07605896 -4.6537986 -5.796769 -0.2422379 -1.3786778 0.011474591 -1.4985163
-0.009447037 0.14245939 -0.07054314 -4.7322946 -0.00428385 -0.016414827 0.04084302 -0.0065427334
-0.10572806 0.24215391 -0.018502753 -5.582798 -4.021871 -1.7451133 0.4314768 -0.25252452
-0.06884799 -1.8493389 0.2875286 -4.912498 -0.09170407 -5.211313 -0.10400843 -0.6653814
-0.2220137 -0.124685906 -4.864536 -4.7845125 -0.21315444 -1.5734276 0.025606092 -1.4983976
0.032872763 -0.17351817 -0.04451564 -5.097926 0.06448888 0.008772916 0.2528091 -0.012466759
-0.038407244 0.23190786 0.020389747 -4.6216507 -2.8588653 -1.863812 0.39745185 -0.61553365
-0.06506159 -1.3577194 -0.2480362 -4.555013 -0.067527056 -5.038083 -0.23618637 -0.38625142
-0.33222 -0.57201076 -2.0181339 0.2678377 -0.571728 -2.5312421 -0.5571253 -1.3047142
-1.8678677 -0.46685004 -0.10634565 -1.467962 -4.0753226 -2.6527874 -0.17888053 -1.1895021
-0.57501394 -0.20453282 -4.332116 0.3001052 0.040668536 -1.5279264 -0.1145982 0.34656462
-2.0054235 -0.7450051 0.1014183 0.35864416 0.34085062 0.35295355 -0.5303652 -2.4050288
1.64682 -0.07231952 -4.4040027 -5.231978 0.00058282283 1.7721666 -0.10474581 1.8117162
-0.16950083 0.33023912 0.17297268 -4.194843 -0.051902995 -0.09541142 -0.21980745 -0.057455424
0.3209847 0.2552208 0.021670178 -4.7420497 -4.2389994 -1.9522611 -0.15004212 0.45332685
0.4227616 -1.1747464 0.29438138 -0.06360706 0.4690041 -2.5915043 0.039114732 0.68207777
-1.0372461 0.20023672 -5.265456 -4.834494 0.08380841 -1.7345152 0.031987693 -1.3483475
0.017385967 0.19496791 -0.08671125 -5.509856 -0.044180866 0.06461858 0.294017 -0.014815102
-0.018300725 0.04610037 0.039451186 -4.59347 -3.452495 -2.520416 0.20257795 -0.3532478
-0.13243896 -2.0753233 0.025677776 -2.7828722 -0.16346864 -4.2921042 -0.3312148 -0.35852307
1.2548602 0.19530475 -4.101682 -5.6854124 0.22826067 -1.8700831 -0.08679516 1.4603165
-0.03056793 0.0685351 0.06482734 -3.910492 -0.014165011 0.00024002351 0.14491576 -0.07760141
0.290809 -0.064065136 -0.020963997 -5.5765452 -3.9383953 -1.5456789 -0.09929037 0.12912546
0.084233515 -0.77437913 -0.11076392 -2.3385901 0.040312983 -4.371935 -0.24792384 0.87352437
-0.41503683 -0.50745195 -1.9259477 0.2946621 -0.5006457 -2.3514867 -0.6707096 -1.0226912
-2.1712492 -0.362042 -0.100202575 -1.433377 -4.8410997 -3.1821036 0.23330317 -1.2462759
-0.525518 -0.26866674 -5.206455 0.42743334 0.066316955 -2.1044881 -0.45071518 0.27008316
-1.8515409 -0.8286473 -0.17342848 0.5278904 0.2083505 0.1212504 -0.29505163 -2.358421
00000000: 5fe7 813f b643 ab3e 29ca 73c0 e39a 96c0
00000010: 9ca5 113e fdcd e4bf 9723 2bbd 10d6 c33f
00000020: 9816 d73c f4a1 f23c 75f4 653d 4f17 65c0
00000030: 5ea3 02bd 49f0 28bc 55ef 96be b6c3 a6bc
00000040: e8b4 ac3e a1ce 233e 400b 26bd 7576 97c0
00000050: d750 6ac0 9329 afbf eb2c 48be b511 c1be
00000060: 5820 d83d 18f9 29bf 4573 d7bd b133 23c0
00000070: c864 17be 205c 91c0 770b f83d 43c6 283f
00000080: 6a44 c8bf cdc4 9bbd ebeb 94c0 227f b9c0
00000090: 360d 78be 8478 b0bf ecff 3b3c 62cf bfbf
000000a0: bfc7 1abc e0e0 113e ec78 90bd f56e 97c0
000000b0: 8a5f 8cbb 6378 86bc 034b 273d 6d64 d6bb
000000c0: f487 d8bd 32f7 773e 1693 97bc 48a6 b2c0
000000d0: 2bb3 80c0 df5f dfbf 87ea dc3e e54a 81be
000000e0: 2d00 8dbd 23b7 ecbf f336 933e 2f33 9dc0
000000f0: 58cf bbbd 13c3 a6c0 5f02 d5bd 6f56 2abf
00000100: 8f57 63be 535b ffbd 47aa 9bc0 ba1a 99c0
00000110: 2845 5abe 1366 c9bf dec3 d13c 7ecb bfbf
00000120: 97a5 063d bfae 31be 0856 36bd 3622 a3c0
00000130: bf12 843d 47bc 0f3c 3270 813e 6141 4cbc
00000140: ea50 1dbd 4179 6d3e 6608 a73c 90e4 93c0
00000150: a6f7 36c0 6491 eebf cf7e cb3e 9d93 1dbf
00000160: 033f 85bd c0c9 adbf 34fd 7dbe abc2 91c0
00000170: a04b 8abd fa37 a1c0 d7da 71be bfc2 c5be
00000180: bd18 aabe 4c6f 12bf 1b29 01c0 0622 893e
00000190: c45c 12bf dfff 21c0 c39f 0ebf e000 a7bf
000001a0: 4a16 efbf f806 efbe c0cb d9bd 2ee6 bbbf
000001b0: 0b69 82c0 45c7 29c0 752c 37be 9b41 98bf
000001c0: 1d34 13bf 0d71 51be b2a0 8ac0 64a7 993e
000001d0: 0d94 263d 1893 c3bf 76b2 eabd eb70 b13e
000001e0: dc58 00c0 a7b8 3ebf 66b4 cf3d 35a0 b73e
000001f0: f983 ae3e 54b6 b43e 04c6 07bf feeb 19c0
00000200: ffca d23f 421c 94bd 97ed 8cc0 5d6c a7c0
00000210: 94c8 183a 5bd6 e23f f984 d6bd 51e6 e73f
00000220: a091 2dbe 1a15 a93e c01f 313e 273c 86c0
00000230: 3c98 54bd 1067 c3bd 3415 61be 6156 6bbd
00000240: 1b58 a43e 4dac 823e a885 b13c dfbe 97c0
00000250: e2a5 87c0 b1e3 f9bf a4a4 19be 751a e83e
00000260: 3574 d83e 175e 96bf 28b9 963e 6b44 82bd
00000270: 4e21 f03e 35db 25c0 c536 203d a69c 2e3f
00000280: 7bc4 84bf db0a 4d3e 9e7e a8c0 2db4 9ac0
00000290: bea3 ab3d 9804 debf 8705 033d a796 acbf
000002a0: 046d 8e3c aba5 473e ab95 b1bd be50 b0c0
000002b0: fff6 34bd bf56 843d 6589 963e 0bbb 72bc
000002c0: 67eb 95bc bed3 3c3d 9197 213d b5fd 92c0
000002d0: aef5 5cc0 7f4e 21c0 9870 4f3e e5dc b4be
000002e0: 149e 07be 19d2 04c0 335a d23c 941a 32c0
000002f0: 5364 27be eb58 89c0 fc94 a9be 5690 b7be
00000300: 429f a03f f8fd 473e fb40 83c0 e6ee b5c0
00000310: 2abd 693e e25e efbf a9c1 b1bd a7eb ba3f
00000320: 9869 fabc 215c 8c3d 32c4 843d 8045 7ac0
00000330: 5d14 68bc d2ae 7b39 cc64 143e 7ded 9ebd
00000340: ebe4 943e 9534 83bd b0bc abbc 0f73 b2c0
00000350: ab0e 7cc0 ced8 c5bf c058 cbbd 7739 043e
00000360: 9f82 ac3d b63d 46bf 32d8 e2bd 76ab 15c0
00000370: 3a1f 253d e4e6 8bc0 bfdf 7dbe 4b9f 5f3f
00000380: b57f d4be 5fe8 01bf 7485 f6bf f3dd 963e
00000390: 512a 00bf c27e 16c0 a0b3 2bbf 8ce7 82bf
000003a0: bff5 0ac0 925d b9be 0237 cdbd e678 b7bf
000003b0: 4aea 9ac0 96a7 4bc0 07e7 6e3e f885 9fbf
000003c0: 5988 06bf b08e 89be 489b a6c0 8bd8 da3e
000003d0: 2fd1 873d efaf 06c0 24c4 e6be 5748 8a3e
000003e0: 4bff ecbf 3b22 54bf 3c97 31be d323 073f
000003f0: d559 553e 2152 f83d 0211 97be 5ff0 16c0

network.3.bias f4 [32]
0.23908795 0.16168518 0.19506298 0.2710771 0.38251233 0.21630925 0.28364313 0.30205145
0.16414912 0.3410651 0.12504725 0.1999367 0.19391474 0.3211167 0.33068877 0.31589615
0.32370785 0.25059178 0.2364341 -0.21615355 0.3069311 0.22509913 0.16486813 0.32854497
0.3296207 0.042385876 0.18696068 0.38657504 0.24238308 0.30111828 0.23588455 0.08914118
00000000: 79d3 743e cd90 253e 97be 473e 9eca 8a3e
00000010: a8d8 c33e 2c80 5d3e ac39 913e 7da6 9a3e
00000020: b516 283e 16a0 ae3e 630c 003e 35bc 4c3e
00000030: 9691 463e 6869 a43e 0a50 a93e 24bd a13e
00000040: 09bd a53e 914d 803e c81b 723e 5b57 5dbe
00000050: 1326 9d3e 6380 663e 31d3 283e 0c37 a83e
00000060: 0bc4 a83e d09c 2d3d 9f72 3f3e 2aed c53e
00000070: 4533 783e 2d2c 9a3e b88b 713e a78f b63d

network.6.weight f4 [2, 32]
0.9155634 1.5579188 1.2198894 -1.5744483 0.654701 1.1076752 0.82624817 -1.7528819
1.430843 0.6828371 -0.93686754 -1.4969532 1.3027455 -2.9816537 -1.9032731 -2.8592563
0.7660228 0.9047903 1.0486362 0.19622058 0.7935346 0.9923938 1.4964869 -0.7707844
-2.2307954 -1.1369628 -1.4948864 -2.1058412 1.0880119 0.7955051 1.0109667 -5.1497016
0.9960405 1.4964164 1.2333052 -1.6187096 0.5783591 1.0569588 0.85997564 -1.4308994
1.302218 0.68262756 -1.7240927 -1.4939524 1.2166163 -2.7668538 -2.5800283 -2.3572354
0.690552 0.8799382 1.0074365 -0.2914271 0.8004184 0.96982867 1.4914352 -2.5283284
-1.9831502 -1.0184553 -1.7622601 -1.9021963 1.0216663 0.84743667 1.0150149 -4.3824162
00000000: 5d62 6a3f e269 c73f 5625 9c3f 8687 c9bf
00000010: 7c9a 273f 4dc8 8d3f 0085 533f 6f5e e0bf
00000020: dd25 b73f 6ace 2e3f 8dd6 6fbf 2a9c bfbf
00000030: 5dc0 a63f 6ad3 3ec0 749e f3bf 0efe 36c0
00000040: 121a 443f 56a0 673f b639 863f 0cee 483e
00000050: 1525 4b3f 850d 7e3f e28c bf3f 2052 45bf
00000060: 5ac5 0ec0 ff87 91bf 7058 bfbf 1ac6 06c0
00000070: f943 8b3f 39a6 4b3f 5b67 813f 5bca a4c0
00000080: 83fc 7e3f 938a bf3f f2dc 9d3f e031 cfbf
00000090: 580f 143f 6d4a 873f 5d27 5c3f b627 b7bf
000000a0: 14af a63f aec0 2e3f 12af dcbf d539 bfbf
000000b0: 15ba 9b3f 2214 31c0 2f1f 25c0 f2dc 16c0
000000c0: 04c8 303f a143 613f aef3 803f ef35 95be
000000d0: 38e8 4c3f b146 783f 59e7 be3f 22d0 21c0
000000e0: ded7 fdbf be5c 82bf bd91 e1bf 2b7b f3bf
000000f0: f6c5 823f 9cf1 583f 02ec 813f c13c 8cc0

network.6.bias f4 [2]
14.838447 14.943635
00000000: 476a 6d41 2119 6f41

exp_avg f4 [32, 4]
0.0010605885 0.00045563016 -5.874262e-05 -0.0033782595 6e-45 6e-45 -6e-45 -6e-45
-0.015080553 -0.0141647635 -0.040952135 -0.046935245 -0.012184783 -0.018028473 0.0016304323 0.0011613764
6e-45 6e-45 -6e-45 -6e-45 -0.0020738854 -0.0022846963 -0.008263245 0.004262332
-0.0037356922 -0.002272759 0.0084651355 1.4252591e-05 0.0010703538 0.00044088005 0.00026856206 -0.0032431001
-0.014022856 -0.018462066 0.0053743874 0.0021869952 6e-45 6e-45 -6e-45 6e-45
-0.002236693 -0.0040103565 -0.0017467064 0.0037367847 -0.01239688 -0.0069963126 -0.015414533 -0.018473826
0.012136123 0.016372487 -0.0009450104 -0.013438625 0.007113193 0.013067563 0.018015763 -0.009570073
6e-45 6e-45 -6e-45 6e-45 6.8700036e-05 7.933018e-05 -0.00024564294 4.7488957e-05
6e-45 6e-45 -6e-45 6e-45 6e-45 6e-45 -6e-45 -6e-45
0.009039068 0.013825625 0.0043331822 -0.006656908 -0.015740128 -0.022256736 0.0025620763 0.0025746843
0.004261811 0.0009945782 -0.014276178 0.010372004 -0.011026248 -0.009132973 -0.0072657815 0.0032010868
-9.794246e-06 -8.5925785e-06 2.4134955e-05 -1.4571046e-05 -0.005135886 -0.0049525863 0.0070867864 -0.005059936
-0.0015277084 -0.0021226732 0.0042358404 0.0026561613 -0.015437269 -0.010914429 -0.011023767 0.0023450665
6e-45 6e-45 -6e-45 -6e-45 -0.002719022 -0.0026045286 0.005402884 -0.003761554
0.0004380175 0.0011091963 -0.0008139781 0.003289907 0.012894031 0.021499787 -0.0048460313 -0.01908004
6e-45 6e-45 -6e-45 6e-45 0.0007158563 0.00033154665 7.574769e-05 -0.0019598785
00000000: 7203 8b3a a5e1 ee39 6862 76b8 ca65 5dbb
00000010: 0400 0000 0400 0000 0400 0080 0400 0080
00000020: 6c14 77bc 5313 68bc 6dbd 27bd 2c3f 40bd
00000030: afa2 47bc 73b0 93bc 3bb4 d53a 5339 983a
00000040: 0400 0000 0400 0000 0400 0080 0400 0080
00000050: 06ea 07bb d8ba 15bb 9062 07bc 08ab 8b3b
00000060: 84d2 74bb 92f2 14bb 5ab1 0a3c 6a1e 6f37
00000070: 1d4b 8c3a eb25 e739 cacd 8c39 318a 54bb
00000080: 1fc0 65bc c23d 97bc a11b b03b b153 0f3b
00000090: 0400 0000 0400 0000 0400 0080 0400 0000
000000a0: 7b95 12bb 4f69 83bb bef1 e4ba d8e4 743b
000000b0: 491c 4bbc 5341 e5bb 3d8d 7cbc 6c56 97bc
000000c0: 97d6 463c 981f 863c 93ba 77ba ae2d 5cbc
000000d0: ca15 e93b 5519 563c cb95 933c cccb 1cbc
000000e0: 0400 0000 0400 0000 0400 0080 0400 0000
000000f0: 0d13 9038 115e a638 a3c9 80b9 e12e 4738
00000100: 0400 0000 0400 0000 0400 0080 0400 0000
00000110: 0400 0000 0400 0000 0400 0080 0400 0080
00000120: 9918 143c e084 623c 5efd 8d3b 3122 dabb
00000130: 71f1 80bc c253 b6bc 82e8 273b 09bc 283b
00000140: a9a6 8b3b 825c 823a a1e6 69bc 56ef 293c
00000150: 70a7 34bc 77a2 15bc cb15 eebb 53c9 513b
00000160: f751 24b7 d828 10b7 6c75 ca37 2b76 74b7
00000170: ef4a a8bb 4e49 a2bb 4638 e83b d2cd a5bb
00000180: 633d c8ba 8c1c 0bbb cecc 8a3b fe12 2e3b
00000190: 99ec 7cbc 6fd2 32bc 089d 34bc b0af 193b
000001a0: 0400 0000 0400 0000 0400 0080 0400 0080
000001b0: 9f31 32bb bdb0 2abb ad0a b13b 6784 76bb
000001c0: b7a5 e539 7462 913a 2561 55ba 7b9b 573b
000001d0: 7c41 533c 5220 b03c 75cb 9ebb be4d 9cbc
000001e0: 0400 0000 0400 0000 0400 0080 0400 0000
000001f0: 4ea8 3b3a 70d3 ad39 bbda 9e38 4e71 00bb

exp_avg_sq f4 [32, 4]
6.2890016e-05 1.5860105e-05 6.060433e-06 0.0005452925 7e-43 7e-43 7e-43 7e-43
0.018971773 0.009565131 0.00902917 0.021013694 0.009269498 0.014979557 0.005283942 0.014486976
1.0012894e-33 2.7231268e-34 1.3606164e-33 1.3456113e-32 0.004299545 0.006121532 0.00045473073 0.0025348198
0.0043250686 0.008055265 0.0030333395 0.0074389963 8.808305e-05 2.1874162e-05 3.5836903e-05 0.0007656758
0.006982432 0.012236382 0.0056147957 0.011621496 7e-43 7e-43 7e-43 7e-43
0.0003975071 0.00094778853 0.00011534417 0.0010742145 0.01968139 0.0099452445 0.007975374 0.023342803
0.004545333 0.0068634287 0.004385532 0.0065496005 0.006627059 0.010552927 0.0054130554 0.010762258
1.326535e-26 5.0700576e-27 3.4108312e-26 1.2374952e-25 5.1664963e-05 8.033867e-05 0.00014590936 0.00012765205
7e-43 7e-43 7e-43 7e-43 7e-43 7e-43 7e-43 7e-43
0.0058804117 0.008747044 0.005104872 0.009076062 0.006659489 0.011281781 0.0050935736 0.011818401
0.009643375 0.01536909 0.005297892 0.012822093 0.0031774286 0.0019848496 0.0022278815 0.0041055777
3.5639816e-05 5.4325443e-05 0.00012355523 5.8815658e-05 0.0005216079 0.0010752887 0.00055601407 0.0015634932
0.0001265716 0.0002714088 0.00027945507 0.00087324344 0.003422971 0.0018998015 0.0022463356 0.005290222
7e-43 7e-43 7e-43 7e-43 0.0010573323 0.0016189496 0.0012942106 0.0021673648
7.543983e-05 0.00010019006 0.00014421677 0.00011938034 0.007507033 0.01269825 0.0046979757 0.013607707
1.6265377e-18 2.8976918e-19 1.7317996e-17 2.2076996e-17 1.9355364e-05 5.3114977e-06 5.4646725e-06 0.0001651544
00000000: d2e3 8338 510b 8537 b95a cb36 f6f1 0e3a
00000010: f401 0000 f401 0000 f401 0000 f401 0000
00000020: b16a 9b3c 11b7 1c3c 15ef 133c e924 ac3c
00000030: 18df 173c d16c 753c eb24 ad3b c85a 6d3c
00000040: 245e a608 9afb b407 3912 e208 7cbc 8b0a
00000050: 33e3 8c3b 2297 c83b ed68 ee39 381f 263b
00000060: 4eb9 8d3b 3bfa 033c feca 463b d3c2 f33b
00000070: 3ab9 b838 687e b737 954f 1638 a2b7 483a
00000080: e3cc e43b 1b7b 483c 52fc b73b 1668 3e3c
00000090: f401 0000 f401 0000 f401 0000 f401 0000
000000a0: 8068 d039 0375 783a eee4 f138 a8cc 8c3a
000000b0: de3a a13c 61f1 223c 25ab 023c 6839 bf3c
000000c0: 04f1 943b 9de6 e03b 82b4 8f3b 089e d63b
000000d0: cd27 d93b 2fe6 2c3c 0060 b13b 2f54 303c
000000e0: a85f 8314 7ed8 c813 6ce5 2815 ca31 1916
000000f0: d5b2 5838 7f7b a838 3fff 1839 56da 0539
00000100: f401 0000 f401 0000 f401 0000 f401 0000
00000110: f401 0000 f401 0000 f401 0000 f401 0000
00000120: 78b0 c03b c34f 0f3c c546 a73b c3b3 143c
00000130: d837 da3b 38d7 383c fee7 a63b f7a1 413c
00000140: 3fff 1d3c a3ce 7b3c f099 ad3b c213 523c
00000150: 683c 503b 4014 023b a601 123b 1588 863b
00000160: f67b 1538 80db 6338 9b8e 0139 d5b0 7638
00000170: 83bc 083a b4f0 8c3a 79c1 113a 20ee cc3a
00000180: 4eb8 0439 df4b 8e39 d383 9239 60ea 643a
00000190: ed53 603b c302 f93a 4237 133b 9959 ad3b
000001a0: f401 0000 f401 0000 f401 0000 f401 0000
000001b0: 2f96 8a3a ef32 d43a 80a2 a93a 590a 0e3b
000001c0: 7335 9e38 211d d238 e538 1739 d55b fa38
000001d0: 8ffd f53b 520c 503c 7af1 993b dcf2 5e3c
000001e0: db08 f021 ae0c ab20 f6ba 9f23 d59f cb23
000001f0: 545d a237 6b39 b236 2e5d b736 4c2d 2d39

exp_avg f4 [32]
0.004222246 6e-45 -0.0008244527 -0.030827878 6e-45 -0.0028894858 -0.002570808 0.004309857
-0.027766269 6e-45 -0.00663131 -0.032814726 0.022578964 0.018655583 6e-45 9.123367e-05
6e-45 6e-45 0.026536852 -0.04110035 -0.010373613 -0.01741684 -2.8899234e-05 -0.004378371
-0.005753254 -0.039057035 6e-45 -0.0022614414 0.0020071229 0.02680636 6e-45 0.0028698533
00000000: c45a 8a3b 0400 0000 1620 58ba bf8a fcbc
00000010: 0400 0000 875d 3dbb 007b 28bb b339 8d3b
00000020: 1676 e3bc 0400 0000 764b d9bb bc68 06bd
00000030: 85f7 b83c 98d3 983c 0400 0000 b454 bf38
00000040: 0400 0000 0400 0000 d063 d93c d758 28bd
00000050: 16f6 29bc c3ad 8ebc a26c f2b7 7078 8fbb
00000060: cb85 bcbb 45fa 1fbd 0400 0000 b134 14bb
00000070: ef89 033b 0399 db3c 0400 0000 2614 3c3b

exp_avg_sq f4 [32]
0.0009971797 7e-43 0.09869924 0.03488941 1.5804929e-32 0.008198229 0.017751165 0.0013915114
0.0308039 7e-43 0.002089822 0.100891136 0.018372076 0.02594717 1.8583805e-25 0.00023704914
7e-43 7e-43 0.022184389 0.028674632 0.032177463 0.0130287465 0.00020190938 0.003168811
0.0016042683 0.019477898 7e-43 0.004966495 0.0003159009 0.030081064 2.469046e-17 0.0003038531
00000000: ccb3 823a f401 0000 d422 ca3d 33e8 0e3d
00000010: b520 a40a dd51 063c e46a 913c 6063 b63a
00000020: 7658 fc3c f401 0000 65f5 083b 03a0 ce3d
00000030: 0981 963c 298f d43c 6e0e 6616 6590 7839
00000040: f401 0000 f401 0000 09bc b53c 10e7 ea3c
00000050: 84cc 033d 8676 553c a3b7 5339 d4ab 4f3b
00000060: 5046 d23a 1d90 9f3c f401 0000 fbbd a23b
00000070: 809f a539 906c f63c b3ba e323 794e 9f39

exp_avg f4 [32, 32]
8.875103e-05 6e-45 1.6900518e-05 2.9134858e-07 6e-45 -1.4562579e-05 0.0001768799 7.110791e-05
-0.00043335813 -6e-45 0.00013802313 1.3850393e-05 -0.00019482982 -0.0003741997 -6e-45 0.0002682522
-6e-45 6e-45 -0.00023381466 1.9282315e-06 2.358385e-06 9.836784e-06 -1.4890468e-06 -1.6578178e-05
-0.0002386976 4.907227e-05 -6e-45 -3.7642267e-06 0.00011919332 7.6927023e-07 -6e-45 0.00012559412
2.6869568e-05 6e-45 -8.065683e-06 2.0346833e-06 6e-45 -2.8429613e-05 0.00017494263 1.3874268e-05
-0.0007439943 -6e-45 0.00025902092 -1.1851438e-06 3.3936696e-05 -0.0004786934 -6e-45 0.00031690477
-6e-45 6e-45 -0.000112028814 4.4005856e-06 8.006806e-06 5.1581276e-07 -2.107485e-06 -1.13204715e-05
-0.00043961065 2.5703808e-05 -6e-45 1.1202479e-10 0.00023954654 1.1022015e-06 -6e-45 8.237284e-05
4.185567e-05 6e-45 -4.9103375e-07 4.1243004e-07 6e-45 -1.6383798e-05 0.0007498051 2.8941586e-05
-0.000109929264 -6e-45 0.00027446618 4.6275964e-06 0.0005073266 0.00011484353 -6e-45 0.00018349751
-6e-45 6e-45 0.0002367841 2.284528e-06 5.380135e-06 -7.4259096e-06 -1.7758355e-06 -1.5748205e-05
-0.00017802315 3.682083e-05 -6e-45 6.396012e-11 0.000106264226 8.439531e-07 -6e-45 7.315709e-05
-6e-45 6e-45 6e-45 0.00014639986 -6e-45 -1.4943002e-05 -2.0068806e-05 6e-45
-2.4995232e-05 6e-45 1.8973771e-05 6e-45 -2.608913e-05 -4.593783e-05 6e-45 -9.742672e-07
-6e-45 -6e-45 -1.33957965e-05 0.00034719214 0.00041164394 6e-45 -5.7733174e-09 -0.00029178962
1.3433289e-05 6e-45 6e-45 -0.0002422444 -0.0006041062 0.00025401378 6e-45 6e-45
4.2737767e-05 6e-45 1.3622835e-05 3.350193e-06 6e-45 6.880733e-07 0.00010087237 3.3463777e-05
-0.000273923 -6e-45 0.00011348188 1.096806e-05 -7.734026e-05 -0.0002387807 -6e-45 9.604313e-05
-6e-45 6e-45 -0.00011134183 -5.6266454e-06 -9.328517e-06 6.3049106e-06 -7.791743e-07 -1.6623168e-05
-0.00020106422 3.2870557e-05 -6e-45 -1.4289462e-05 0.000107863074 -7.83038e-06 -6e-45 6.10355e-05
2.0970892e-05 6e-45 -2.665607e-06 3.5098125e-07 6e-45 -1.5772914e-05 -0.00018101258 1.7149505e-05
-0.00068203494 -6e-45 9.5640906e-05 2.4151282e-06 -0.00034345337 -0.00072629267 -6e-45 0.000175649
-6e-45 6e-45 -0.00059382146 2.3294022e-06 3.1462703e-06 -6.519265e-06 -1.4918769e-06 -1.7314642e-05
-0.0002736233 4.784499e-07 -6e-45 -7.697189e-07 0.000101314 9.2939007e-07 -6e-45 4.3338092e-05
5.580275e-05 6e-45 1.044361e-06 2.3141507e-07 6e-45 -1.2300542e-05 0.00013745378 4.5533714e-05
-0.0004916891 -6e-45 0.00017033423 3.4498341e-06 -0.00024190966 -0.00045312385 -6e-45 0.00017100896
-6e-45 6e-45 -0.00038951237 1.7396742e-06 4.924685e-06 -2.44762e-06 -1.2519952e-06 -3.9392394e-06
-0.00029023743 2.0963207e-05 -6e-45 -3.4425107e-06 0.00016903528 6.698219e-07 -6e-45 8.646959e-05
6e-45 -6e-45 6e-45 0.00038308112 -6e-45 -1.6395763e-05 -4.5123714e-05 -6e-45
-1.6643897e-05 6e-45 -7.737261e-05 6e-45 -5.622926e-06 -2.848034e-05 6e-45 -1.0438148e-14
-6e-45 -6e-45 -5.7512725e-06 0.00063830445 0.000621469 6e-45 -8.357827e-09 0.0003594947
1.4745556e-05 6e-45 6e-45 0.00045072788 0.00019205926 0.0008344129 6e-45 -6e-45
00000000: d91f ba38 0400 0000 96c5 8d37 a56a 9c34
00000010: 0400 0000 cd51 74b7 d678 3939 c51f 9538
00000020: 5834 e3b9 0400 0080 4dba 1039 fc5e 6837
00000030: 3b4b 4cb9 3c30 c4b9 0400 0080 33a4 8c39
00000040: 0400 0080 0400 0000 252c 75b9 c466 0136
00000050: bf44 1e36 aa08 2537 42db c7b5 5e11 8bb7
00000060: e64a 7ab9 f3d2 4d38 0400 0080 ec9c 7cb6
00000070: 6df7 f938 d97f 4e35 0400 0080 eab1 0339
00000080: f565 e137 0400 0000 d851 07b7 988b 0836
00000090: 0400 0000 217c eeb7 ce70 3739 87c5 6837
000000a0: 9d08 43ba 0400 0080 33cd 8739 3b11 9fb5
000000b0: 4057 0e38 24f9 fab9 0400 0080 3d26 a639
000000c0: 0400 0080 0400 0000 03f1 eab8 bea8 9336
000000d0: f854 0637 6276 0a35 516e 0db6 0eed 3db7
000000e0: 8b7b e6b9 829e d737 0400 0080 5a58 f62e
000000f0: c92e 7b39 5bef 9335 0400 0080 95bf ac38
00000100: 2f8e 2f38 0400 0000 95cf 03b5 f46b dd34
00000110: 0400 0000 f06f 89b7 928e 443a 95c7 f237
00000120: d389 e6b8 0400 0080 3ae6 8f39 c046 9b36
00000130: 1dfe 043a 27d8 f038 0400 0080 3d69 4039
00000140: 0400 0080 0400 0000 3f49 7839 e44f 1936
00000150: 0287 b436 142c f9b6 3e59 eeb5 031b 84b7
00000160: baab 3ab9 1170 1a38 0400 0080 59a6 8c2e
00000170: 2cda de38 048c 6235 0400 0080 ea6b 9938
00000180: 0400 0080 0400 0000 0400 0000 ea82 1939
00000190: 0400 0080 b4b3 7ab7 6f59 a8b7 0400 0000
000001a0: daac d1b7 0400 0000 dd29 9f37 0400 0000
000001b0: fbd9 dab7 5fad 40b8 0400 0000 91c3 82b5
000001c0: 0400 0080 0400 0080 82be 60b7 5707 b639
000001d0: ead1 d739 0400 0000 a35e c6b1 57fb 98b9
000001e0: 895f 6137 0400 0000 0400 0000 fc02 7eb9
000001f0: e15c 1eba 272d 8539 0400 0000 0400 0000
00000200: 5441 3338 0400 0000 a18d 6437 e1d3 6036
00000210: 0400 0000 0ab4 3835 718b d338 755b 0c38
00000220: 539d 8fb9 0400 0080 1ffd ed38 7603 3837
00000230: bc31 a2b8 3561 7ab9 0400 0080 c36a c938
00000240: 0400 0080 0400 0000 3180 e9b8 84cc bcb6
00000250: ad81 1cb7 c58e d336 7328 51b5 fb71 8bb7
00000260: c4d4 52b9 7ede 0938 0400 0080 c6bc 6fb7
00000270: 8c34 e238 3a5f 03b7 0400 0080 2f00 8038
00000280: a6ea af37 0400 0000 c8e2 32b6 7f6e bc34
00000290: 0400 0000 1350 84b7 32ce 3db9 48dc 8f37
000002a0: 97ca 32ba 0400 0080 d292 c838 9613 2236
000002b0: 8811 b4b9 ad64 3eba 0400 0080 6b2e 3839
000002c0: 0400 0080 0400 0000 afaa 1bba d352 1c36
000002d0: 8324 5336 0fc0 dab6 803c c8b5 e93e 91b7
000002e0: 1975 8fb9 d46e 0035 0400 0080 ae9e 4eb5
000002f0: 8a78 d438 337b 7935 0400 0080 ecc5 3538
00000300: bf0d 6a38 0400 0000 f92b 8c35 e47a 7834
00000310: 0400 0000 6d5e 4eb7 7821 1039 74fb 3e38
00000320: b2e4 00ba 0400 0080 bf9b 3239 b383 6736
00000330: 21a9 7db9 4191 edb9 0400 0080 de50 3339
00000340: 0400 0080 0400 0000 7737 ccb9 c07e e935
00000350: b93e a536 cb41 24b6 3a0a a8b5 cf2d 84b6
00000360: 022b 98b9 25da af37 0400 0080 e205 67b6
00000370: 103f 3139 cfcd 3335 0400 0080 0257 b538
00000380: 0400 0000 0400 0080 0400 0000 47d8 c839
00000390: 0400 0080 a289 89b7 3843 3db8 0400 0080
000003a0: 7f9e 8bb7 0400 0000 1b43 a2b8 0400 0000
000003b0: 91ac bcb6 10e9 eeb7 0400 0000 7609 3ca8
000003c0: 0400 0080 0400 0080 0efb c0b6 e353 273a
000003d0: 14ea 223a 0400 0000 1d96 0fb2 907a bc39
000003e0: ae63 7737 0400 0000 0400 0000 ac4f ec39
000003f0: 8463 4939 80bc 5a3a 0400 0000 0400 0080

exp_avg_sq f4 [32, 32]
1.14483036e-07 7e-43 4.2537796e-09 5.34068e-10 3.7809713e-35 1.0534115e-08 2.1644439e-05 7.176543e-08
1.7417535e-05 7e-43 3.4656769e-06 7.70905e-09 2.0950773e-05 1.6710208e-05 9.9875615e-29 1.4642676e-06
7e-43 7e-43 1.8496568e-05 4.1914106e-10 1.749826e-09 1.133239e-08 7.5112325e-09 1.82376e-07
5.2545734e-06 3.863483e-08 7e-43 2.5880091e-09 1.8109539e-06 4.4388274e-10 4.880508e-19 2.4211027e-07
1.8398946e-08 7e-43 1.997184e-09 4.0849432e-10 1.3635185e-34 2.1725072e-08 4.959269e-05 1.1618771e-08
3.780371e-05 7e-43 8.430847e-06 1.7389482e-09 4.2576372e-05 3.5558758e-05 2.8707832e-28 3.4131401e-06
7e-43 7e-43 3.876301e-05 2.5155047e-10 1.595876e-09 7.177578e-09 1.6710699e-08 3.4104178e-07
1.0876466e-05 2.3582523e-08 7e-43 3.8311032e-10 4.6131677e-06 4.328609e-10 1.2501529e-18 1.6936453e-07
6.122675e-08 7e-43 3.2768173e-09 5.744748e-10 8.2459586e-35 1.6248194e-08 3.3872813e-05 3.259824e-08
2.5901396e-05 7e-43 5.5320656e-06 2.7384084e-09 3.12066e-05 2.5182913e-05 8.264837e-29 2.0364257e-06
7e-43 7e-43 2.8272085e-05 3.9996165e-10 2.192947e-09 8.912919e-09 8.8483265e-09 2.8371832e-07
8.186379e-06 3.0903653e-08 7e-43 3.8192058e-10 2.6661955e-06 3.6747394e-10 8.0553314e-19 1.9662004e-07
3.5928766e-38 7e-43 3.5708697e-14 3.093648e-06 7e-43 1.2690922e-08 2.862343e-07 2.8155e-41
4.6858492e-08 7e-43 1.284109e-06 2.8886496e-15 7.705783e-09 1.8679305e-08 2.4850972e-29 1.6779321e-08
7e-43 7e-43 6.725555e-09 2.7323588e-06 2.2149652e-06 5.828261e-25 1.7285817e-08 3.0164333e-06
8.514906e-09 3.7242034e-35 7e-43 2.6687583e-06 2.0254686e-06 3.2006824e-06 7e-43 1.6656949e-21
4.3204466e-08 7e-43 2.4052447e-09 2.4818507e-09 2.2374103e-35 9.802041e-09 8.839941e-06 2.9053023e-08
6.6298876e-06 7e-43 1.3109905e-06 2.7465579e-09 7.746506e-06 6.644978e-06 5.889273e-29 5.6444844e-07
7e-43 7e-43 6.9787125e-06 1.7293913e-09 3.503173e-09 3.6401135e-09 4.3699337e-09 1.596882e-07
1.9618017e-06 1.3174108e-08 7e-43 3.4068858e-08 8.5192534e-07 1.2968895e-08 2.7854017e-19 8.95709e-08
3.418734e-08 7e-43 2.5872724e-09 5.833638e-10 7.878582e-35 1.3491825e-08 2.6602173e-05 2.190481e-08
2.0607253e-05 7e-43 3.7867812e-06 1.84318e-09 2.389171e-05 1.9766103e-05 1.3827916e-28 1.7957868e-06
7e-43 7e-43 2.2044353e-05 4.733169e-10 1.7475451e-09 6.346643e-09 8.413193e-09 1.9657708e-07
6.2221475e-06 2.2161199e-08 7e-43 1.7140418e-09 2.3552386e-06 6.5240774e-10 1.7873194e-21 1.4431623e-07
8.470738e-08 7e-43 3.4723122e-09 4.6023443e-10 2.982475e-35 9.166217e-09 1.7360222e-05 5.752106e-08
1.346658e-05 7e-43 2.628223e-06 6.093116e-09 1.648417e-05 1.3535209e-05 8.43849e-29 1.0317866e-06
7e-43 7e-43 1.4832011e-05 3.530294e-10 1.417608e-09 8.887866e-09 5.4625566e-09 1.5405331e-07
4.068103e-06 2.9661434e-08 7e-43 5.2650035e-09 1.3410347e-06 9.2850194e-10 9.849742e-22 1.8347528e-07
2.7207992e-38 7e-43 4.4124806e-14 3.6612525e-06 7e-43 1.577261e-08 2.9484883e-07 7e-43
4.5509186e-08 7e-43 1.586544e-06 3.5694527e-15 4.908252e-09 1.5419843e-08 3.274866e-29 3.9053187e-09
7e-43 7e-43 5.205121e-09 3.2312576e-06 2.527171e-06 4.943785e-25 1.522902e-08 3.6146698e-06
9.826799e-09 3.0650728e-35 7e-43 3.0402057e-06 2.1921444e-06 3.9159636e-06 7e-43 3.2944504e-23
00000000: b7d9 f533 f401 0000 a428 9231 b2cd 1230
00000010: ea07 4906 87f9 3432 1491 b537 761d 9a33
00000020: df1b 9237 f401 0000 e093 6836 c370 0432
00000030: 71bf af37 e62c 8c37 fb36 fd10 da87 c435
00000040: f401 0000 f401 0000 1429 9b37 dc6c e62f
00000050: 877e f030 61b0 4232 c00a 0132 22d3 4334
00000060: 7150 b036 72ef 2533 f401 0000 bdd8 3131
00000070: e70f f335 f106 f42f 130c 1021 62fb 8134
00000080: b60b 9e32 f401 0000 d53e 0931 7792 e02f
00000090: 213e 3507 f09d ba32 bf01 5038 e59b 4732
000000a0: 6d8f 1e38 f401 0000 3672 0d37 cdff ee30
000000b0: 0894 3238 ed24 1538 1ff5 b511 4d0d 6536
000000c0: f401 0000 f401 0000 7795 2238 954a 8a2f
000000d0: e555 db30 a59e f631 378b 8f32 6d18 b734
000000e0: 117a 3637 8492 ca32 f401 0000 fc9d d22f
000000f0: cfca 9a36 c2f7 ed2f 717d b821 91da 3534
00000100: c37b 8333 f401 0000 612e 6131 12e9 1d30
00000110: 1637 db06 2892 8b32 a812 0e38 2502 0c33
00000120: d346 d937 f401 0000 15a0 b936 972e 3c31
00000130: d5e3 0238 e53f d337 dc89 d110 87a9 0836
00000140: f401 0000 f401 0000 d729 ed37 99e1 db2f
00000150: bbb2 1631 6f1f 1932 5a03 1832 f351 9834
00000160: 3b58 0937 edba 0433 f401 0000 8bf6 d12f
00000170: e4ec 3236 5c05 ca2f 5dc0 6d21 811e 5334
00000180: 649d 4301 f401 0000 53d1 2029 789c 4f36
00000190: f401 0000 4407 5a32 beab 9934 7c4e 0000
000001a0: 7541 4933 f401 0000 a659 ac35 2e26 5027
000001b0: 6462 0432 3a74 a032 d004 fc0f 1e22 9032
000001c0: f401 0000 f401 0000 9b16 e731 915d 3736
000001d0: d0a4 1436 3e60 3417 ea7b 9432 ee6d 4a36
000001e0: f448 1232 3b03 4606 f401 0000 eb18 3336
000001f0: 49ed 0736 4ecb 5636 f401 0000 73b6 fb1c
00000200: d08f 3933 f401 0000 8349 2531 2e8d 2a31
00000210: 1aec ed05 d565 2832 424f 1437 4690 f932
00000220: 4d76 de36 f401 0000 4af5 af35 f5bd 3c31
00000230: fdf6 0137 edf7 de36 914f 9510 9a84 1735
00000240: f401 0000 f401 0000 af2a ea36 8caf ed30
00000250: 79bc 7031 8e25 7a31 5826 9631 c276 2b34
00000260: 7fa7 0336 5754 6232 f401 0000 1b53 1233
00000270: ddaf 6435 cecd 5e32 cd6b a420 1f5a c033
00000280: 61d5 1233 f401 0000 c7cb 3131 945a 2030
00000290: da72 d106 adc9 6732 bb27 df37 3029 bc32
000002a0: bddd ac37 f401 0000 6820 7e36 2253 fd30
000002b0: 0e6b c837 62cf a537 274a 2f11 c406 f135
000002c0: f401 0000 f401 0000 e3eb b837 b71a 0230
000002d0: 472e f030 aa11 da31 9d89 1032 b212 5334
000002e0: d7c7 d036 fe5c be32 f401 0000 7c93 eb30
000002f0: b10e 1e36 1d55 3330 c90b 071d 58f5 1a34
00000300: 60e8 b533 f401 0000 909d 6e31 3d04 fd2f
00000310: 5993 1e06 7379 1d32 cba0 9137 130d 7733
00000320: 85ee 6137 f401 0000 8760 3036 9d5b d131
00000330: 7c47 8a37 4815 6337 eef0 d510 eb7b 8a35
00000340: f401 0000 f401 0000 01d7 7837 7914 c22f
00000350: a6d5 c230 40b1 1832 28b1 bb31 da69 2534
00000360: bd80 8836 2fca fe32 f401 0000 76e7 b431
00000370: 9afd b335 8439 7f30 58d8 941c 4d01 4534
00000380: 6822 1401 f401 0000 70b8 4629 d7b3 7536
00000390: f401 0000 567c 8732 b74b 9e34 f401 0000
000003a0: e175 4333 f401 0000 3df1 d435 649a 8027
000003b0: 71a5 a831 9874 8432 310e 2610 8c2f 8631
000003c0: f401 0000 f401 0000 bad8 b231 95d8 5836
000003d0: 7898 2936 b300 1917 f8d0 8232 8e93 7236
000003e0: b8d2 2832 9cf7 2206 f401 0000 5606 4c36
000003f0: c11c 1336 df65 8336 f401 0000 524f 1f1a

exp_avg f4 [32]
-0.0014823178 -0.0017038437 0.0015615987 -0.0012005727 -0.0013112563 -0.0017970535 -0.00028266318 0.002563793
-0.000109124165 0.00018161772 -0.0018340084 -0.0026501957 -0.0021905121 0.0007061968 -0.0011203995 -0.0013305661
-0.0007430505 -0.001777212 0.00026287933 6e-45 0.0008242763 0.00016430562 -0.0011476949 -0.0023251271
0.00044963168 -0.0009856581 -0.0035874557 -0.006184438 -0.00022389028 0.0012895908 -0.001551485 0.0069195963
00000000: 554a c2ba 8253 dfba 8fae cc3a 895c 9dba
00000010: 76de abba 1c8b ebba 6932 94b9 4f05 283b
00000020: 97d9 e4b8 a370 3e39 1c63 f0ba e8ae 2dbb
00000030: b28e 0fbb 1120 393a 5eda 92ba 6466 aeba
00000040: 46c9 42ba 57f1 e8ba 11d3 8939 0400 0000
00000050: 3f14 583a 7449 2c39 406e 96ba 2961 18bb
00000060: 8bbc eb39 3331 81ba 851b 6bbb d3a6 cabb
00000070: 17c4 6ab9 7d07 a93a 335b cbba c8bd e23b

exp_avg_sq f4 [32]
0.00065732375 0.0015658438 0.0010861192 0.00023168534 0.00028874745 0.0008720958 0.00053565163 0.00028220794
0.0013397406 0.0003506611 0.00013688742 0.00021435697 0.0011702016 0.000604042 0.00032978333 0.0006252278
0.0004029424 0.0005593474 0.0008050547 1.4318913e-29 0.00044432783 0.0006901029 0.0015109512 0.00043697067
0.00041392108 0.0001693075 0.00024060323 0.00038310952 0.00083133497 0.00048719323 0.0007468598 0.0017343132
00000000: 4050 2c3a 003d cd3a 1d5c 8e3a 8ff0 7239
00000010: 0763 9739 5c9d 643a f96a 0c3a 4ff5 9339
00000020: 3c9a af3a f0d8 b739 7089 0f39 03c5 6039
00000030: 7361 993a 9358 1e3a c5e6 ac39 54e6 233a
00000040: 0342 d339 2ba1 123a 4e0a 533a 0636 910f
00000050: acf4 e839 06e8 343a 1c0b c63a 3619 e539
00000060: 8c03 d939 2388 3139 704a 7c39 17dc c839
00000070: f2ed 593a f86d ff39 eac8 433a e551 e33a

exp_avg f4 [2, 32]
-0.00038061847 -0.000113007605 -1.3095388e-05 5.8082063e-05 -0.00073862204 -0.00015673842 1.2382074e-05 -0.0010439199
-1.7154583e-05 -0.00015388364 0.00023581709 4.8370537e-05 -0.00013033158 0.0001712869 0.0003303806 8.48873e-05
-0.00026571212 -0.00026958255 -4.8353257e-05 6e-45 0.00016269211 6.468006e-05 -0.00015419419 0.0018709527
-2.0192763e-05 -0.0002596804 0.00037401027 0.0015092638 -3.5663863e-05 0.00013999832 -0.00044363315 -3.7432197e-05
0.00010921177 -0.00017432398 0.00017556838 -3.8798935e-06 0.0001996326 -0.0002978471 0.000118390395 -3.5520172e-06
-0.00016279137 0.00019348528 -2.4578934e-05 -3.6892693e-06 -0.00022483218 -2.0619302e-06 -2.7093645e-06 -2.1544013e-06
-0.00027720354 -0.0001268694 0.00016086866 -6e-45 0.0001774282 7.518127e-05 -8.839414e-05 3.9659655e-05
-2.4780334e-06 -6.1940416e-05 -1.013024e-06 -3.984851e-06 -0.00018720866 0.00024362987 -3.05158e-05 -1.1213725e-06
00000000: bf8d c7b9 7ffe ecb8 43b4 5bb7 249d 7338
00000010: 16a0 41ba 265a 24b9 9abc 4f37 24d4 88ba
00000020: 30e7 8fb7 d35b 21b9 ab45 7739 78e1 4a38
00000030: 9ea9 08b9 7a9b 3339 ef36 ad39 8605 b238
00000040: 474f 8bb9 c256 8db9 eace 4ab8 0400 0000
00000050: 5598 2a39 d8a4 8738 30af 21b9 c13a f53a
00000060: a163 a9b7 b725 88b9 cf16 c439 7dd2 c53a
00000070: c895 15b8 83cc 1239 6f97 e8b9 8400 1db8
00000080: 9f08 e538 bdca 36b9 c718 3839 0830 82b6
00000090: 7854 5139 5c28 9cb9 5c48 f838 315f 6eb6
000000a0: fab2 2ab9 4fe2 4a39 dc2e ceb7 2a95 77b6
000000b0: eec0 6bb9 b15f 0ab6 87d2 35b6 5594 10b6
000000c0: a155 91b9 3f08 05b9 daae 2839 0400 0080
000000d0: 050c 3a39 a3aa 9d38 3e60 b9b8 3b58 2638
000000e0: 4a4c 26b6 02e6 81b8 3df7 87b5 9cb5 85b6
000000f0: 714d 44b9 e576 7f39 2efc ffb7 1182 96b5

exp_avg_sq f4 [2, 32]
1.9628193e-05 7.95704e-06 1.4857807e-05 1.5580057e-05 5.314554e-05 1.8548548e-05 2.9172566e-05 1.7368004e-05
1.1541308e-05 4.2212498e-05 2.5943245e-05 1.2351176e-05 1.4150908e-05 4.6245123e-06 8.41114e-06 6.4602373e-06
4.1891326e-05 2.4348916e-05 1.975116e-05 1.6876704e-31 3.119848e-05 2.0825208e-05 8.948235e-06 2.424832e-05
8.3545665e-06 3.2544347e-05 1.6061551e-05 1.177269e-05 2.0858406e-05 2.8857849e-05 2.0215768e-05 1.3020812e-06
1.9680494e-05 6.655077e-06 1.2249819e-05 4.7695363e-07 4.6751993e-05 1.567222e-05 2.6385282e-05 4.6762446e-07
9.367091e-06 3.7864855e-05 7.1257216e-07 3.019875e-07 1.0528193e-05 1.4565354e-07 3.2578532e-07 2.0357753e-07
3.8299208e-05 2.3464634e-05 1.605405e-05 8.7762543e-32 3.04433e-05 1.8835655e-05 7.3796496e-06 1.2899316e-06
1.8547568e-07 7.6669903e-07 4.0959898e-07 3.8998263e-07 1.7147591e-05 2.778736e-05 1.5994361e-05 3.6679815e-08
00000000: 39a7 a437 3a7f 0537 cc45 7937 ebb1 8237
00000010: 97e8 5e38 b498 9b37 9cb7 f437 81b1 9137
00000020: 8aa1 4137 530d 3138 b2a0 d937 e637 4f37
00000030: b069 6d37 422c 9b36 921d 0d37 04c5 d836
00000040: 78b4 2f38 e640 cc37 4baf a537 7812 5b0c
00000050: 1ddb 0238 cbb1 ae37 6020 1637 df68 cb37
00000060: 972a 0c37 3a80 0838 ebbb 8637 5283 4537
00000070: 16f9 ae37 c213 f237 0895 a937 2bc3 ae35
00000080: 8a17 a537 ad4e df36 9284 4d37 0108 0035
00000090: 9217 4438 d677 8337 f655 dd37 d10d fb34
000000a0: 5927 1d37 14d1 1e38 9647 3f35 d920 a234
000000b0: 3fa2 3037 f164 1c34 98e7 ae34 f796 5a34
000000c0: 76a3 2038 ebd5 c437 cfab 8637 37d8 e30b
000000d0: 7d60 ff37 4301 9e37 b59e f736 b621 ad35
000000e0: 2b27 4734 28cf 4d35 dbe6 db34 ce5e d134
000000f0: 2cd8 8f37 e718 e937 a12b 8637 e289 1d33

exp_avg f4 [2]
5.682805e-05 -0.00028059245
00000000: a75a 6e38 7b1c 93b9

exp_avg_sq f4 [2]
0.00043380182 0.0003229184
00000000: e56f e339 604d a939
