models/rl_coach_model_episode_0.pth (torch, 31341 bytes, 24 tensors)

network.0.weight f4 [32, 4]
0	0xbe18fb6a	-0.14939657
1	0xbea1a485	-0.3157083
2	0xbcc12bbb	-0.023580423
3	0x3d222613	0.03958709
4	0xbe4a2b99	-0.19743194
5	0xbebdd2a1	-0.3707476
6	0xbd429477	-0.04750487
7	0xbeb1ad2d	-0.34702435
8	0xbf1dc10e	-0.61622703
9	0x3f1673d1	0.5877047
10	0xbd5db0fb	-0.05412386
11	0x3b0b03e2	0.002121203
12	0xbcb19aa5	-0.021680186
13	0xbdff5f46	-0.12469344
14	0x3e9e5e66	0.30931395
15	0xbf3b868f	-0.73252195
16	0x3f006d8c	0.50167155
17	0x3da2a020	0.07940698
18	0x3dc8afde	0.09799169
19	0xbd2cb076	-0.042160474
20	0xbe84fdc4	-0.25974858
21	0x3edb4e4e	0.4283318
22	0x3d7f9da4	0.062406197
23	0xbe6e19f9	-0.23252095
24	0xbf0e5c4a	-0.5560957
25	0x3eb84c0c	0.3599552
26	0xbd09d591	-0.03365094
27	0x3bb5730c	0.0055373963
28	0xbecd255a	-0.4006756
29	0x3eacfa1f	0.33784577
30	0x3e28d080	0.16485786
31	0xbea107ae	-0.31451172
32	0xbec58433	-0.38577422
33	0xbeb25f19	-0.3483818
34	0xbe39cd6e	-0.18144771
35	0xbe23d5b7	-0.15999494
36	0x3f03f88a	0.51551116
37	0xbe4b09d2	-0.19827965
38	0x3c74c597	0.014939687
39	0xbc4d72a7	-0.012539542
40	0x3ea2ab4e	0.3177132
41	0x3eb18994	0.34675276
42	0xbd1a5b4d	-0.037684727
43	0x3e10dfd4	0.14147884
44	0xbcaa2fc4	-0.02077473
45	0xbec47f54	-0.38378394
46	0x3da1119d	0.078646876
47	0x3eb2bc58	0.3490932
48	0xbd9186e1	-0.07105804
49	0xbe980d45	-0.29697624
50	0xbe2e2010	-0.17004418
51	0x3e93b635	0.2884995
52	0xbedb88c1	-0.42877772
53	0x3e291ed2	0.16515663
54	0x3e80fddc	0.2519368
55	0x3da4bcaf	0.08043801
56	0x3d01ff40	0.031737566
57	0x3f00a3a1	0.5024968
58	0xbe7da899	-0.24771346
59	0xbe2ef613	-0.17086057
60	0x3efb2fbd	0.4905986
61	0x3e957951	0.2919412
62	0xbe44ecbd	-0.19230933
63	0xbd783b2b	-0.060603302
64	0xbf0ea5c5	-0.55721694
65	0x3ed61117	0.41809914
66	0xbc91b49f	-0.017786322
67	0x3c1e47f4	0.00966071
68	0xbee4ae00	-0.44664
69	0x3ef7739a	0.48330384
70	0x3e29f1a6	0.16596088
71	0xbe5cced5	-0.21563275
72	0xbe97009b	-0.2949265
73	0xbed643be	-0.41848558
74	0x3e4b63d0	0.19862294
75	0x3e72cbb2	0.23710516
76	0x3f134121	0.57521254
77	0xbead2e62	-0.3382445
78	0x3d1d1947	0.038354184
79	0xbcd5523e	-0.026040193
80	0x3ed09248	0.40736604
81	0xbe728bfb	-0.23686211
82	0x3b523db4	0.0032080235
83	0xbc6e0cb6	-0.014529398
84	0xbe0a2a57	-0.13492714
85	0x3e00cfa4	0.12579209
86	0x3ec740b5	0.38916555
87	0xbeaad834	-0.33368075
88	0xbeb6b747	-0.35686705
89	0x3b9a3561	0.0047060703
90	0x3e9ac60e	0.3022923
91	0x3e8230c9	0.25427845
92	0x3e853a01	0.26020816
93	0x3e4ba359	0.19886531
94	0xbe0a4b88	-0.13505375
95	0xbdfc226f	-0.12311255
96	0x3e8bbbdb	0.2729176
97	0xbefb1b38	-0.49044204
98	0xbd2ed08c	-0.042679355
99	0xbc963b0e	-0.018338706
100	0x3d8d5267	0.069004826
101	0x3ed9f85b	0.42572293
102	0x3df9d16f	0.121981494
103	0x3dbfb3e9	0.09360487
104	0x3edf2b3d	0.43587676
105	0x3e893e82	0.26805502
106	0x3e6ee079	0.23327817
107	0xbde25bc0	-0.11052656
108	0xbe831d42	-0.2560826
109	0xbec2b5ca	-0.3802932
110	0xbe893b48	-0.2680304
111	0xbe091e40	-0.13390446
112	0xbe87150b	-0.26383242
113	0x3e35dbf3	0.17759685
114	0xbe769447	-0.24080001
115	0x3e8cf658	0.27531695
116	0xbecc03ee	-0.39846748
117	0xbec74586	-0.3892023
118	0xbeb655cd	-0.35612336
119	0xbd89bea0	-0.06725812
120	0x3f0f54f7	0.5598902
121	0xbc0c09f2	-0.008547293
122	0x3d79bff2	0.06097407
123	0xbdf04a84	-0.11732963
124	0x3dff6ec9	0.124723025
125	0xbed413bb	-0.41421303
126	0x3e67daff	0.22642134
127	0x3ea268b1	0.31720498

network.0.bias f4 [32]
0	0x00000000	0.0
1	0x3da970cf	0.0827347
2	0xbcc467f5	-0.023975352
3	0x3cdef809	0.027217882
4	0xbda0c419	-0.07849903
5	0xbd43c061	-0.04779089
6	0x3d5547fe	0.05207061
7	0x3dab3872	0.083603755
8	0xbcec7815	-0.028865853
9	0xbc9118bf	-0.017711995
10	0xbd3984ac	-0.04529254
11	0x3dec976e	0.115523204
12	0xbd052835	-0.032509048
13	0x3dcee368	0.10101968
14	0x3d15c9f1	0.03656954
15	0xbdaae5d8	-0.083446205
16	0x3d0ddb7c	0.034633145
17	0x3d3e0bcd	0.046397973
18	0xbd1c8b92	-0.038219042
19	0x3d3456d4	0.04402812
20	0x3cd74f45	0.026282916
21	0x3ceae527	0.028673721
22	0x3d4dee85	0.050276298
23	0x3c5f793a	0.0136397425
24	0x3d8cd6b9	0.068768926
25	0xbcb0a4e9	-0.02156301
26	0xbd4a74f5	-0.049427945
27	0xbd9d1ca0	-0.076714754
28	0xbd011380	-0.031512737
29	0xbc528791	-0.012849704
30	0xbd5fd0a8	-0.05464235
31	0x3dd6b858	0.104843795

network.3.weight f4 [32, 32]
0	0x3e65a3b8	0.22425735
1	0x3eaa8896	0.33307332
2	0xbf9493d9	-1.160762
3	0x3cc96568	0.024584487
4	0x3e3d3274	0.18476278
5	0xbea0c032	-0.31396633
6	0xbea8adb5	-0.32945028
7	0xbe560594	-0.20900565
8	0x3e53f31b	0.20698206
9	0x3ebe5a0c	0.37178075
10	0xbe2b67cb	-0.16738813
11	0xbe5b3c8a	-0.21409813
12	0x3dca62b8	0.0988211
13	0xbe46d338	-0.19416511
14	0x3def7151	0.11691535
15	0x3cc81469	0.024423795
16	0xbf587b4b	-0.8456313
17	0xbdc88f21	-0.09792925
18	0xbe965300	-0.293602
19	0x3e53d2f5	0.20685942
20	0x3dbb9fe7	0.09161358
21	0xbd806c12	-0.06270613
22	0xbeb305ef	-0.34965464
23	0x3ddd43b2	0.108039275
24	0xbf1eec2e	-0.6207913
25	0x3e5a5a74	0.21323568
26	0x3e38dad7	0.18052231
27	0x3e7d5401	0.24739076
28	0xbd01c6b6	-0.031683646
29	0x3e236d95	0.15959771
30	0x3e9b680b	0.30352816
31	0xbec8c53b	-0.39212975
32	0xbd8d1c41	-0.06890155
33	0x3dac1db6	0.084041044
34	0xbd9c7950	-0.07640326
35	0x3d752218	0.059846967
36	0xbe6c20cd	-0.23059388
37	0x3e7c3ca1	0.24632503
38	0xbe93b8dd	-0.28851977
39	0x3e05b364	0.13056713
40	0xbe99c6f5	-0.30034605
41	0xbe92bcf2	-0.2865978
42	0x3e0753aa	0.13215509
43	0x3dbffc81	0.09374333
44	0xbc1d4718	-0.00959947
45	0xbea73599	-0.3265808
46	0xbe57d35e	-0.21076724
47	0xbdebe7b3	-0.115188025
48	0x3e0394a7	0.12849675
49	0xbe776182	-0.2415829
50	0x3ea47367	0.32119295
51	0x3e408200	0.18799591
52	0xbc34b785	-0.011030083
53	0x3d62afaf	0.055343326
54	0xbe855787	-0.2604334
55	0xbea58af8	-0.32332587
56	0xbdb7e2ee	-0.0897883
57	0xbd9f40cb	-0.0777603
58	0xbea70f2a	-0.32628757
59	0x3c4ca90e	0.012491478
60	0xbe2016e5	-0.15633734
61	0xbe3e1299	-0.18561782
62	0xbe75b178	-0.2399348
63	0x3e7ef673	0.248987
64	0xbd7b580a	-0.061363257
65	0x3eefd905	0.4684526
66	0xbf41c726	-0.756945
67	0x3da6dd4b	0.08147677
68	0xbdb6787b	-0.089096986
69	0xbe5e36d2	-0.217006
70	0xbf0d1c96	-0.55121744
71	0x3d35d039	0.04438803
72	0x3e750c2e	0.23930427
73	0x3eb0e127	0.34546778
74	0x3e8c26f0	0.27373457
75	0xbdee3253	-0.11630692
76	0xbedd94b7	-0.43277523
77	0xbee1b9b3	-0.4408699
78	0xbe046ea0	-0.12932825
79	0x3e6f71b6	0.23383221
80	0xbf7013b1	-0.93780047
81	0xbe967ea9	-0.2939351
82	0xbdb3e8d3	-0.08784642
83	0x3ee1f6f2	0.44133717
84	0x3e910d14	0.2833029
85	0x3cee2bab	0.029073557
86	0xbec7042c	-0.3887037
87	0x3e211862	0.15731958
88	0xbe78ac74	-0.24284536
89	0x3d353ebd	0.044249285
90	0x3eb59ecb	0.35472712
91	0xbe90213e	-0.28150362
92	0xbd5b823f	-0.05359101
93	0xbdc608de	-0.0966966
94	0x3e10d224	0.14142662
95	0xbe70e4ca	-0.23524776
96	0xbe91f8d2	-0.28510147
97	0xbea83099	-0.32849577
98	0x3eb9ffae	0.3632788
99	0x3dcb3141	0.09921504
100	0xbe053240	-0.1300745
101	0x3caaa825	0.02083213
102	0x3e323634	0.1740349
103	0xbe076f02	-0.1322594
104	0x3da8f406	0.08249669
105	0xbf0604cc	-0.5235107
106	0x3e972381	0.29519275
107	0xbe972def	-0.29527232
108	0x3e02c7d9	0.12771548
109	0x3e74c20b	0.23902147
110	0xbd285e9b	-0.041105848
111	0x3e3356ac	0.17513531
112	0x3e51a8d4	0.20474559
113	0x3e639c27	0.22227536
114	0xbd50d12a	-0.050980724
115	0xbf479c46	-0.7797283
116	0xbf3601b8	-0.7109637
117	0x3e4800b1	0.19531514
118	0x3e120cba	0.14262667
119	0x3e440027	0.19140683
120	0xbdcd8528	-0.10035163
121	0x3e12a0a0	0.14319086
122	0xbe6a7d3e	-0.22899339
123	0xbe301c47	-0.17198287
124	0x3dbd86d3	0.09254231
125	0x3e80693a	0.25080281
126	0x3da5430b	0.08069428
127	0xbcdb2b7e	-0.026754137
128	0xbe9b9b7b	-0.3039206
129	0xbdbcc0f8	-0.09216493
130	0xbf4bfc7e	-0.7968215
131	0xbebf983a	-0.37420827
132	0x3e093764	0.13400036
133	0xbe80f2c7	-0.25185224
134	0xbe8fdb55	-0.28097025
135	0xbf205140	-0.6262398
136	0xbdfabf87	-0.12243562
137	0x3dd4dd3f	0.10393762
138	0xbe2d00b9	-0.16894807
139	0xbe822b93	-0.2542387
140	0x3d368eb5	0.04456969
141	0xbe96fbd4	-0.29489005
142	0x3e2d8402	0.16944888
143	0x3ec23f7b	0.37939057
144	0xbf46c04f	-0.7763719
145	0xbeef2716	-0.46709508
146	0x3e309f86	0.17248353
147	0x3df609a8	0.120135605
148	0xbd93ff9f	-0.0722649
149	0x3d1c4a05	0.038156528
150	0x3d24fdd5	0.040281136
151	0xbbd567f4	-0.0065126363
152	0xbeebe00f	-0.4606938
153	0x3ead6281	0.33864215
154	0xbce72b9a	-0.028219033
155	0xbd7d430a	-0.06183151
156	0xbebddbdf	-0.3708181
157	0x3dd13918	0.10215968
158	0x3e978b9f	0.2959871
159	0xbdb631e9	-0.08896238
160	0xbd56802a	-0.05236832
161	0x3e4d78c9	0.20065607
162	0x3d86fc95	0.06591145
163	0xbd7d7d5f	-0.06188714
164	0x3e3340cf	0.17505191
165	0x3e31cffa	0.17364493
166	0xbe9b432a	-0.3032468
167	0xbe78f30f	-0.2431147
168	0x3d1398a5	0.036034245
169	0x3ddbce4b	0.10732707
170	0xbe3668f8	-0.1781348
171	0x3d7efabb	0.062250834
172	0x3e2cec90	0.16887116
173	0xbde86b79	-0.11348624
174	0xbc5f68cc	-0.013635825
175	0xbe891fab	-0.26781973
176	0x3e30492e	0.17215416
177	0x3db918b9	0.090379186
178	0x3dd4b6b9	0.10386414
179	0xbe9e1d72	-0.3088184
180	0xbe00538c	-0.1253187
181	0xbe39fac5	-0.18162067
182	0x3d7ea491	0.06216866
183	0xbe89cadd	-0.26912585
184	0x3e9930fd	0.29920188
185	0x3d83c284	0.06433585
186	0xbde05e01	-0.1095543
187	0x3df0b435	0.11753122
188	0xbe620407	-0.22071849
189	0xbe830a11	-0.25593618
190	0xbe98085c	-0.29693878
191	0xbd870d4d	-0.06594334
192	0x3e9bd02b	0.30432257
193	0x3d77eaa0	0.06052649
194	0x3db21c41	0.08696795
195	0xbe836635	-0.25663915
196	0xbe040139	-0.12891091
197	0x3d9c1e65	0.07622985
198	0x3dc1790e	0.094469175
199	0xbdd2897c	-0.10280129
200	0x3e222533	0.15834503
201	0xbe26f811	-0.16305567
202	0x3d3d124b	0.046160024
203	0x3ceab073	0.02864859
204	0xbcb26592	-0.021776948
205	0x3e62db5f	0.22153996
206	0xbddf3611	-0.10898984
207	0xbe7af7b3	-0.24508552
208	0xbe289837	-0.16464315
209	0xbda1ce0d	-0.07900629
210	0xbc71df95	-0.014762779
211	0xbdca80e5	-0.09887866
212	0xbd8f3479	-0.0699243
213	0xbe617d52	-0.22020462
214	0x3d549c2a	0.051906742
215	0xbe85fdc9	-0.26170185
216	0x3dd49016	0.10379045
217	0xbe08ba84	-0.133524
218	0xbe383270	-0.1798799
219	0x3cec13a6	0.028817963
220	0xbe60fb32	-0.21970823
221	0xbe6ea9e0	-0.2330699
222	0xbe90e768	-0.2830155
223	0xbd4a831f	-0.049441453
224	0xbdcf9cf4	-0.10137358
225	0xbe5400f6	-0.20703492
226	0x3c61d472	0.013783561
227	0xbe8b15fc	-0.2716521
228	0xbdb40acd	-0.087911226
229	0x3e3a6a7e	0.18204686
230	0x3e8a3337	0.269922
231	0xbe88fdef	-0.26756236
232	0xbe3adb6e	-0.18247768
233	0xbf0b9ef6	-0.5453943
234	0x3b80adf7	0.003926988
235	0xbe0bd0eb	-0.13653915
236	0x3e21f5a6	0.15816364
237	0x3e796b5b	0.24357359
238	0x3e877d9e	0.26463026
239	0xbd67505a	-0.056473114
240	0x3d9837a3	0.07432487
241	0xbe63f383	-0.22260861
242	0xbd9e6579	-0.07734198
243	0xbeda4c16	-0.42636174
244	0xbf1171bd	-0.56814176
245	0x3ea578c2	0.32318693
246	0x3e3bc3e5	0.18336447
247	0x3df2819d	0.11841128
248	0xbd39806a	-0.04528848
249	0x3ab88d52	0.0014080203
250	0xbd6b486c	-0.057442114
251	0x3e759fa7	0.23986684
252	0x3d2a227f	0.041536804
253	0x3e6a0206	0.22852334
254	0xbda1fcd1	-0.07909549
255	0x3d8d60f6	0.069032595

network.3.bias f4 [32]
0	0x3e5939fb	0.21213524
1	0xbce6a549	-0.028154986
2	0x3e377bd4	0.1791833
3	0x3c8827e1	0.016620578
4	0x3e6fbd28	0.23412001
5	0xbce49386	-0.027902376
6	0xbcbe1dea	-0.023207624
7	0x3d9a6211	0.07538236
8	0x3e0868d5	0.1332124
9	0xbd36915c	-0.04457222
10	0x3e20fdf3	0.15721874
11	0xbd5eb4c7	-0.05437162
12	0x3dc575ae	0.09641586
13	0xbd14da8f	-0.036341246
14	0x3d94dad6	0.07268302
15	0x3e6c6a37	0.23087393
16	0x3e300a15	0.17191346
17	0x3c7eb6fe	0.015546558
18	0x3dec3a3b	0.11534544
19	0x3e225a36	0.15854725
20	0xbcf7730d	-0.030206228
21	0x3ce090e9	0.027412849
22	0x3cc43238	0.023949727
23	0xbd47e830	-0.048805416
24	0xbd43d584	-0.047811046
25	0x3e5f9830	0.21835399
26	0x3da6a8c1	0.08137656
27	0x3cfd1a8c	0.030896448
28	0x3d982e62	0.07430722
29	0x3e43fde9	0.19139828
30	0x3e133fe3	0.1437984
31	0xbb8cc4ac	-0.004295906

network.6.weight f4 [2, 32]
0	0x3f1118cb	0.56678456
1	0xbd822b61	-0.0635593
2	0x3e83d6b2	0.25749737
3	0xbe6b09c2	-0.22952941
4	0x3e834971	0.2564197
5	0xbe85ed1c	-0.26157463
6	0x3df9368e	0.121686086
7	0xbea8a3a4	-0.32937348
8	0x3eedaefd	0.46422568
9	0xbdfd7072	-0.12374963
10	0x3f2c7999	0.67373043
11	0x3db28b36	0.08717959
12	0x3f1123ea	0.56695426
13	0xbc2697be	-0.010168014
14	0xbebc189b	-0.36737522
15	0x3eefb153	0.46814975
16	0x3eca2483	0.3948098
17	0xbdb9524d	-0.09048901
18	0x3e7b5a56	0.24546179
19	0x3e26dc19	0.16294898
20	0x3d3f9ae0	0.04677856
21	0xbe9e35b2	-0.3090034
22	0xbeb7b527	-0.35880396
23	0xbea4ee40	-0.3221302
24	0xbed460b4	-0.4148003
25	0x3f179426	0.5921043
26	0x3eb51b05	0.35372177
27	0xbe4e1378	-0.20124614
28	0x3f12be7f	0.57321924
29	0x3f1c939f	0.6116275
30	0x3e29688f	0.16543792
31	0xbe9e36fe	-0.3090133
32	0x3ee2aeee	0.44274086
33	0x3ea719bf	0.3263683
34	0x3ec1f426	0.37881583
35	0xbe6df5f7	-0.2323836
36	0x3effc277	0.49953052
37	0xbe34d9f6	-0.1766127
38	0xbe042e64	-0.12908322
39	0xbeefa6db	-0.46806988
40	0x3ef19d31	0.4719024
41	0xbdb25387	-0.08707338
42	0x3e9daf5c	0.3079785
43	0x3eb54d3d	0.3541049
44	0x3ddb9d62	0.10723378
45	0xbe7a82f2	-0.24464014
46	0xbea767f9	-0.32696512
47	0x3d9ae9dd	0.07564137
48	0x3e97ab25	0.2962276
49	0xbeabf42b	-0.33584723
50	0x3f0f4786	0.5596851
51	0x3eb7ea80	0.35921097
52	0xbe8d9ebf	-0.27660176
53	0x3e0ee565	0.13954695
54	0xbe8c056c	-0.27347887
55	0xbde028bd	-0.1094527
56	0x3e234b45	0.15946682
57	0x3e0a72c6	0.13520345
58	0x3ed896c9	0.4230254
59	0xbeafb935	-0.3432099
60	0x3c8380de	0.01605266
61	0x3f0f9550	0.5608721
62	0x3e6d6eae	0.23186752
63	0xbe84c1e9	-0.25929192

network.6.bias f4 [2]
0	0x3e43c743	0.19118981
1	0x3e325520	0.17415285

network.0.weight f4 [32, 4]
0	0xbe18fb6a	-0.14939657
1	0xbea1a485	-0.3157083
2	0xbcc12bbb	-0.023580423
3	0x3d222613	0.03958709
4	0xbe372b61	-0.17887641
5	0xbea6bde4	-0.3256675
6	0xbd973a26	-0.07384138
7	0xbe9b7031	-0.30359033
8	0xbf14f566	-0.5818695
9	0x3f068bc5	0.5255702
10	0xbd488dbc	-0.048963293
11	0x3a35e909	0.0006939327
12	0xbb7c3378	-0.0038482826
13	0xbdc2e64f	-0.09516584
14	0x3eaacf6e	0.3336138
15	0xbf2e7e9a	-0.6816193
16	0x3f03f152	0.515401
17	0x3d949fed	0.07257066
18	0x3de23bd3	0.11046567
19	0xbc973532	-0.018457983
20	0xbe79ca9d	-0.24393697
21	0x3ece5a36	0.403032
22	0x3d83e401	0.06439973
23	0xbe69f120	-0.22845888
24	0xbf04237d	-0.5161665
25	0x3e796e26	0.24358425
26	0xbdb4fa0e	-0.08836757
27	0xbb881e19	-0.0041539785
28	0xbeca50d8	-0.39514804
29	0x3ea344c1	0.31888393
30	0x3e19a6db	0.15005057
31	0xbe93c4df	-0.28861138
32	0xbec58433	-0.38577422
33	0xbeb25f19	-0.3483818
34	0xbe39cd6e	-0.18144771
35	0xbe23d5b7	-0.15999494
36	0x3f06d6f7	0.5267176
37	0xbe456017	-0.19274937
38	0x3d0e6b20	0.03477013
39	0xbc87b36e	-0.01656505
40	0x3eaa113a	0.33216268
41	0x3e97da20	0.29658604
42	0xbc932636	-0.017962556
43	0x3e2d25f5	0.1690901
44	0xbd9b85b9	-0.07593865
45	0xbeab4a4b	-0.3345512
46	0x3dcce89a	0.10005303
47	0x3eb2cd41	0.3492222
48	0xbe36adaf	-0.17839693
49	0xbe8e2099	-0.27759245
50	0xbce5f655	-0.028071562
51	0x3e7fe345	0.2498904
52	0xbec8a92f	-0.39191577
53	0x3df79270	0.120884776
54	0x3e82f257	0.25575516
55	0x3d85b47e	0.06528567
56	0x3d7f2055	0.062286694
57	0x3edb3ff2	0.42822224
58	0xbe8336c2	-0.25627714
59	0xbe3640b0	-0.17798114
60	0x3f03ed8e	0.51534355
61	0x3e6c4d21	0.23076297
62	0xbe2bb66e	-0.1676881
63	0xbd405585	-0.046956558
64	0xbf0144f8	-0.5049586
65	0x3e9f26dd	0.31084338
66	0x3c248c6d	0.010043246
67	0x3c9dbcc4	0.01925505
68	0xbedb9711	-0.42888692
69	0x3ee94e0d	0.4556736
70	0x3e2a50ac	0.16632336
71	0xbe76e47e	-0.241106
72	0xbe82ac5f	-0.25522134
73	0xbebc95a1	-0.36832908
74	0x3e683894	0.22677833
75	0x3e8d1a7a	0.27559263
76	0x3f1ad007	0.60473675
77	0xbeb39a0b	-0.35078463
78	0x3d69474d	0.056952763
79	0xbbf83c85	-0.007575574
80	0x3edd2078	0.43188834
81	0xbe7ef160	-0.24896765
82	0x3bdc6943	0.0067264154
83	0xbc40feb1	-0.011779473
84	0xbe2d58dc	-0.16928428
85	0x3df2eefd	0.1186199
86	0x3ec8bd4a	0.39206916
87	0xbe881f8d	-0.2658657
88	0xbea7e5f0	-0.32792616
89	0xbcbf0028	-0.023315504
90	0x3e81fc13	0.2538763
91	0x3e86d10d	0.26331368
92	0x3e8b0777	0.27154133
93	0x3e15b66d	0.14620371
94	0xbdc57e78	-0.096432626
95	0xbdd1bd10	-0.10241139
96	0x3d698d52	0.05701954
97	0xbeacca3f	-0.33748052
98	0xbe2770b3	-0.16351585
99	0xbdc00049	-0.093750544
100	0x3dc3d58a	0.09562214
101	0x3eb78670	0.35844755
102	0x3e395ae0	0.18101072
103	0x3e10401f	0.1408696
104	0x3eeec835	0.4663712
105	0x3e6d703d	0.23187347
106	0x3e890c3e	0.26767153
107	0xbd97efb0	-0.07418764
108	0xbe6f6364	-0.23377758
109	0xbec041d9	-0.37550238
110	0xbe8da44c	-0.2766441
111	0xbe21cab6	-0.15799984
112	0xbe7c68b4	-0.24649316
113	0x3e2628bb	0.16226475
114	0xbe7c2239	-0.2462243
115	0x3e934a31	0.2876754
116	0xbecc03ee	-0.39846748
117	0xbec74586	-0.3892023
118	0xbeb655cd	-0.35612336
119	0xbd89bea0	-0.06725812
120	0x3f1650b8	0.5871692
121	0xbcdb4761	-0.026767435
122	0x3dbd88c5	0.09254602
123	0xbde5ac61	-0.11214519
124	0x3d8c4ac0	0.06850195
125	0xbeb74b06	-0.35799426
126	0x3e63979a	0.222258
127	0x3eb83805	0.3598024

network.0.bias f4 [32]
0	0x00000000	0.0
1	0x3d864d89	0.065577574
2	0x3b292240	0.0025807768
3	0x3d2ee567	0.042699244
4	0xbda593a7	-0.08084803
5	0xbd409265	-0.047014613
6	0x3da2800e	0.07934581
7	0x3dd17f84	0.102294
8	0xbcec7815	-0.028865853
9	0xbcde56ad	-0.02714094
10	0xbd16801b	-0.036743265
11	0x3dd1a114	0.10235801
12	0xbd9bfad0	-0.07616198
13	0x3e060e24	0.13091332
14	0x3cf6d2d1	0.030129822
15	0xbdd02b70	-0.10164535
16	0x3da7a3e4	0.081855565
17	0x3d5ca7da	0.053871013
18	0x3a65a329	0.00087599695
19	0x3d36db67	0.044642832
20	0x3cd6ecc0	0.026235938
21	0x3c4471f3	0.011990058
22	0x3d6a45f6	0.057195626
23	0xbca81534	-0.020517923
24	0xbd2c54e9	-0.042073164
25	0xbc8f507d	-0.017494434
26	0xbd47d523	-0.048787247
27	0xbd706846	-0.058693193
28	0xbcb5330a	-0.022119064
29	0xbc528791	-0.012849704
30	0xbd645da5	-0.05575337
31	0x3dbeb0f4	0.09311095

network.3.weight f4 [32, 32]
0	0x3e65a3b8	0.22425735
1	0x3e8b355f	0.27189156
2	0xbf68a124	-0.9087088
3	0xbc06b340	-0.0082214475
4	0x3e5c8843	0.21536355
5	0xbea3c9a3	-0.31989774
6	0xbdb418f3	-0.08793821
7	0xbe6b27ea	-0.22964445
8	0x3e53f31b	0.20698206
9	0x3ee34a53	0.44392642
10	0xbe2ead55	-0.17058308
11	0xbe57eced	-0.21086474
12	0x3e38ff77	0.18066202
13	0xbe1c280b	-0.1524965
14	0x3db69c88	0.08916575
15	0x3d355ca1	0.04427779
16	0xbf1006a9	-0.5626016
17	0xbdbeeaed	-0.09322152
18	0xbe89d502	-0.26920325
19	0x3e958030	0.29199362
20	0x3e3455a1	0.1761079
21	0xbd7a363c	-0.06108688
22	0xbea16402	-0.31521612
23	0x3dc6bca7	0.09703951
24	0xbe894876	-0.26813096
25	0x3e6054b4	0.21907312
26	0x3e50479e	0.2033982
27	0x3e8af605	0.27140823
28	0xbd5ea497	-0.054356184
29	0x3e236d95	0.15959771
30	0x3eb50332	0.35354
31	0xbec5d519	-0.38639143
32	0xbd8d1c41	-0.06890155
33	0x3dac1db6	0.084041044
34	0xbd9c7950	-0.07640326
35	0x3d752218	0.059846967
36	0xbe87583c	-0.26434505
37	0x3e7c3ca1	0.24632503
38	0xbe93b8dd	-0.28851977
39	0x3e05b364	0.13056713
40	0xbe99c6f5	-0.30034605
41	0xbe8f7928	-0.28022122
42	0x3deaf989	0.11473376
43	0x3d929cbe	0.071588024
44	0xbcc61070	-0.02417776
45	0xbea73599	-0.3265808
46	0xbe74c268	-0.23902285
47	0xbdeafb61	-0.11473728
48	0x3e0394a7	0.12849675
49	0xbe776182	-0.2415829
50	0x3e997a2c	0.29976022
51	0x3e2ca250	0.16858792
52	0xbcfd0704	-0.030887134
53	0x3d9c0016	0.07617204
54	0xbe8fcc71	-0.28085664
55	0xbea58af8	-0.32332587
56	0xbdcec1e6	-0.10095577
57	0xbd9926f4	-0.07478133
58	0xbe9fc83a	-0.31207448
59	0x3c4ca90e	0.012491478
60	0xbe2016e5	-0.15633734
61	0xbe3e1299	-0.18561782
62	0xbe867d6c	-0.26267564
63	0x3e675c92	0.22593907
64	0xbd7b580a	-0.061363257
65	0x3ecad9d8	0.39619327
66	0xbf037fed	-0.51367074
67	0x3d2e321f	0.042528268
68	0xbdab0640	-0.083508015
69	0xbe42652b	-0.18983905
70	0xbea70e5b	-0.3262814
71	0x3d32cc9f	0.043652173
72	0x3e750c2e	0.23930427
73	0x3ec70a07	0.38874838
74	0x3e8d3c75	0.27585188
75	0xbdd5af93	-0.10433879
76	0xbec70552	-0.38871247
77	0xbed2119f	-0.4102907
78	0xbe2efdf2	-0.1708906
79	0x3e735675	0.2376345
80	0xbf2e376f	-0.68053335
81	0xbe8ea433	-0.2785965
82	0xbd9621cc	-0.07330665
83	0x3f001117	0.5002608
84	0x3eaeeda5	0.34165683
85	0x3cd1f095	0.025627414
86	0xbeb7e84e	-0.35919422
87	0x3dfb97be	0.12284802
88	0x3d9d944f	0.07694303
89	0x3d1685a3	0.03674854
90	0x3ebc023d	0.36720458
91	0xbe894d8b	-0.26816973
92	0xbd9668bc	-0.07344195
93	0xbdc608de	-0.0966966
94	0x3e2786e6	0.16360053
95	0xbe641f70	-0.22277617
96	0xbe91f8d2	-0.28510147
97	0xbe649279	-0.223215
98	0x3ebec890	0.37262392
99	0x3e14e49d	0.14540334
100	0xbdfa264d	-0.122143365
101	0x3c3d9c87	0.011572964
102	0x3dde6a13	0.10860076
103	0xbe235cf2	-0.15953425
104	0x3da8f406	0.08249669
105	0xbed1239e	-0.40847486
106	0x3e99099d	0.29890147
107	0xbe800e9f	-0.25011155
108	0x3e5e5735	0.21712954
109	0x3e42d8bc	0.1902799
110	0xbd9e23b8	-0.077216566
111	0x3e37180f	0.17880271
112	0x3e1e47ea	0.1545712
113	0x3e606cd3	0.21916513
114	0xbcceab02	-0.025228027
115	0xbf260971	-0.64858156
116	0xbf13918a	-0.5764395
117	0x3e6fa1d8	0.23401582
118	0x3de37cfc	0.11107823
119	0x3e41d434	0.18928605
120	0x3e30a8bc	0.17251867
121	0x3dfc63c4	0.12323716
122	0xbe80a06f	-0.251224
123	0xbe301c47	-0.17198287
124	0x3dc54835	0.09632913
125	0x3e80693a	0.25080281
126	0x3dfeae8b	0.12435635
127	0x3c2362b7	0.009972266
128	0xbe9b9b7b	-0.3039206
129	0x3b439117	0.002984112
130	0xbf0b4eef	-0.5441732
131	0xbeb38140	-0.35059547
132	0x3e03a4d8	0.12855852
133	0xbe2a25fa	-0.1661605
134	0xbd7527b2	-0.05985231
135	0xbf15b99b	-0.58486336
136	0xbdfabf87	-0.12243562
137	0x3e27549a	0.16340867
138	0xbe368eea	-0.17827955
139	0xbe6be0b6	-0.23034939
140	0x3e1b44c4	0.15162951
141	0xbe6d0d89	-0.23149695
142	0x3e089417	0.13337742
143	0x3ebc6726	0.36797446
144	0xbf089a1f	-0.5336017
145	0xbed4ecba	-0.41586858
146	0x3e3b3b9e	0.18284461
147	0x3e525315	0.20539506
148	0xbaf4a7c2	-0.0018665718
149	0x3d94fc0d	0.07274637
150	0x3dc7fae5	0.09764651
151	0xbd627d2f	-0.055295166
152	0xbe16cc1b	-0.14726298
153	0x3ead7565	0.33878627
154	0xbd0d79ee	-0.03454011
155	0xbd54262a	-0.05179421
156	0xbeb71019	-0.3575447
157	0x3dd13918	0.10215968
158	0x3ea384ec	0.3193735
159	0xbd9a5aca	-0.07536848
160	0xbd56802a	-0.05236832
161	0x3e4d78c9	0.20065607
162	0x3d86fc95	0.06591145
163	0xbd7d7d5f	-0.06188714
164	0x3e3340cf	0.17505191
165	0x3e31cffa	0.17364493
166	0xbe9b432a	-0.3032468
167	0xbe78f30f	-0.2431147
168	0x3d1398a5	0.036034245
169	0x3ddbce4b	0.10732707
170	0xbe3668f8	-0.1781348
171	0x3d7efabb	0.062250834
172	0x3e2cec90	0.16887116
173	0xbde86b79	-0.11348624
174	0xbc5f68cc	-0.013635825
175	0xbe891fab	-0.26781973
176	0x3e30492e	0.17215416
177	0x3db918b9	0.090379186
178	0x3dd4b6b9	0.10386414
179	0xbe9e1d72	-0.3088184
180	0xbe00538c	-0.1253187
181	0xbe39fac5	-0.18162067
182	0x3d7ea491	0.06216866
183	0xbe89cadd	-0.26912585
184	0x3e9930fd	0.29920188
185	0x3d83c284	0.06433585
186	0xbde05e01	-0.1095543
187	0x3df0b435	0.11753122
188	0xbe620407	-0.22071849
189	0xbe830a11	-0.25593618
190	0xbe98085c	-0.29693878
191	0xbd870d4d	-0.06594334
192	0x3e9bd02b	0.30432257
193	0x3d77eaa0	0.06052649
194	0x3db21c41	0.08696795
195	0xbe836635	-0.25663915
196	0xbe040139	-0.12891091
197	0x3d9c1e65	0.07622985
198	0x3dc1790e	0.094469175
199	0xbdd2897c	-0.10280129
200	0x3e222533	0.15834503
201	0xbe26f811	-0.16305567
202	0x3d3d124b	0.046160024
203	0x3ceab073	0.02864859
204	0xbcb26592	-0.021776948
205	0x3e62db5f	0.22153996
206	0xbddf3611	-0.10898984
207	0xbe7af7b3	-0.24508552
208	0xbe289837	-0.16464315
209	0xbda1ce0d	-0.07900629
210	0xbc71df95	-0.014762779
211	0xbdca80e5	-0.09887866
212	0xbd8f3479	-0.0699243
213	0xbe617d52	-0.22020462
214	0x3d549c2a	0.051906742
215	0xbe85fdc9	-0.26170185
216	0x3dd49016	0.10379045
217	0xbe08ba84	-0.133524
218	0xbe383270	-0.1798799
219	0x3cec13a6	0.028817963
220	0xbe60fb32	-0.21970823
221	0xbe6ea9e0	-0.2330699
222	0xbe90e768	-0.2830155
223	0xbd4a831f	-0.049441453
224	0xbdcf9cf4	-0.10137358
225	0xbe852235	-0.2600266
226	0x3d734ed5	0.059401352
227	0xbeb80e9e	-0.35948652
228	0xbdc23bad	-0.094840385
229	0x3e20dfe3	0.15710406
230	0x3e854fb5	0.26037374
231	0xbe9e4c9c	-0.30917823
232	0xbe3adb6e	-0.18247768
233	0xbeed2ff8	-0.4632566
234	0x3b15acae	0.002283852
235	0xbdc64867	-0.096817784
236	0x3e5ecdba	0.21758166
237	0x3e5caf9a	0.21551362
238	0x3e82e654	0.2556635
239	0xbd6c3133	-0.057664108
240	0x3d990891	0.07472337
241	0xbe613d73	-0.21996097
242	0xbd9e6579	-0.07734198
243	0xbea70ca3	-0.3262683
244	0xbee98a67	-0.45613405
245	0x3ea15b66	0.31515044
246	0x3e29a5fd	0.16567226
247	0x3de16c36	0.11006968
248	0x3e7d5367	0.24738847
249	0xbc90ad2a	-0.017660696
250	0xbda48c9f	-0.08034634
251	0x3e759fa7	0.23986684
252	0x3d5e96c7	0.05434301
253	0x3e6a0206	0.22852334
254	0xbd849501	-0.06473733
255	0x3dc76867	0.0973671

network.3.bias f4 [32]
0	0x3e27115e	0.16315219
1	0xbd45bc79	-0.048275445
2	0x3df44505	0.11927227
3	0x3c9c6133	0.019089317
4	0x3e3c9c74	0.18419057
5	0xbce49386	-0.027902376
6	0xbcbe1dea	-0.023207624
7	0x3da0d3c9	0.07852895
8	0x3da7ec50	0.0819937
9	0xbd39afab	-0.045333546
10	0x3dee914e	0.116488084
11	0xbcfe3bd0	-0.03103438
12	0x3d6ed35b	0.058307033
13	0xbd3f2d33	-0.046673965
14	0x3d85f676	0.06541149
15	0x3e296fd3	0.16546564
16	0xbc857d08	-0.016294971
17	0x3c930798	0.017947957
18	0x3da16619	0.07880802
19	0x3de761ac	0.11297926
20	0xbcbbd6b9	-0.022929536
21	0x3c95706d	0.018242085
22	0x3d05c6b1	0.03266019
23	0x3abb9b5e	0.0014313271
24	0xbd0b6bfd	-0.034038533
25	0x3dfd1864	0.12358168
26	0x3d3521c5	0.04422166
27	0x3c953478	0.018213496
28	0x3967f5c0	0.00022121426
29	0x3e17f877	0.14840876
30	0x3d9d137a	0.076697305
31	0xbae4e398	-0.0017462848

network.6.weight f4 [2, 32]
0	0x3f0b6671	0.5445319
1	0xbd5392c6	-0.051653646
2	0x3e66c145	0.22534664
3	0xbe3a11e7	-0.18170892
4	0x3e517904	0.2045632
5	0xbe85ed1c	-0.26157463
6	0x3df9368e	0.121686086
7	0xbe9b5060	-0.3033476
8	0x3ee36aeb	0.4441751
9	0xbdfd7091	-0.12374986
10	0x3f28e94d	0.6598099
11	0x3d503d75	0.05083986
12	0x3f092474	0.5357125
13	0xbc39b7a0	-0.0113352835
14	0xbe9596f6	-0.29216737
15	0x3ed83455	0.42227426
16	0x3e980602	0.29692084
17	0xbcf5c38e	-0.030000474
18	0x3e67c64a	0.22634235
19	0x3dee5280	0.116368294
20	0x3c98189d	0.018566424
21	0xbe9f8166	-0.3115341
22	0xbea6a5d8	-0.32548404
23	0xbe506704	-0.20351797
24	0xbed4278d	-0.41436425
25	0x3ed2e06b	0.41186842
26	0x3eace44b	0.33767924
27	0xbe36a78b	-0.1783735
28	0x3ef0e9dc	0.4705342
29	0x3f19f738	0.6014285
30	0x3e0bb0b6	0.13641629
31	0xbe8b4d31	-0.2720733
32	0x3ece6fa7	0.4031956
33	0x3e9cf0a5	0.30652347
34	0x3eaf9bcd	0.34298554
35	0xbe3b3d38	-0.18285072
36	0x3ed8b6ed	0.4232706
37	0xbe34d9f6	-0.1766127
38	0xbe042e64	-0.12908322
39	0xbedaa332	-0.42702633
40	0x3ee756b8	0.4518335
41	0xbdb58698	-0.08863562
42	0x3e82588b	0.25458178
43	0x3e95cfb6	0.29260033
44	0x3d3f5b04	0.04671766
45	0xbe73b361	-0.23798896
46	0xbe964501	-0.2934952
47	0xbce9d23d	-0.028542632
48	0x3e71504f	0.23565792
49	0xbe9fcd82	-0.31211478
50	0x3f09ad23	0.5377981
51	0x3eac6f4b	0.3367866
52	0xbe9032c7	-0.2816374
53	0x3e111c19	0.14170875
54	0xbe6ffa9a	-0.2343544
55	0x39020b41	0.00012401959
56	0x3e25cac5	0.16190632
57	0xbc8c00f1	-0.017090293
58	0x3ec12b1a	0.37728196
59	0xbeacd576	-0.33756608
60	0xbdff8373	-0.12476244
61	0x3efede76	0.497791
62	0x3e5fa2a9	0.21839394
63	0xbe57e712	-0.2108424

network.6.bias f4 [2]
0	0x3dc83ecf	0.09777605
1	0x3dd9ef7e	0.10641383

exp_avg f4 [32, 4]
0	0x00000000	0.0
1	0x00000000	0.0
2	0x00000000	0.0
3	0x00000000	0.0
4	0x3ba48c5b	0.0050216145
5	0x3b9c5fd7	0.004772167
6	0x3b92d862	0.0044813612
7	0xbbfd8903	-0.0077372803
8	0xba2b8027	-0.00065422285
9	0xbcb66e39	-0.022269355
10	0x3c9df100	0.019279957
11	0xbbd34fa3	-0.0064487024
12	0x3c8e97ac	0.017406307
13	0x3c2ab77f	0.010419725
14	0xbaa69dc8	-0.0012711817
15	0xbc602479	-0.013680571
16	0x3bdedd07	0.006801251
17	0x3bb51dcb	0.0055272332
18	0xbc582b8d	-0.013193977
19	0x3c46a387	0.012123949
20	0x3c0a3a23	0.008436712
21	0x3b811d91	0.003940292
22	0x3b229fce	0.002481449
23	0xbc0a300b	-0.008434306
24	0x3bb3d071	0.0054874946
25	0xbba4f6b0	-0.0050342903
26	0xbbfb72ad	-0.0076735825
27	0xbc0abbc4	-0.008467618
28	0x3c458f7e	0.012058137
29	0x3ac1c0ea	0.0014782224
30	0xb97e8eff	-0.00024276598
31	0xbc927621	-0.017878594
32	0x029848a7	2.2376093e-37
33	0x031e36e9	4.649506e-37
34	0x83574f6d	-6.3273998e-37
35	0x83340cf8	-5.2912133e-37
36	0x3c083313	0.008312958
37	0x3c6e4eaf	0.014545127
38	0xbc5e03ba	-0.013550693
39	0x3bd3e9d4	0.0064670835
40	0x39d16193	0.00039936285
41	0xb9a4ff13	-0.00031470563
42	0xbbbfcc1e	-0.00585319
43	0x3c8fb9e2	0.01754469
44	0xbb475290	-0.0030414201
45	0xb9bd34f9	-0.00036088357
46	0x3b9dd7c7	0.0048169824
47	0xbb3bd33e	-0.0028659846
48	0xbc2a9b43	-0.010412994
49	0xbb85f507	-0.0040880474
50	0x3b8a6c42	0.004224331
51	0xbc2045f3	-0.009782302
52	0x385f6460	5.3260825e-05
53	0xbc03c35b	-0.008042182
54	0x3b1e7351	0.002417762
55	0xbb9015d3	-0.004397133
56	0x3c2fe614	0.010736007
57	0x3c2e55f0	0.010640606
58	0xbc88d0fd	-0.016701216
59	0x3cae3480	0.021265268
60	0x3be70b5e	0.0070509156
61	0x3b5b6f95	0.0033483256
62	0xbc2ab0ed	-0.010418159
63	0x3ca538b1	0.020168634
64	0xbb67c2e7	-0.0035363974
65	0xbd0d22f7	-0.034457173
66	0x3bb6f9d8	0.005583983
67	0xbcb1c2d6	-0.02169935
68	0x3bf1b4d4	0.0073762927
69	0x3a839984	0.0010040258
70	0xbb53301e	-0.0032224725
71	0xbc486abd	-0.01223248
72	0x392822b1	0.00016034652
73	0x38f2a8e7	0.0001157092
74	0x389a8c70	7.369451e-05
75	0x3976bfe1	0.00023531869
76	0x3b8b126e	0.0042441403
77	0x3c21e3ac	0.009880941
78	0xbbdf020d	-0.0068056644
79	0x3ca8ff93	0.02062968
80	0x3c53ff34	0.012939263
81	0x3cad2dee	0.021140065
82	0xbd2df4f6	-0.04246994
83	0x3cd01da0	0.025404751
84	0x3b8edd85	0.0043599033
85	0x3b056d23	0.002035924
86	0x3b81eb69	0.0039648307
87	0xbb5d469e	-0.0033764015
88	0xbb76b846	-0.0037646457
89	0xbbc1c7e2	-0.0059137205
90	0x3aa31178	0.0012441119
91	0xbc23db7a	-0.010001058
92	0x3c1b1fdb	0.009468044
93	0x3b89b5c6	0.0042025773
94	0xbc245d09	-0.010031947
95	0x3c3ab833	0.011396456
96	0xbb4f21b0	-0.0031605773
97	0x3b957c9c	0.0045619737
98	0x3c82c44e	0.015962746
99	0xbcc1beef	-0.023650615
100	0x3a1d1b24	0.0005993119
101	0xba12baa3	-0.0005597269
102	0xbc22ea94	-0.009943623
103	0x3c65065b	0.013978566
104	0x3a697090	0.0008905018
105	0x3afc8717	0.0019266334
106	0xbc2a7f07	-0.010406262
107	0x3c20b911	0.009809748
108	0x26001829	4.4441664e-16
109	0x250aa5e4	1.2025798e-16
110	0xa5b6f1b5	-3.1735754e-16
111	0xa66b665b	-8.167072e-16
112	0xbb35a630	-0.0027717464
113	0xbb8c8074	-0.0042877737
114	0x3bed948c	0.007250374
115	0xb996ae13	-0.00028739925
116	0x00000004	6e-45
117	0x00000004	6e-45
118	0x80000004	-6e-45
119	0x80000004	-6e-45
120	0x3b2d66b4	0.002645892
121	0x3b52b59c	0.0032151705
122	0xbc1a41df	-0.009415119
123	0xbb224dbe	-0.0024765576
124	0xbb2af144	-0.0026083747
125	0xbaa3030a	-0.0012436819
126	0x3bf52d79	0.0074822274
127	0xbc13a4c4	-0.009011451

exp_avg_sq f4 [32, 4]
0	0x00000000	0.0
1	0x00000000	0.0
2	0x00000000	0.0
3	0x00000000	0.0
4	0x397b0065	0.00023937372
5	0x398009e8	0.00024421443
6	0x3985bde6	0.00025509222
7	0x3a59bbcf	0.0008305879
8	0x3b1d2288	0.002397688
9	0x3b95ff9a	0.004577589
10	0x3b266edb	0.0025395665
11	0x3b301cdf	0.0026872677
12	0x39d812ca	0.0004121273
13	0x394bf896	0.00019452194
14	0x38eca783	0.000112845584
15	0x39ba8862	0.00035578298
16	0x3a537d20	0.00080676563
17	0x3a3b63cf	0.00071483565
18	0x3a1e3d1f	0.00060363294
19	0x3a72ed7a	0.0009266954
20	0x39f5906b	0.0004683764
21	0x39e8ce5e	0.00044404244
22	0x395d9970	0.00021133362
23	0x39d68e67	0.0004092336
24	0x3a8b6aec	0.0010636724
25	0x3b149511	0.0022671858
26	0x3ac101e4	0.0014725295
27	0x3abe5862	0.001452219
28	0x3a34f9d2	0.0006903681
29	0x3a0e382f	0.0005425242
30	0x398d26e9	0.00026922606
31	0x3a13228e	0.0005612754
32	0x31236697	2.3777937e-09
33	0x32391272	1.0772611e-08
34	0x32a55c9a	1.9250638e-08
35	0x3268ee3f	1.3558348e-08
36	0x3b0d46ae	0.002155702
37	0x3b08e442	0.0020888005
38	0x3adb3096	0.0016722854
39	0x3b30f534	0.0027001621
40	0x39c31276	0.00037207053
41	0x397f1f97	0.00024330463
42	0x394d9f86	0.0001960975
43	0x39be23b1	0.00036266216
44	0x3a07811a	0.0005169079
45	0x3951c747	0.0002000603
46	0x397e0ae0	0.00024227379
47	0x3a1f9150	0.0006087022
48	0x38d56606	0.00010175635
49	0x3836a07e	4.354165e-05
50	0x389bee7f	7.435399e-05
51	0x393840a1	0.00017571684
52	0x3a383aff	0.0007027834
53	0x3a3f637e	0.0007300897
54	0x39dbfa24	0.00041957304
55	0x3a91ef7b	0.0011133993
56	0x39fe5449	0.00048509453
57	0x3983cfa5	0.00025140974
58	0x39600645	0.0002136464
59	0x3a027234	0.0004976124
60	0x3a3b87d1	0.0007153722
61	0x39bc315a	0.00035894924
62	0x39cc612d	0.00038982314
63	0x3a4b3bd0	0.0007752748
64	0x3ad62017	0.0016336468
65	0x3b55214f	0.0032521074
66	0x3aed4d1e	0.0018104648
67	0x3b24ed05	0.0025165689
68	0x3a13084f	0.0005608843
69	0x3a19460d	0.0005846925
70	0x3999c640	0.00029330142
71	0x3a1f14cd	0.0006068468
72	0x3701465c	7.705381e-06
73	0x35018713	4.8252804e-07
74	0x370b6da8	8.310577e-06
75	0x3761d91c	1.3461595e-05
76	0x3b814615	0.003945122
77	0x3b5a4b87	0.0033309178
78	0x3b4206e1	0.002960615
79	0x3b8fd46a	0.0043893354
80	0x3b9b90ca	0.004747485
81	0x3b829658	0.0039852075
82	0x3b74d56d	0.0037358657
83	0x3bb18dcc	0.005418515
84	0x395fba6c	0.00021336385
85	0x3928bf5a	0.00016093013
86	0x389c4aef	7.452617e-05
87	0x397b3299	0.00023956074
88	0x39415550	0.00018437696
89	0x392deafc	0.00016586104
90	0x38ae15b8	8.301012e-05
91	0x39b892d1	0.00035204602
92	0x3a408b78	0.0007345001
93	0x39ddad25	0.00042281408
94	0x39cf5613	0.00039546247
95	0x3a85777e	0.0010182706
96	0x3a5bfba5	0.0008391685
97	0x392ec730	0.00016668136
98	0x39bd4561	0.0003610058
99	0x3a6aba09	0.0008954113
100	0x39b1263c	0.00033788558
101	0x393f32a7	0.00018234049
102	0x393e4835	0.00018146711
103	0x39ba520c	0.00035537814
104	0x3a14ad5d	0.0005671585
105	0x39ba2e87	0.0003551135
106	0x39ae9d0f	0.00033304884
107	0x3a1470a9	0.00056625396
108	0x331336a3	3.4275796e-08
109	0x336992d7	5.438309e-08
110	0x33fb78d7	1.1710079e-07
111	0x33d50a59	9.920468e-08
112	0x39adec08	0.00033172988
113	0x39cbb06f	0.0003885063
114	0x39a53a26	0.00031514576
115	0x39cbeafe	0.0003889426
116	0x30a4b8d4	1.1985102e-09
117	0x31fa077e	7.2768094e-09
118	0x328ee39f	1.6634486e-08
119	0x2e5d7a3d	5.035815e-11
120	0x3ae5c388	0.0017529586
121	0x3aaf4a70	0.0013373625
122	0x3a9b85db	0.0011865454
123	0x3b03403e	0.0020027305
124	0x3a390c35	0.0007059009
125	0x3958d3ae	0.00020678222
126	0x39aaf84e	0.00032609928
127	0x3a4e673a	0.00078736583

exp_avg f4 [32]
0	0x00000000	0.0
1	0x3c1faca6	0.009745752
2	0xbbb404d2	-0.0054937387
3	0x3d043249	0.03227452
4	0x3c532ca5	0.012889062
5	0x3c68eb34	0.014216233
6	0x3cb01456	0.021494072
7	0x3cb5b049	0.022178786
8	0x03889bc0	8.02912e-37
9	0x3c9a56e0	0.018840253
10	0x3b1dfeef	0.002410825
11	0xbb3fd0d8	-0.0029268768
12	0xbc88d99e	-0.01670533
13	0xb936193a	-0.0001736627
14	0x3cd4aa64	0.025960155
15	0x3c3972de	0.01131889
16	0xbc993e0b	-0.018706342
17	0x3c36c01b	0.0111542
18	0x3996d015	0.00028765263
19	0x3bb751f2	0.0055944854
20	0x3d0e29cf	0.03470784
21	0x3c137f6c	0.009002548
22	0xbc24b49c	-0.010052826
23	0x3c73dc39	0.014884048
24	0x3b2e0e4a	0.002655881
25	0x3a31d945	0.000678439
26	0x3a548f71	0.00081085326
27	0x267a4a84	8.683716e-16
28	0xbbc67217	-0.006056081
29	0x00000004	6e-45
30	0x3b4c27e2	0.0031151702
31	0xbbcc8cdd	-0.006242378

exp_avg_sq f4 [32]
0	0x00000000	0.0
1	0x3acd286f	0.0015652309
2	0x3c7fac39	0.015605026
3	0x3aa71562	0.0012747461
4	0x3b4fa38e	0.003168318
5	0x3b09ab78	0.0021006744
6	0x3c0817bf	0.008306443
7	0x3b423b22	0.0029637297
8	0x3305ee3f	3.118316e-08
9	0x3c1a7423	0.009427103
10	0x3a9f0aff	0.0012134014
11	0x3ad1ba4f	0.0016000959
12	0x39d97c33	0.00041482
13	0x3b5cdd34	0.0033701183
14	0x3ac0d0b9	0.0014710642
15	0x3b14c85f	0.0022702438
16	0x3c381d29	0.011237421
17	0x3b2c4fbe	0.0026292647
18	0x37abbf24	2.0473795e-05
19	0x3c76bdc1	0.015059889
20	0x3c945ee8	0.018111661
21	0x3a5e331a	0.00084762427
22	0x3a4cdfd3	0.0007815335
23	0x3b2946b6	0.00258295
24	0x3b1f3bf0	0.00242972
25	0x3a882065	0.0010385631
26	0x3aee92fb	0.0018201763
27	0x3457462b	2.0048962e-07
28	0x3ac0a661	0.0014698022
29	0x329e5374	1.8431571e-08
30	0x3bd06ed8	0.00636087
31	0x3b06fd70	0.0020597838

exp_avg f4 [32, 32]
0	0x00000000	0.0
1	0x3a9aa846	0.0011799417
2	0x3b0406ff	0.0020145772
3	0x3bd0cf56	0.0063723726
4	0x3b06649f	0.0020506752
5	0x3a0b4347	0.00053124543
6	0x3a8ae343	0.0010596294
7	0x3a8d1f58	0.0010766787
8	0x00ce20b2	1.8929841e-38
9	0x3b8c0b8b	0.004273837
10	0x3b77b906	0.0037799492
11	0x3a7a7833	0.0009554654
12	0x3a617f7c	0.00086020655
13	0xb8f4a9f1	-0.00011666481
14	0x3b95e3a5	0.0045742565
15	0x3bb03110	0.0053769425
16	0x3b12081d	0.0022282668
17	0x3968126d	0.00022132108
18	0x37de4c10	2.6499882e-05
19	0x3bb1bddc	0.0054242443
20	0x3b30ed86	0.0026997044
21	0x3b80eef4	0.0039347354
22	0xb8a11de0	-7.682643e-05
23	0x3b55a06f	0.0032596847
24	0x3ab0fac8	0.0013502473
25	0x3b147b89	0.002265664
26	0x3b06fa8c	0.0020596115
27	0x242cebcc	3.7496282e-17
28	0x3b01888f	0.0019765233
29	0x00000000	0.0
30	0x3b70739c	0.0036690002
31	0xb8b790fb	-8.753125e-05
32	0x00000000	0.0
33	0x00000000	0.0
34	0x80000004	-6e-45
35	0x00000000	0.0
36	0xb4b4c340	-3.3669676e-07
37	0x00000000	0.0
38	0x00000004	6e-45
39	0x00000004	6e-45
40	0x00000000	0.0
41	0x37b41c65	2.1470894e-05
42	0x37bdca4c	2.2624758e-05
43	0x38171b6d	3.6026748e-05
44	0xb163d3ca	-3.3153236e-09
45	0x09b434d2	4.3383096e-33
46	0xae193327	-3.4833605e-11
47	0x354d76ba	7.654122e-07
48	0x00000004	6e-45
49	0x00000004	6e-45
50	0x3734cf79	1.0777142e-05
51	0x37f42d07	2.9108034e-05
52	0x379b0927	1.8481702e-05
53	0x3658f5fe	3.2329694e-06
54	0x37e87a50	2.7713511e-05
55	0x00000004	6e-45
56	0x37178585	9.031389e-06
57	0x37bf357b	2.2793878e-05
58	0x37f8b270	2.9646995e-05
59	0x00000000	0.0
60	0x00000004	6e-45
61	0x00000000	0.0
62	0xb490f110	-2.6997486e-07
63	0x38542728	5.0581206e-05
64	0x00000000	0.0
65	0xb9a85f3f	-0.0003211442
66	0x3ace5e32	0.0015744625
67	0xbaa31c9e	-0.0012444442
68	0xba933285	-0.0011230266
69	0xb9eecd7a	-0.0004554799
70	0x3a349319	0.00068883743
71	0xb894d4be	-7.096816e-05
72	0x00000000	0.0
73	0x39fec9d6	0.00048597035
74	0x388edb20	6.811903e-05
75	0x393c40a9	0.00017953165
76	0xb8f18ab8	-0.00011517614
77	0xb9107adb	-0.00013778677
78	0xb929149b	-0.00016124772
79	0xba81fad8	-0.0009916676
80	0x3aa47256	0.0012546282
81	0xba554bdc	-0.0008136609
82	0xb76bf7c8	-1.4064783e-05
83	0xb98ef34f	-0.0002726563
84	0xba197500	-0.0005853921
85	0xb9cc7683	-0.0003899821
86	0xb8eeaaf2	-0.000113805654
87	0xb9ca473d	-0.0003858152
88	0x3981cdd1	0.00024758143
89	0xb9a9fbdf	-0.0003242185
90	0xbaaa6ba1	-0.0013002047
91	0x239de2aa	1.711797e-17
92	0x3915acbd	0.00014274097
93	0x00000004	6e-45
94	0xba2bb029	-0.0006549382
95	0xb9d472a3	-0.00040521202
96	0x00000000	0.0
97	0x3983f40d	0.000251681
98	0x3a053ca2	0.00050825824
99	0x3a1a18fb	0.0005878356
100	0x369d8a2a	4.695049e-06
101	0xb724faff	-9.833601e-06
102	0x3a1d93f0	0.0006011119
103	0xb915bfc7	-0.0001428119
104	0x80179ca6	-2.168411e-39
105	0x39d0f9a1	0.0003985884
106	0xb8f1ef76	-0.000115363786
107	0xb4a38b94	-3.0462672e-07
108	0x396d7bd5	0.00022648212
109	0xb8b47271	-8.604385e-05
110	0xba46b3ed	-0.00075799116
111	0x3902981d	0.00012454433
112	0xb8fa6321	-0.00011939393
113	0x3a2a24f5	0.00064904924
114	0x22b169f4	4.808813e-18
115	0x3a17d661	0.0005792138
116	0x396bc18f	0.00022483453
117	0x39dda7aa	0.00042277324
118	0xb9541c0c	-0.00020228344
119	0xb80e2f57	-3.3899527e-05
120	0x38d667b8	0.00010223634
121	0xba4c64e8	-0.00077970186
122	0xb9ee2aa6	-0.00045426673
123	0x00000004	6e-45
124	0x381020a7	3.4362685e-05
125	0x80000004	-6e-45
126	0x39f84b5c	0.00047358393
127	0xb9740c98	-0.00023274345
128	0x00000000	0.0
129	0x39adf42d	0.00033179056
130	0x3ac15e96	0.001475292
131	0xb927c320	-0.00015999051
132	0xbad0fe68	-0.001594496
133	0x3749fbf0	1.2039192e-05
134	0x3a62021b	0.00086215296
135	0xb9fd0265	-0.00048257704
136	0x0003dcd6	3.54727e-40
137	0x3a3125ca	0.0006757645
138	0x3b5e719b	0.0033942226
139	0x39b027b5	0.0003359892
140	0x39ae3832	0.00033229735
141	0x39d7c03e	0.00041151227
142	0x3b8f5c34	0.004375005
143	0x3af58b75	0.0018733578
144	0x3abca7ca	0.0014393267
145	0x399a9e82	0.00029491266
146	0x37dd10cd	2.6353076e-05
147	0x3ab1a9e1	0.0013554656
148	0xb9dee41c	-0.00042513094
149	0xb9eb2888	-0.0004485289
150	0x39faaed0	0.0004781396
151	0x3b159be3	0.0022828511
152	0x38ab1065	8.156969e-05
153	0x3ac5b24a	0.0015083042
154	0xbaa6e87c	-0.0012734081
155	0x239315d3	1.5947015e-17
156	0x3aa640a8	0.0012684064
157	0x00000004	6e-45
158	0xbaeaa946	-0.0017903231
159	0xba463dac	-0.00075622904
160	0x00000000	0.0
161	0x00000000	0.0
162	0x94fa51ab	-2.5275761e-26
163	0x00000004	6e-45
164	0x179729fa	9.768743e-25
165	0x937b2cbb	-3.1702708e-27
166	0x9471eb47	-1.2213791e-26
167	0x800058a4	-3.1798e-41
168	0x00000000	0.0
169	0x179699db	9.732361e-25
170	0x00000004	6e-45
171	0x17a82d7a	1.0868225e-24
172	0x83239705	-4.8074757e-37
173	0x162b2727	1.3825624e-25
174	0x94f0daf3	-2.4320167e-26
175	0x175ddf97	7.169116e-25
176	0x94fb97eb	-2.5404444e-26
177	0x948f4935	-1.4468185e-26
178	0x00000000	0.0
179	0x9320b512	-2.0284114e-27
180	0x178dbdd4	9.159831e-25
181	0x930b742e	-1.7601548e-27
182	0x171f7351	5.152122e-25
183	0x1680fa1d	2.083736e-25
184	0x00000000	0.0
185	0x178fb041	9.285651e-25
186	0x17a7a2ed	1.083325e-24
187	0x00000000	0.0
188	0x155ba044	4.4353125e-26
189	0x00000000	0.0
190	0x930295a8	-1.6482093e-27
191	0x17e2d656	1.4659014e-24
192	0x00000000	0.0
193	0x00000000	0.0
194	0x00000004	6e-45
195	0x00000000	0.0
196	0x00000004	6e-45
197	0x00000000	0.0
198	0x00000004	6e-45
199	0x00000000	0.0
200	0x00000000	0.0
201	0x00000004	6e-45
202	0x00000004	6e-45
203	0x00000004	6e-45
204	0x00000004	6e-45
205	0x00000004	6e-45
206	0x00000004	6e-45
207	0x00000000	0.0
208	0x00000004	6e-45
209	0x00000004	6e-45
210	0x00000000	0.0
211	0x00000004	6e-45
212	0x00000004	6e-45
213	0x00000000	0.0
214	0x00000004	6e-45
215	0x00000004	6e-45
216	0x00000000	0.0
217	0x00000004	6e-45
218	0x00000004	6e-45
219	0x00000000	0.0
220	0x00000004	6e-45
221	0x00000000	0.0
222	0x00000004	6e-45
223	0x00000004	6e-45
224	0x00000000	0.0
225	0xb8c96d38	-9.6047705e-05
226	0x3a015e6f	0.0004935031
227	0x39103f05	0.00013756387
228	0xb9833bca	-0.00025030813
229	0x38bced28	9.0087124e-05
230	0x3a8cf484	0.0010754024
231	0x3a2b0325	0.0006523601
232	0x805beee8	-8.442734e-39
233	0x3939a41c	0.0001770411
234	0xba925153	-0.0011163153
235	0x38101e55	3.4360524e-05
236	0x399a9ed5	0.00029491508
237	0x38977dba	7.2236595e-05
238	0xbabdf235	-0.0014491739
239	0xba8a7a2e	-0.0010564977
240	0x3962d589	0.00021632588
241	0x3a9eae63	0.0012106415
242	0x95c72e24	-8.044826e-26
243	0x3a00900e	0.00049042783
244	0xb8079c17	-3.2331878e-05
245	0xb6c2ac61	-5.801718e-06
246	0xb9840373	-0.00025179572
247	0xba9862a7	-0.001162608
248	0x391bd786	0.0001486224
249	0xba89159a	-0.0010458708
250	0xb7c246eb	-2.3159626e-05
251	0x00000004	6e-45
252	0xb8eb7c0b	-0.00011228778
253	0x00000000	0.0
254	0x3998e942	0.0002916549
255	0xb9523956	-0.0002004852

exp_avg_sq f4 [32, 32]
0	0x00000000	0.0
1	0x37837bab	1.5674004e-05
2	0x36cde73b	6.136395e-06
3	0x39e1df89	0.0004308189
4	0x390999ef	0.00013122683
5	0x384ac902	4.8347756e-05
6	0x36d7f6c5	6.436227e-06
7	0x38f6f798	0.00011776312
8	0x2dd7a485	2.4515731e-11
9	0x38ccc21a	9.763632e-05
10	0x3944e4c8	0.00018777244
11	0x380aca52	3.309019e-05
12	0x366258c2	3.3728288e-06
13	0x375a6456	1.3017174e-05
14	0x393dbd96	0.00018095071
15	0x39475b64	0.00019012165
16	0x36b508b1	5.395232e-06
17	0x38bfbb1b	9.142441e-05
18	0x351f4dfe	5.934561e-07
19	0x39286f38	0.00016063161
20	0x38a4b2d1	7.8534365e-05
21	0x390621b6	0.00012791794
22	0x36fa7407	7.464088e-06
23	0x38ca9999	9.6607204e-05
24	0x36d87450	6.450842e-06
25	0x38a1bf32	7.712691e-05
26	0x39886f3b	0.00026022815
27	0x2f5e3af6	2.021173e-10
28	0x3800576a	3.059899e-05
29	0x00000000	0.0
30	0x39368f68	0.00017410296
31	0x384f81e1	4.9473605e-05
32	0x00000000	0.0
33	0x00000000	0.0
34	0x3076fa10	8.984964e-10
35	0x00000000	0.0
36	0x325ce3bc	1.2857466e-08
37	0x00000000	0.0
38	0x2fe79a22	4.2128173e-10
39	0x2a4aa1f4	1.7997393e-13
40	0x00000000	0.0
41	0x32111956	8.445872e-09
42	0x332274d4	3.782482e-08
43	0x331ed893	3.6984215e-08
44	0x306a7a34	8.5302365e-10
45	0x30950591	1.0842759e-09
46	0x2d8a40ee	1.5717618e-11
47	0x31139871	2.1477968e-09
48	0x3186cbf8	3.923102e-09
49	0x2ed741ab	9.788733e-11
50	0x30f3dabb	1.7742744e-09
51	0x332003c3	3.7256324e-08
52	0x3281a35b	1.5091862e-08
53	0x2d9d39cf	1.7874506e-11
54	0x3251fee0	1.2223353e-08
55	0x2f425d21	1.7677283e-10
56	0x2f60e7a6	2.045498e-10
57	0x328cde3f	1.639921e-08
58	0x31516c3a	3.0475023e-09
59	0x00000000	0.0
60	0x308805c0	9.896937e-10
61	0x00000000	0.0
62	0x326fa367	1.3948784e-08
63	0x338424d6	6.1534294e-08
64	0x00000000	0.0
65	0x3683d49a	3.9288543e-06
66	0x368a3d0f	4.1198286e-06
67	0x38e9d910	0.00011150737
68	0x38610b14	5.3654498e-05
69	0x376d3d71	1.4140606e-05
70	0x36416fea	2.8824384e-06
71	0x3801113f	3.077206e-05
72	0x00000000	0.0
73	0x3816e376	3.5974626e-05
74	0x38cd2761	9.7824966e-05
75	0x377f64ab	1.5222623e-05
76	0x35a00332	1.1921859e-06
77	0x36c49bc8	5.8593905e-06
78	0x38935dcd	7.026978e-05
79	0x38c1034f	9.2035734e-05
80	0x36211b0d	2.4006615e-06
81	0x37e54bf8	2.7334303e-05
82	0x34cd8704	3.8282462e-07
83	0x3878e7b3	5.9343594e-05
84	0x37e7ebfc	2.7647235e-05
85	0x380f4eec	3.416736e-05
86	0x36a675ab	4.960884e-06
87	0x38254546	3.940358e-05
88	0x3612741e	2.1823284e-06
89	0x3826bc88	3.9753068e-05
90	0x38c37d00	9.321608e-05
91	0x2f123990	1.3299073e-10
92	0x3750119d	1.2401867e-05
93	0x2981205f	5.734366e-14
94	0x3880279f	6.1108956e-05
95	0x37c7496c	2.3756838e-05
96	0x00000000	0.0
97	0x350d097f	5.254041e-07
98	0x36551ce4	3.175629e-06
99	0x37c15dd1	2.305108e-05
100	0x371799fb	9.036153e-06
101	0x36d715de	6.410045e-06
102	0x35c597d3	1.472183e-06
103	0x372d7768	1.0339405e-05
104	0x2d3ecdb9	1.0845929e-11
105	0x3600dc02	1.9201548e-06
106	0x37ceb44e	2.4641075e-05
107	0x358ee760	1.0647163e-06
108	0x344c2961	1.9014034e-07
109	0x35e3c95e	1.6971424e-06
110	0x37d2d68b	2.5133855e-05
111	0x37dd02f4	2.6346628e-05
112	0x35ef9684	1.7850693e-06
113	0x373c00ae	1.12058315e-05
114	0x2f0e169a	1.2922854e-10
115	0x35e43a30	1.7004259e-06
116	0x3594c6da	1.1084733e-06
117	0x37184f96	9.078436e-06
118	0x3583446a	9.780172e-07
119	0x37237700	9.743264e-06
120	0x336970c1	5.435209e-08
121	0x37410c31	1.1506535e-05
122	0x37818835	1.5441425e-05
123	0x2edb8148	9.981932e-11
124	0x368ff7aa	4.290564e-06
125	0x2c31dacc	2.527467e-12
126	0x37032708	7.817296e-06
127	0x358e5d66	1.0607007e-06
128	0x00000000	0.0
129	0x3603e9f7	1.9656707e-06
130	0x362f60ae	2.6133307e-06
131	0x3804e590	3.168505e-05
132	0x384c50c4	4.871261e-05
133	0x364f3599	3.0876602e-06
134	0x362c472c	2.5671425e-06
135	0x36dc4b8b	6.5653053e-06
136	0x2c653b05	3.257562e-12
137	0x382549a6	3.9407656e-05
138	0x38e5719b	0.000109407316
139	0x37ad2d18	2.0644206e-05
140	0x35cfb881	1.54764e-06
141	0x36986236	4.5413863e-06
142	0x389001a0	6.866758e-05
143	0x38c08dbe	9.181675e-05
144	0x360bdd52	2.084144e-06
145	0x36c49576	5.8586547e-06
146	0x3514096a	5.5147996e-07
147	0x3887a9dd	6.468941e-05
148	0x38069241	3.20843e-05
149	0x374f88a3	1.2369975e-05
150	0x36d6fa79	6.406856e-06
151	0x3823f8f6	3.909409e-05
152	0x3630a466	2.6321736e-06
153	0x38452a01	4.700758e-05
154	0x389e8afe	7.5599164e-05
155	0x2f5b6e04	1.995702e-10
156	0x37817320	1.5431608e-05
157	0x28f42218	2.7104228e-14
158	0x38636b1c	5.422077e-05
159	0x380ffe8c	3.4330922e-05
160	0x00000000	0.0
161	0x00000000	0.0
162	0x3168b17a	3.3861327e-09
163	0x2eba4f51	8.47239e-11
164	0x324ae984	1.1811043e-08
165	0x2feda6bd	4.3228524e-10
166	0x301babbe	5.663273e-10
167	0x2df92198	2.8322941e-11
168	0x00000000	0.0
169	0x3222ba01	9.4719335e-09
170	0x314c3a48	2.9719036e-09
171	0x32849f31	1.5439214e-08
172	0x30db1b99	1.5942191e-09
173	0x310b388b	2.0259303e-09
174	0x306a6b87	8.528151e-10
175	0x320bf7b9	8.1471905e-09
176	0x318aad7d	4.036052e-09
177	0x30454eae	7.1779993e-10
178	0x00000000	0.0
179	0x300cda0e	5.124158e-10
180	0x320c0c35	8.151848e-09
181	0x2f303ca4	1.602865e-10
182	0x322ee2ec	1.0179729e-08
183	0x306466c3	8.309195e-10
184	0x00000000	0.0
185	0x32b97850	2.1591546e-08
186	0x3282e3f1	1.5237648e-08
187	0x00000000	0.0
188	0x30807d7a	9.348888e-10
189	0x00000000	0.0
190	0x2eb1179d	8.053223e-11
191	0x32d745cd	2.5061036e-08
192	0x00000000	0.0
193	0x00000000	0.0
194	0x2d77438c	1.4055323e-11
195	0x00000000	0.0
196	0x2d1ac76a	8.798165e-12
197	0x00000000	0.0
198	0x2c7e82fa	3.6168278e-12
199	0x00000000	0.0
200	0x00000000	0.0
201	0x2bc930a6	1.4295412e-12
202	0x2ee7abef	1.05352053e-10
203	0x2dd4e3e7	2.4202819e-11
204	0x2d1736b5	8.595504e-12
205	0x2e08bec9	3.109227e-11
206	0x296b8a91	5.230067e-14
207	0x00000000	0.0
208	0x2d1039cd	8.198287e-12
209	0x2a4350a5	1.7347458e-13
210	0x00000000	0.0
211	0x2ce92fb5	6.627555e-12
212	0x2a7de6e1	2.2551016e-13
213	0x00000000	0.0
214	0x2e583853	4.916274e-11
215	0x2b81764e	9.198837e-13
216	0x00000000	0.0
217	0x2ea195a8	7.3480166e-11
218	0x2c84d494	3.7752666e-12
219	0x00000000	0.0
220	0x2a964da9	2.669924e-13
221	0x00000000	0.0
222	0x2a4f4ff9	1.841304e-13
223	0x2de3ffe0	2.5920543e-11
224	0x00000000	0.0
225	0x33dcb777	1.02779204e-07
226	0x37553649	1.2708429e-05
227	0x36c711e7	5.9327463e-06
228	0x37604ab9	1.3368838e-05
229	0x371b3757	9.251605e-06
230	0x36f32126	7.2458233e-06
231	0x3724e02d	9.827357e-06
232	0x2e990a4a	6.959462e-11
233	0x36534392	3.1480781e-06
234	0x389bebb7	7.434881e-05
235	0x36928abe	4.367291e-06
236	0x35141aba	5.517319e-07
237	0x370023c5	7.637723e-06
238	0x389bc6ee	7.4280295e-05
239	0x3868a6ed	5.5468572e-05
240	0x370830e2	8.117613e-06
241	0x3783fb94	1.5733567e-05
242	0x3257bd4e	1.255769e-08
243	0x369760f4	4.5114375e-06
244	0x362f11a9	2.6087312e-06
245	0x36d86aba	6.4497262e-06
246	0x36c7bfd5	5.9529943e-06
247	0x37bd4a77	2.2565231e-05
248	0x33e6abde	1.0741472e-07
249	0x38229a07	3.876726e-05
250	0x37f5b0e5	2.9288649e-05
251	0x2fa39374	2.97543e-10
252	0x377b7395	1.4987677e-05
253	0x00000000	0.0
254	0x371c80c9	9.32831e-06
255	0x36951d8c	4.4439857e-06

exp_avg f4 [32]
0	0x3b98c6b8	0.004662361
1	0x38a31d94	7.777955e-05
2	0xbc13f025	-0.009029423
3	0x3948bb09	0.00019143162
4	0x39cb604d	0.00038790927
5	0x1856fa9d	2.778538e-24
6	0x00000004	6e-45
7	0xbb53d3d0	-0.0032322295
8	0xbabf9a74	-0.0014618174
9	0x380acddc	3.3093485e-05
10	0x3c04d38c	0.008107077
11	0xbb5c335b	-0.0033599946
12	0x3c92ea5b	0.017934015
13	0xba0d6112	-0.0005393188
14	0x3a8a14a6	0.0010534718
15	0x3bbbf07b	0.0057354546
16	0x3bb6bd73	0.0055767833
17	0xbb81c5a7	-0.0039603296
18	0xbc4cbb99	-0.012495899
19	0xbb9ed9ce	-0.0048477417
20	0x3b511bae	0.0031907368
21	0xbb4393fd	-0.0029842847
22	0xbbb20e91	-0.0054338654
23	0xbbea035c	-0.0071415137
24	0x36ad66d5	5.167773e-06
25	0x3b8e9502	0.004351259
26	0x3b53d6c1	0.0032324048
27	0xbb2d4fff	-0.0026445386
28	0x3c4e5352	0.012593107
29	0x3c388989	0.01126326
30	0xba90e399	-0.0011054158
31	0x3aa8faac	0.0012892089
