models/rl_coach_model_episode_50.pth (torch, 31377 bytes, 24 tensors)

network.0.weight f4 [32, 4]
000000 6a fb 18 be 85 a4 a1 be bb 2b c1 bc 13 26 22 3d
       -0.14939657 -0.3157083 -0.023580423 0.03958709
000010 58 0d 67 bd 5e d9 2c bf 69 83 a7 bd 97 04 03 be
       -0.05640921 -0.67519176 -0.081793614 -0.1279472
000020 84 09 77 bf 5f fa 76 3f 82 a7 86 bd 23 77 2d 3d
       -0.96498895 0.96475786 -0.06574918 0.042349946
000030 bb 53 2c 3e e8 7b 06 bf 3b 10 c0 3d 30 41 1b be
       0.16828816 -0.52532816 0.09378096 -0.15161586
000040 b9 7f 42 3f 20 f3 39 bf 62 4e 47 3d 84 5a 44 bd
       0.7597614 -0.72636604 0.048658736 -0.047937885
000050 48 91 3c bf 7e 2a 3d 3f 07 70 ae bd f4 97 5b 3d
       -0.7365918 0.7389296 -0.08517461 0.05361171
000060 ee b3 5d bf f2 cf 5d 3f e7 8a 9e bc e7 91 a7 3c
       -0.86602676 0.86645424 -0.019353343 0.020455314
000070 06 5c 2c bf 22 84 29 3f 66 a6 eb bd d4 1d 8a 3d
       -0.67327917 0.66217244 -0.11506347 0.067439705
000080 3b 66 e8 be 5f 8d c2 be 64 37 ff bd 1a 03 ba bd
       -0.45390496 -0.37998483 -0.12461737 -0.09082623
000090 f8 4a 6b 3f e4 e4 60 bf dd 1e 14 3e b1 c8 fb bb
       0.9191127 -0.8784926 0.14464898 -0.0076838364
0000a0 c6 2e c8 be 11 43 08 3f 6a e6 be be 2a 92 36 3e
       -0.39098185 0.53227335 -0.37285167 0.17829195
0000b0 49 14 4f 3f 16 a4 42 bf 07 3e 96 3d 6c 8e e2 bc
       0.8089033 -0.76031625 0.073360495 -0.027655803
0000c0 8c cb 06 3e b1 8f 54 bf c8 e8 94 be c4 af 70 be
       0.13163584 -0.83031756 -0.29083848 -0.2350455
0000d0 15 e7 44 bf d0 df 40 3f 87 64 ef bd 35 db 87 3d
       -0.76915103 0.7534151 -0.11689096 0.06633607
0000e0 0d 7e 3d bf 82 69 32 3f 3d 2f 80 bd 48 dc f0 3c
       -0.74020463 0.6969224 -0.0625901 0.029401913
0000f0 13 d7 8d 3e 28 c6 01 3f 70 42 9f 3c 61 fa 03 3e
       0.2770315 0.5069299 0.01944086 0.1288848
000100 a7 38 5d bf 56 ed 5b 3f aa f5 1b bd b7 d9 03 3d
       -0.8641457 0.8590902 -0.03807608 0.03219005
000110 9e 1c 5e bf fd 15 59 3f b4 43 0b be 0f 72 ad 3d
       -0.86762416 0.84799176 -0.13600045 0.084690206
000120 c9 4b 16 bf 60 c9 96 be 02 86 0f 3c 69 9b a2 3e
       -0.5870939 -0.29450512 0.008759977 0.31759194
000130 70 0b 79 3f 8b b5 79 bf 06 17 01 3d 50 e3 2f 3b
       0.9728308 -0.9754264 0.031516097 0.002683837
000140 3d 26 67 3f f5 20 59 bf a2 df ab bc 07 00 1a bd
       0.9029272 -0.84815913 -0.02098066 -0.037597682
000150 37 25 3a 3e b5 63 6a be e4 dc ee 3e 11 fd d0 bd
       0.18178259 -0.22889598 0.466529 -0.102045186
000160 a5 69 06 bf 6e 10 8a be f5 1b f7 3d 8e 44 35 3e
       -0.5250495 -0.2696566 0.12065879 0.17701933
000170 42 be ec be a6 e1 f7 3e 8f 1d 75 bd f8 6d 17 3d
       -0.46238905 0.48414344 -0.059842642 0.03697011
000180 24 39 7b 3f 14 89 6c bf c4 f6 b6 3d 57 9a c5 bc
       0.98134065 -0.92396665 0.089337856 -0.024121447
000190 f8 18 18 bf a6 78 1f 3f bd d1 a7 bd 94 e7 eb 3c
       -0.594131 0.6229347 -0.08194301 0.028796948
0001a0 55 7f 6c 3e 3d 1f 00 3f 9d 59 82 3d a0 11 65 3d
       0.23095448 0.50047666 0.063647486 0.05592501
0001b0 c2 60 a9 be 8b fd d7 be 15 52 3e be 75 a9 51 bd
       -0.33081633 -0.42185625 -0.18586 -0.051186997
0001c0 0a 61 ba be 19 0c c5 3d ce dc 18 be 01 fb ce 3d
       -0.3640216 0.09621448 -0.1492798 0.10106469
0001d0 0c b6 a3 be d0 98 15 bf d9 a6 61 be 12 23 d9 bd
       -0.31974828 -0.584363 -0.22036304 -0.10602392
0001e0 4c 4d 46 3f 03 bd 42 bf 3b 2c 4c 3d 96 92 99 bd
       0.77461696 -0.7606966 0.04984687 -0.07498662
0001f0 76 37 78 3f 21 d0 77 bf 8c 52 d8 3c 34 b2 22 39
       0.96959627 -0.96801955 0.026406549 0.0001551591

network.0.bias f4 [32]
000000 00 00 00 00 ed d5 35 be 6c 2b 09 be 8c 27 43 be
       0.0 -0.17757387 -0.1339547 -0.19058055
000010 10 7d f1 bd 65 d9 d5 bd ae ca fd bd e0 1a c9 bd
       -0.11791432 -0.10441855 -0.12392174 -0.09819579
000020 b8 67 be bd 2a 47 13 be 5d 05 7e be 63 c8 ef bd
       -0.092971265 -0.14382616 -0.24806733 -0.117081426
000030 e4 b8 23 be d1 d7 d5 bd d3 58 a1 bd 85 2a 33 bf
       -0.15988499 -0.10441554 -0.0787827 -0.69986755
000040 ba 39 01 be e3 a8 0c be 5f 0f 28 be 86 ac 0d be
       -0.12619677 -0.137363 -0.16412114 -0.13835344
000050 3f 8e 25 be 38 f9 f7 bd 46 40 8b bd f6 36 63 bd
       -0.16167544 -0.121080816 -0.067993686 -0.055472337
000060 a0 ce 26 be d2 1d b7 bd 2c 3c 1e bf 67 64 1f be
       -0.16289759 -0.08941235 -0.61810565 -0.15565644
000070 67 65 84 be b3 60 24 be 16 37 b6 bd 2d 0c 10 be
       -0.25858614 -0.16052513 -0.088972256 -0.14067145

network.3.weight f4 [32, 32]
000000 b8 a3 65 3e 06 58 35 3e 2f f6 40 c0 68 9e 75 3e
       0.22425735 0.1770936 -3.0150259 0.23986208
000010 8f 09 b6 be 01 83 89 bf c9 7b 16 c0 9a 75 27 bf
       -0.35554168 -1.0743104 -2.3513052 -0.6541382
000020 52 09 25 3e 58 2e e6 bf 2b d3 f5 be 9a 95 e4 be
       0.16116837 -1.7982893 -0.4801267 -0.44645387
000030 40 39 11 bf d1 22 99 bf f3 7e f8 be 84 4e 97 bf
       -0.5672798 -1.196375 -0.48534355 -1.1820836
000040 0a ac 33 c0 71 da ac bf b5 04 f6 be bc d4 e8 bf
       -2.8073754 -1.3504163 -0.48050466 -1.8189921
000050 a2 81 16 c0 ae d7 80 bd 75 f1 48 be 8a 47 c9 be
       -2.3516622 -0.06291138 -0.19623359 -0.39312392
000060 f3 40 56 c0 62 40 3d be 0a 20 6f bf f3 cd 3d 3e
       -3.3477142 -0.18481591 -0.9340826 0.18535595
000070 24 03 e2 ba c9 5f 02 bc 4d 1c 10 bd 74 c5 0b c0
       -0.0017243368 -0.007957407 -0.03518324 -2.1839266
000080 41 1c 8d bd 1f 4f ad 3e ec c7 37 c0 77 79 f2 3d
       -0.06890155 0.33849427 -2.8715773 0.11839574
000090 d2 de ad bf 2a 0a ae bf 97 d9 db bf d6 23 6f bf
       -1.3583624 -1.3596852 -1.7175778 -0.93414056
0000a0 4a 18 9a be 30 40 14 c0 94 e2 96 bc eb 4e 75 bf
       -0.30096656 -2.3164177 -0.018418588 -0.95823544
0000b0 01 3e 35 be 64 f5 ac bf 03 01 9c bf d3 7e ef be
       -0.17699434 -1.3512387 -1.2187809 -0.46776447
0000c0 22 27 e4 bf c5 e1 df bf 56 1f 09 3f bd f6 13 c0
       -1.7824442 -1.7490774 0.5356344 -2.3119347
0000d0 0d c1 12 c0 03 64 54 bd 18 d8 9b 3d 8d 5b f4 be
       -2.293033 -0.05185319 0.07609576 -0.47726098
0000e0 7e ce 1a c0 af fa fe be 23 f7 2f bf 7f 5f 82 bc
       -2.4188533 -0.4980063 -0.68736476 -0.015914677
0000f0 65 b1 a3 3b 7b 8a 2f bd 82 92 2e bf 4c 94 ee bf
       0.0049955123 -0.042856675 -0.68192303 -1.8639007
000100 0a 58 7b bd 1c ae 0d 3f dc 33 47 c0 dc 3f 82 3d
       -0.061363257 0.55343795 -3.1125402 0.063598365
000110 ed 68 d9 bf 38 2d 24 bf 9a 37 22 c0 cf 2b 30 bf
       -1.6985146 -0.641315 -2.5346437 -0.68816847
000120 8a 49 56 3e 8a a6 fe bf eb c0 75 3e f8 03 98 bf
       0.2092649 -1.9894574 0.23999374 -1.1876211
000130 76 83 a9 be 0a ad 6f bf b8 50 b2 bf f9 98 b3 3c
       -0.3310811 -0.9362341 -1.3930883 0.021923529
000140 a5 ac 31 c0 33 3c 8e bf 57 2d 51 3e a5 01 1f c0
       -2.7761624 -1.1112121 0.20427452 -2.4844754
000150 61 f8 18 c0 76 7b 45 3e 48 0a 66 be e7 5e b3 be
       -2.3901598 0.19285378 -0.2246486 -0.35033342
000160 3e 8d 3c c0 18 74 e8 be 39 72 b8 3d 76 9b 9d be
       -2.9461207 -0.45401073 0.09006161 -0.3078267
000170 e8 43 fd 3c d6 23 15 bd 7b d0 27 bf a5 dd 1c c0
       0.03091617 -0.03641113 -0.6555249 -2.451028
000180 d2 f8 91 be f0 c3 25 bf 7f bf 19 3f 38 0a 45 bd
       -0.28510147 -0.647521 0.60057825 -0.04810545
000190 a8 47 c9 be bb af a3 3e 95 15 17 3f 9a 08 f3 3e
       -0.39312482 0.3197001 0.59017307 0.474675
0001a0 06 f4 a8 3d ac 54 58 bf 9a ff fe 3c a5 f0 e7 be
       0.08249669 -0.845042 0.03112774 -0.45300785
0001b0 c9 ff 81 bf 76 52 2a 3f d5 d9 44 3f fd 22 bc bf
       -1.0156184 0.66532075 0.76894885 -1.4698178
0001c0 67 c5 73 3e 8d 13 09 3f 8b 72 54 3d e1 52 a2 bf
       0.23805772 0.5354546 0.05186705 -1.2681543
0001d0 6a 46 92 bf 10 95 37 bf 1d 9e d9 3b 3a 3e ff 3e
       -1.1427739 -0.71711826 0.006641163 0.49852163
0001e0 a7 90 0f be 9c 77 28 3f 47 2e aa bf 47 1c 30 be
       -0.14020024 0.6580751 -1.3295373 -0.17198287
0001f0 0e 42 8c 3d 2e 03 9f be 7a 12 3e be 3e 05 d8 bd
       0.068485364 -0.31057113 -0.18561736 -0.10547875
000200 7b 9b 9b be 38 6e 41 be c4 c0 52 c0 09 e7 5a bc
       -0.3039206 -0.18889701 -3.2930155 -0.013360747
000210 0c fe e8 be ba 33 f7 bf 84 c7 67 c0 c3 27 ae bf
       -0.45506322 -1.9312661 -3.6215525 -1.3605884
000220 ea 30 33 be 08 ce 02 c0 d1 5a 3f bf 0a 1a c6 be
       -0.17499128 -2.0438251 -0.7474795 -0.3869174
000230 ee 49 64 be 07 7d 05 c0 43 be ab be 7d 0b 81 bf
       -0.22293827 -2.085756 -0.33543596 -1.0081631
000240 57 d8 82 c0 ea f0 06 c0 4b bd e6 3e c5 62 d7 bf
       -4.0889087 -2.1084542 0.45066294 -1.6827017
000250 4b 25 22 c0 64 1e 6d bd 7c ea c6 3d c8 44 af be
       -2.5335262 -0.05789031 0.09712693 -0.34232163
000260 4c c2 47 c0 89 89 e0 bc 8c 50 9a bf f3 ee c0 bd
       -3.121234 -0.027409332 -1.2055831 -0.09420576
000270 20 c2 c7 be 2f 78 5c bd 50 60 e8 bd d8 6b e6 bf
       -0.39015293 -0.053825554 -0.11346495 -1.8001661
000280 2a 80 56 bd f6 6c 1a bd 3d c7 08 3f a5 7d 51 3e
       -0.05236832 -0.03770157 0.53429013 0.20458086
000290 03 28 dd 3f 12 cc 47 3f 28 d9 19 be a5 53 b7 3e
       1.7277836 0.7804576 -0.15024245 0.35806003
0002a0 62 c2 90 3b 15 07 84 3f 39 71 87 3c 3b 30 bf 3f
       0.0044177035 1.0314661 0.016533481 1.4936594
0002b0 7c da 13 bf a0 6a e2 3b 3d 13 a8 3e 97 00 f7 bf
       -0.57755256 0.0069096833 0.32827178 -1.9297055
0002c0 e6 cc 2d 3f 99 6a 09 3f c0 98 4d bc b5 df b4 bf
       0.67890775 0.5367828 -0.0125486255 -1.413077
0002d0 e7 ba 5d 3f ef 39 5c 3d 60 d8 33 bd 54 09 c2 bd
       0.86613315 0.053766187 -0.043907523 -0.094744354
0002e0 eb b7 01 40 4d e4 a4 3d fc 07 c7 bf 97 d8 b2 3d
       2.0268505 0.080513574 -1.5549312 0.087327175
0002f0 09 5d 12 bd 65 78 e8 be e4 9c 4e 3f 22 ce 9b 3f
       -0.035733256 -0.45404354 0.80708146 1.2172282
000300 2b d0 9b 3e 40 ad ec 3c 3c 51 19 3f 3b ac 92 be
       0.30432257 0.028891206 0.5988958 -0.28647026
000310 ac f5 98 3f 65 68 09 3f 53 48 35 3f 82 f2 80 3e
       1.1949973 0.5367492 0.70813483 0.2518502
000320 33 25 22 3e fa 93 8c 3f 68 68 06 3d 6c bb b1 3f
       0.15834503 1.0982659 0.032814413 1.3885322
000330 7c 33 bc 3d 40 9e 2c 3f b6 1b fc 3e e8 3d a5 bf
       0.09189507 0.6742897 0.49239892 -1.2909517
000340 cc 80 76 3e e1 60 fa 3e 95 df 71 bc 03 87 a9 3f
       0.2407257 0.48902038 -0.014762779 1.3244327
000350 aa de c3 3f 6a 3b 06 3e 29 16 04 3d f0 8b 23 be
       1.5302327 0.13108602 0.032247696 -0.1597135
000360 1e 7a e3 3f ee 25 a4 3e 9a 8c 99 bf a6 13 ec 3c
       1.7771642 0.32060188 -1.1996033 0.028817963
000370 a2 b0 5c be 77 d4 87 be 24 46 21 3f 2c 0e c2 3f
       -0.21551755 -0.26529285 0.6299765 1.5160575
000380 f4 9c cf bd e8 00 f0 be 38 cc 78 be 40 cd a5 be
       -0.10137358 -0.4687569 -0.24296653 -0.32383156
000390 9b 20 10 bf 90 ff e3 3e 7b 03 97 3e d4 cf 4f 3e
       -0.5629975 0.44530916 0.29494843 0.20294124
0003a0 6e db 3a be 68 97 42 bf b8 65 63 3e c4 64 e6 be
       -0.18247768 -0.7601228 0.22206771 -0.44998753
0003b0 db 5b 52 bf f7 3b e7 3e 19 82 25 3f cd bf b5 bf
       -0.8217141 0.45162937 0.6465164 -1.4199158
0003c0 e6 f7 08 3c 8a e2 b9 bb 01 da c8 bb fb 6a 8e bf
       0.008359885 -0.0056727575 -0.0061295037 -1.1126398
0003d0 4b b4 7f bf 84 0c e4 be 52 0e c7 bd 60 29 4e 3f
       -0.9988448 -0.445408 -0.09719528 0.80531883
0003e0 4b 3b ac be 8a 84 29 3f 50 54 9a bf a7 9f 75 3e
       -0.33638987 0.66217864 -1.205698 0.23986684
0003f0 e0 23 34 3d 17 f7 4b be 3a d5 3b bf 32 63 50 bc
       0.043979526 -0.19918476 -0.7337223 -0.0127189625

network.3.bias f4 [32]
000000 32 ba 8b 3e d2 4e b2 3e cb b5 df 3e 68 c2 a0 ba
       0.27290493 0.3482576 0.43693385 -0.0012264969
000010 1f 29 8c 3e a8 ac 1b 3b 7b e1 e9 3b 22 74 ac 3a
       0.27375123 0.0023754034 0.007137475 0.0013157169
000020 7e c4 b1 3e 9f 1e c1 3b 73 23 9d 3e 5f 65 9e 3e
       0.34720224 0.005893543 0.30691108 0.30936715
000030 f1 bd 8f 3e b9 7a b5 3e 3d 2f 31 3b 1c 7f b8 3e
       0.280746 0.35445192 0.0027036213 0.36034477
000040 52 57 87 3e 7e 12 80 3e 05 4d c6 3e 8b 7b ee 3e
       0.26433808 0.25014108 0.38730636 0.4657863
000050 20 8b 19 be cd 82 9a ba 79 b2 58 ba b0 ea b9 3e
       -0.14994478 -0.0011788249 -0.00082663406 0.36311865
000060 0f f8 ac bb 6d d6 57 3e 95 6a ac 3e 42 da 31 3b
       -0.0052785943 0.2107789 0.33675066 0.0027138148
000070 10 f5 7d 3e d2 f0 93 3e a9 a5 03 3f c3 27 fc 3a
       0.24800515 0.2889467 0.5142465 0.0019237924

network.6.weight f4 [2, 32]
000000 da f1 a3 3f 58 48 66 3f ff 77 4c 3f c3 05 4d bf
       1.2808182 0.8995414 0.798706 -0.80086917
000010 76 15 a4 3f d6 93 14 c0 b0 9a b8 bf 10 89 97 be
       1.2819049 -2.3215232 -1.4422207 -0.29596758
000020 33 40 79 3f bf 4b 50 c0 84 60 8f 3f 15 f1 86 3f
       0.97363585 -3.2546232 1.1201329 1.0542322
000030 0c 39 ae 3f c3 dc 6d 3f fe 1e 88 bf cc 55 76 3f
       1.3611159 0.9291498 -1.0634458 0.96224666
000040 f5 a4 bc 3f 9e fe c5 3f d6 d8 5c 3f 89 e8 49 3f
       1.4737841 1.5468328 0.86268365 0.78870445
000050 3b f1 38 3f cb 55 8a bf ea fa 87 bf 2a ef 6e 3f
       0.7224309 -1.0807432 -1.0623448 0.93333685
000060 e3 86 eb bf e5 7d d8 3f db 23 8c 3f ea a5 4b bf
       -1.8400539 1.691342 1.0948442 -0.7955004
000070 9d a7 b9 3f 89 e8 95 3f 59 cc 28 3f 0d 0f 38 bf
       1.4504277 1.1711589 0.6593681 -0.71897966
000080 c7 91 c3 3f 36 8a 7c 3f ac b2 69 3f ba b2 52 bf
       1.5278863 0.98648393 0.91288257 -0.82303965
000090 6e e5 c4 3f ff 56 87 bf 46 7d 69 bf 6b 37 dd bf
       1.5382516 -1.0573424 -0.9120678 -1.7282537
0000a0 3c 74 8e 3f c6 af d4 bf fe 8a a2 3f f9 e6 a6 3f
       1.1129222 -1.6616142 1.2698667 1.3039237
0000b0 51 5f b8 3f 2b 99 84 3f 71 93 76 bf 86 71 8a 3f
       1.4404088 1.0359243 -0.9631873 1.0815895
0000c0 38 60 d0 3f 9e 65 8b 3f 93 2b 7b 3f 15 d6 58 3f
       1.6279364 1.0890386 0.98113364 0.84701663
0000d0 7b 22 de bf cf c4 46 bf 1e 57 76 bf 9c 08 98 3f
       -1.7354273 -0.77644056 -0.9622668 1.1877627
0000e0 e2 d4 5c bf 41 17 ec 3f dc 2e 95 3f 04 a2 81 bf
       -0.86262333 1.8444597 1.1654925 -1.0127568
0000f0 c6 c2 c4 3f 53 e5 ac 3f d2 aa 45 3f c3 00 9a bf
       1.537194 1.3507484 0.77213776 -1.2031482

network.6.bias f4 [2]
000000 76 19 46 41 5e 38 39 41
       12.381216 11.5762615

network.0.weight f4 [32, 4]
000000 6a fb 18 be 85 a4 a1 be bb 2b c1 bc 13 26 22 3d
       -0.14939657 -0.3157083 -0.023580423 0.03958709
000010 58 0d 67 bd 5e d9 2c bf 69 83 a7 bd 97 04 03 be
       -0.05640921 -0.67519176 -0.081793614 -0.1279472
000020 71 cd 78 bf d5 36 75 3f fa 0f 80 bd 0b 34 13 3d
       -0.9718848 0.9578679 -0.06253047 0.035938304
000030 bb 53 2c 3e e8 7b 06 bf 3b 10 c0 3d 30 41 1b be
       0.16828816 -0.52532816 0.09378096 -0.15161586
000040 c2 99 43 3f 47 d9 39 bf 20 54 68 3d 88 a2 5c bd
       0.7640649 -0.72597164 0.056720853 -0.05386594
000050 32 7e 3c bf 4e c1 3c 3f 04 e7 96 bd 37 f9 43 3d
       -0.7363006 0.7373246 -0.073682815 0.04784509
000060 79 65 5d bf 61 ed 5d 3f 9e ae 45 bc 2f 5a 70 3c
       -0.8648296 0.86690336 -0.012065558 0.014669939
000070 cd f4 2a bf fd 9f 2a 3f 5f 06 d5 bd ca 1b 82 3d
       -0.66779786 0.6665037 -0.10401606 0.063529566
000080 3b 66 e8 be 5f 8d c2 be 64 37 ff bd 1a 03 ba bd
       -0.45390496 -0.37998483 -0.12461737 -0.09082623
000090 01 b5 6b 3f c7 fb 5f bf 7f ed 09 3e 13 fb 2f bc
       0.92073065 -0.87493557 0.13469504 -0.010741013
0000a0 b7 2d cd be a2 ed 03 3f dc 28 c6 be 17 4f 1f 3e
       -0.4007394 0.51534474 -0.38703048 0.15557514
0000b0 b3 45 4e 3f 4f e0 43 bf 7f 3c 8d 3d 48 b8 0f bd
       0.805751 -0.7651414 0.06896304 -0.035087854
0000c0 9e c9 09 3e 96 56 53 bf 72 fd 96 be 15 ae 6e be
       0.13455817 -0.82553995 -0.29490238 -0.23308595
0000d0 52 45 45 bf fd 3c 40 3f 08 7f e2 bd 65 63 87 3d
       -0.770589 0.7509306 -0.110593855 0.06610755
0000e0 be a4 3a bf 10 63 33 3f 07 84 62 bd 9f d9 06 3d
       -0.72907627 0.7007303 -0.055301692 0.032922383
0000f0 36 fc 89 3e 74 27 00 3f 2b 67 18 3d 17 0f 01 3e
       0.26950234 0.500602 0.037207764 0.12603413
000100 35 37 5b bf 2d 57 5d 3f 57 0c 0e bd 81 47 e2 3c
       -0.85631114 0.86461145 -0.034679737 0.027621986
000110 d8 d4 5c bf 7e 07 59 3f e8 97 0a be 22 3f a7 3d
       -0.86262274 0.8477706 -0.1353451 0.081663385
000120 c9 4b 16 bf 60 c9 96 be 02 86 0f 3c 69 9b a2 3e
       -0.5870939 -0.29450512 0.008759977 0.31759194
000130 ad 0c 7a 3f a6 4c 77 bf ef 56 dc 3c 8c da fe 3a
       0.9767559 -0.9660133 0.026896922 0.0019443794
000140 1e e5 67 3f b6 40 57 bf 90 15 53 bc 68 fe 80 bc
       0.9058398 -0.84083116 -0.012883559 -0.01574631
000150 2e 3c 38 3e 87 3c 6d be 8b 42 ed 3e 83 ad 99 bd
       0.17991707 -0.2316762 0.4633983 -0.07503798
000160 a5 69 06 bf 6e 10 8a be f5 1b f7 3d 8e 44 35 3e
       -0.5250495 -0.2696566 0.12065879 0.17701933
000170 29 0e e9 be 4a f8 f8 3e 3a ac 6c bd b7 b4 cf 3c
       -0.45518616 0.4862693 -0.057781436 0.025354726
000180 06 17 7c 3f e8 09 6b bf 7f 43 92 3d a4 62 08 bd
       0.9847263 -0.9181199 0.0714178 -0.033297196
000190 7f 4d 14 bf fa 2e 21 3f 5f 35 a1 bd 2b 38 11 3d
       -0.5793075 0.62962306 -0.07871508 0.035453957
0001a0 e5 6f 6c 3e 63 1e 01 3f e7 1a a5 3d 5a c2 8d 3d
       0.2308956 0.5043699 0.08061772 0.06921835
0001b0 c2 60 a9 be 8b fd d7 be 15 52 3e be 75 a9 51 bd
       -0.33081633 -0.42185625 -0.18586 -0.051186997
0001c0 0a 61 ba be 19 0c c5 3d ce dc 18 be 01 fb ce 3d
       -0.3640216 0.09621448 -0.1492798 0.10106469
0001d0 0c b6 a3 be d0 98 15 bf d9 a6 61 be 12 23 d9 bd
       -0.31974828 -0.584363 -0.22036304 -0.10602392
0001e0 03 bf 46 3f 98 16 42 bf 60 ba 63 3d 7a 21 82 bd
       0.7763521 -0.75815725 0.055597663 -0.063540414
0001f0 b7 16 78 3f 61 3c 77 bf e0 e7 45 3c 21 f5 99 3b
       0.9690966 -0.96576506 0.012079209 0.004698411

network.0.bias f4 [32]
000000 00 00 00 00 ed d5 35 be b5 4b 0f be 8c 27 43 be
       0.0 -0.17757387 -0.13993724 -0.19058055
000010 94 3d e0 bd b1 ae e2 bd e4 4e fd bd 83 95 cb bd
       -0.10949245 -0.11068476 -0.12368563 -0.099406265
000020 b8 67 be bd 59 2f 14 be 98 d8 81 be f4 b4 f0 bd
       -0.092971265 -0.14471187 -0.2536056 -0.11753264
000030 c8 d4 23 be a2 71 da bd ba b1 a2 bd 05 84 34 bf
       -0.15999138 -0.10666205 -0.07944055 -0.70513946
000040 12 75 03 be e8 7b 13 be 5f 0f 28 be 5d 17 0f be
       -0.12837628 -0.14402735 -0.16412114 -0.13973756
000050 bb 03 2b be 93 8b 03 be 46 40 8b bd 1c 1f 6b bd
       -0.16700642 -0.12846212 -0.067993686 -0.057402715
000060 82 37 29 be ce af b9 bd 1b f1 1c bf 67 64 1f be
       -0.16525081 -0.09066735 -0.613054 -0.15565644
000070 67 65 84 be b3 60 24 be dd 5f aa bd 90 7b 10 be
       -0.25858614 -0.16052513 -0.08319066 -0.14109635

network.3.weight f4 [32, 32]
000000 b8 a3 65 3e 06 58 35 3e 72 b1 40 c0 68 9e 75 3e
       0.22425735 0.1770936 -3.0108304 0.23986208
000010 52 1b c6 be 83 a7 88 bf 32 24 17 c0 08 7d 2a bf
       -0.3869272 -1.067612 -2.3615842 -0.6659703
000020 52 09 25 3e 7c 93 e3 bf 4a e6 f1 be 79 c5 f5 be
       0.16116837 -1.7779384 -0.4724601 -0.48002222
000030 4b 21 0f bf b2 ce 99 bf c3 b6 03 bf c6 ef 96 bf
       -0.55910176 -1.2016203 -0.5145075 -1.1791923
000040 ff 4d 33 c0 88 c8 ae bf b5 04 f6 be 2d a7 e4 bf
       -2.8016355 -1.3654947 -0.48050466 -1.7863518
000050 0f 87 15 c0 1c 3e 5e bd 75 f1 48 be 7c f7 cc be
       -2.3363683 -0.05425845 -0.19623359 -0.40032566
000060 1a b5 55 c0 ef 5a 4a be 14 19 6c bf f3 cd 3d 3e
       -3.3391786 -0.19761251 -0.92225766 0.18535595
000070 24 03 e2 ba c9 5f 02 bc 70 14 04 bd 75 77 0a c0
       -0.0017243368 -0.007957407 -0.032246053 -2.163541
000080 41 1c 8d bd 1f 4f ad 3e 04 2d 39 c0 77 79 f2 3d
       -0.06890155 0.33849427 -2.8933725 0.11839574
000090 ac a7 b1 bf 47 25 b1 bf 5b 57 df bf 1d 1d 7f bf
       -1.3879294 -1.3839501 -1.7448534 -0.996538
0000a0 4a 18 9a be 8d 6d 14 c0 1c 2c 0c bd 9e 02 80 bf
       -0.30096656 -2.3191864 -0.034221753 -1.0000799
0000b0 f8 00 30 be 73 ab af bf 24 c1 9f bf 9f b9 f3 be
       -0.1718787 -1.3724197 -1.2480817 -0.47602555
0000c0 3e 35 e6 bf 63 6e e3 bf 56 1f 09 3f 30 24 12 c0
       -1.7984998 -1.7768062 0.5356344 -2.2834587
0000d0 bb c2 12 c0 52 27 4d bd 18 d8 9b 3d b8 53 01 bf
       -2.2931354 -0.050086327 0.07609576 -0.5051837
0000e0 bf 56 1a c0 7f c0 07 bf 4e d3 34 bf 7f 5f 82 bc
       -2.4115446 -0.530281 -0.70634925 -0.015914677
0000f0 65 b1 a3 3b 7b 8a 2f bd 06 e7 2e bf 30 70 ec bf
       0.0049955123 -0.042856675 -0.68321264 -1.8471737
000100 0a 58 7b bd 1c ae 0d 3f 90 f5 45 c0 dc 3f 82 3d
       -0.061363257 0.55343795 -3.093113 0.063598365
000110 73 ba dc bf e6 86 1e bf 35 7d 22 c0 6f b3 30 bf
       -1.72444 -0.6192459 -2.538892 -0.69023794
000120 8a 49 56 3e 2d 8c fa bf 97 ff 65 3e 8f ea 9b bf
       0.2092649 -1.9574028 0.22460781 -1.2180957
000130 ce a5 9f be 43 a2 69 bf 8d a0 b1 bf 0e 8b 4c 3c
       -0.31181186 -0.91263217 -1.3877121 0.012484325
000140 7e 99 31 c0 dd bb 8c bf 57 2d 51 3e 80 17 1c c0
       -2.7749934 -1.0994831 0.20427452 -2.4389343
000150 41 87 17 c0 08 a3 4b 3e 48 0a 66 be dc 58 b6 be
       -2.3676302 0.1988641 -0.2246486 -0.3561467
000160 f0 f2 3b c0 49 2d eb be 9e 34 ad 3d 76 9b 9d be
       -2.9367027 -0.45932987 0.084573016 -0.3078267
000170 e8 43 fd 3c d6 23 15 bd 54 03 26 bf 08 a5 1a c0
       0.03091617 -0.03641113 -0.6484883 -2.4163227
000180 d2 f8 91 be f0 c3 25 bf 79 50 17 3f 38 0a 45 bd
       -0.28510147 -0.647521 0.59107167 -0.04810545
000190 a8 47 c9 be d2 59 a0 3e 29 a2 15 3f d3 a0 f3 3e
       -0.39312482 0.31318527 0.5845056 0.47583637
0001a0 06 f4 a8 3d ac 54 58 bf bd d9 2b 3c a5 f0 e7 be
       0.08249669 -0.845042 0.010488925 -0.45300785
0001b0 c9 ff 81 bf 42 32 29 3f c9 f4 41 3f c8 c0 ba bf
       -1.0156184 0.6609231 0.7576414 -1.4590082
0001c0 fd 99 72 3e bb 8f 04 3f 8b 72 54 3d 9f da a2 bf
       0.23691554 0.51781815 0.05186705 -1.2722968
0001d0 6a 46 92 bf 69 97 35 bf 1d 9e d9 3b ce 19 fb 3e
       -1.1427739 -0.7093416 0.006641163 0.49043125
0001e0 a7 90 0f be 02 da 25 3f 1d 37 a8 bf 47 1c 30 be
       -0.14020024 0.6478578 -1.3141819 -0.17198287
0001f0 0e 42 8c 3d 2e 03 9f be 7e e8 3a be 3e 05 d8 bd
       0.068485364 -0.31057113 -0.18252751 -0.10547875
000200 7b 9b 9b be 38 6e 41 be dd 95 52 c0 09 e7 5a bc
       -0.3039206 -0.18889701 -3.290397 -0.013360747
000210 3b 91 f5 be b9 ad f8 bf b4 0e 67 c0 ab 85 b2 bf
       -0.47962365 -1.9428016 -3.6102724 -1.3947042
000220 ea 30 33 be dc 6f 01 c0 eb 39 44 bf 04 bf d7 be
       -0.17499128 -2.0224524 -0.76650876 -0.4213792
000230 1c 69 53 be 8c 34 07 c0 06 28 b5 be c1 95 80 bf
       -0.20645565 -2.1125822 -0.35382098 -1.0045701
000240 c1 44 83 c0 42 76 08 c0 4b bd e6 3e a3 41 d4 bf
       -4.102143 -2.132218 0.45066294 -1.6582531
000250 75 a5 21 c0 ae 47 4e bd 7c ea c6 3d 8e 42 b6 be
       -2.5257237 -0.050361328 0.09712693 -0.35597652
000260 70 16 47 c0 ae be 35 bd 3f 8e 9a bf f3 ee c0 bd
       -3.1107445 -0.0443713 -1.207466 -0.09420576
000270 20 c2 c7 be 2f 78 5c bd fb 01 dc bd 4e 2e e4 bf
       -0.39015293 -0.053825554 -0.10742565 -1.7826631
000280 2a 80 56 bd f6 6c 1a bd a5 46 0a 3f a5 7d 51 3e
       -0.05236832 -0.03770157 0.54014045 0.20458086
000290 6f 34 de 3f 7b 12 48 3f 53 80 16 be 1d cf b8 3e
       1.7359751 0.781532 -0.1469739 0.36095515
0002a0 62 c2 90 3b 8f 94 84 3f 3b 0b 59 3c 91 04 bf 3f
       0.0044177035 1.0357836 0.013247306 1.4923269
0002b0 98 a0 16 bf 04 7d 08 3c 2b d6 a5 3e 37 ff f7 bf
       -0.58838797 0.008330587 0.3238996 -1.937476
0002c0 49 58 30 3f 6d 40 06 3f c0 98 4d bc ce 53 b4 bf
       0.6888471 0.52442056 -0.0125486255 -1.4088075
0002d0 24 a8 5e 3f dc 45 11 3d 60 d8 33 bd c3 de c7 bd
       0.8697531 0.035467014 -0.043907523 -0.09759285
0002e0 69 e6 01 40 a3 7b 89 3d f9 42 ca bf 97 d8 b2 3d
       2.0296881 0.06713035 -1.5801688 0.087327175
0002f0 09 5d 12 bd 65 78 e8 be f4 06 4c 3f a7 a0 9b 3f
       -0.035733256 -0.45404354 0.7969811 1.2158402
000300 2b d0 9b 3e 40 ad ec 3c 3c d6 17 3f 3b ac 92 be
       0.30432257 0.028891206 0.5931127 -0.28647026
000310 7b da 9a 3f a7 0c 08 3f 3c 3f 34 3f 1f 41 7e 3e
       1.2097925 0.53144306 0.7040899 0.24829529
000320 33 25 22 3e 16 ee 8c 3f 70 17 d6 3c 5e 16 b2 3f
       0.15834503 1.1010158 0.026134223 1.3913076
000330 20 d8 7f 3d 5a b5 2b 3f d2 b5 f9 3e 66 3c a7 bf
       0.062461972 0.67073596 0.4877153 -1.3065307
000340 c8 0b 74 3e 8c 6f f1 3e 95 df 71 bc d6 18 aa 3f
       0.23832619 0.47155416 -0.014762779 1.3288829
000350 3d 59 c4 3f d1 0a d7 3d 29 16 04 3d 9b e4 2b be
       1.5339733 0.1050011 0.032247696 -0.16786425
000360 04 0a e4 3f ff 19 9e 3e 4d a8 9c bf a6 13 ec 3c
       1.7815557 0.30879208 -1.2238861 0.028817963
000370 a2 b0 5c be 77 d4 87 be 81 a3 1f 3f f4 f3 c1 3f
       -0.21551755 -0.26529285 0.6235886 1.5152574
000380 f4 9c cf bd e8 00 f0 be e3 4d 83 be 40 cd a5 be
       -0.10137358 -0.4687569 -0.2564536 -0.32383156
000390 5d 0c 11 bf 7c d0 db 3e be 00 8f 3e d3 b5 43 3e
       -0.5665949 0.42932498 0.27930254 0.19112329
0003a0 6e db 3a be 12 cd 42 bf 77 e5 4b 3e c4 64 e6 be
       -0.18247768 -0.7609416 0.19911753 -0.44998753
0003b0 eb d7 4e bf da bc de 3e 60 29 21 3f 14 2a b5 bf
       -0.80798215 0.43503457 0.6295376 -1.4153466
0003c0 c2 f1 46 bc c0 ee 1e bd 01 da c8 bb 63 4b 8e bf
       -0.0121426005 -0.03880191 -0.0061295037 -1.1116756
0003d0 f2 1c 80 bf 32 95 e0 be 52 0e c7 bd da e8 48 3f
       -1.0008833 -0.43863827 -0.09719528 0.78480303
0003e0 4b 3b ac be 5b 64 25 3f 31 18 9b bf a7 9f 75 3e
       -0.33638987 0.64606255 -1.2116758 0.23986684
0003f0 e0 23 34 3d 17 f7 4b be 73 a2 3b bf c3 05 9f bc
       0.043979526 -0.19918476 -0.7329475 -0.019411927

network.3.bias f4 [32]
000000 5c 21 8f 3e 9d bc af 3e ab b1 dd 3e dd 33 28 bb
       0.2795514 0.34323588 0.43299612 -0.0025665679
000010 22 08 8e 3e d9 d4 c6 ba c8 26 89 3b e8 fa 07 3b
       0.2774058 -0.0015169635 0.0041855313 0.0020748917
000020 be a2 b5 3e b3 a0 43 bb a6 25 a3 3e f5 03 98 3e
       0.35475725 -0.0029850423 0.3186466 0.2969052
000030 30 8d 8c 3e 44 a7 bd 3e 2a 2d a2 ba 3d 95 ba 3e
       0.27451468 0.37041676 -0.0012373079 0.36441985
000040 49 69 84 3e 69 02 81 3e 68 a4 c5 3e 1e 06 ec 3e
       0.25861576 0.2519715 0.38601995 0.46098417
000050 81 5d 1b be e8 c0 a6 3b ea bd 1c 3c 2f 55 b5 3e
       -0.15172388 0.005088914 0.009566763 0.35416552
000060 90 b4 4a bb 70 6a 59 3e 0e c3 ad 3e ec 92 16 3b
       -0.0030930378 0.21232009 0.33937877 0.0022975756
000070 12 3f 81 3e 5e 50 97 3e f2 4a 06 3f 7b 2c 39 3b
       0.2524343 0.29553503 0.5245811 0.0028255272

network.6.weight f4 [2, 32]
000000 a4 5d a3 3f fd 97 65 3f f0 f7 48 3f b9 c3 51 bf
       1.2762952 0.8968504 0.7850332 -0.81939274
000010 31 95 a3 3f b5 a9 15 c0 86 19 ba bf 44 68 9b be
       1.2779905 -2.338483 -1.4539039 -0.30352986
000020 03 97 78 3f a1 e8 4f c0 51 85 8f 3f f8 f8 85 3f
       0.97105426 -3.2485735 1.121256 1.0466604
000030 67 51 ad 3f 2c a2 6d 3f 16 6d 8a bf c7 57 74 3f
       1.3540467 0.9282558 -1.081454 0.9544644
000040 fb 56 bc 3f 72 7d c6 3f eb b3 5b 3f 44 21 46 3f
       1.4714044 1.5507033 0.8582141 0.7739451
000050 46 b0 3c 3f c3 0c 8e bf 34 8e 8a bf a4 1d 6d 3f
       0.7370647 -1.1097645 -1.0824647 0.92623353
000060 c1 0d ee bf cd f5 d8 3f e5 72 8c 3f 8f e4 52 bf
       -1.8597947 1.6950012 1.0972563 -0.8238
000070 14 5a b9 3f 4b 68 97 3f 3f 2d 26 3f ab 54 3a bf
       1.4480615 1.1828703 0.6491279 -0.72785443
000080 9e fb c4 3f 04 8c 7d 3f 5d 7b 6a 3f db 7a 4e bf
       1.5389287 0.9904177 0.9159449 -0.8065621
000090 20 2b c6 3f dd 72 85 bf 6d c3 66 bf 45 d1 da bf
       1.5481911 -1.0425678 -0.90141946 -1.7095114
0000a0 1e fb 8f 3f 1e a6 d4 bf 33 b0 a4 3f 94 4a a6 3f
       1.124851 -1.6613195 1.2866272 1.299151
0000b0 a0 62 b8 3f 52 42 87 3f 61 2c 73 bf 73 6f 8c 3f
       1.4405098 1.0567114 -0.9498959 1.0971512
0000c0 44 fa cf 3f c7 83 8a 3f 8a d6 7b 3f 7f ea 59 3f
       1.624825 1.0821465 0.98374236 0.8512344
0000d0 70 69 dd bf cc a7 43 bf 39 a7 72 bf f4 11 98 3f
       -1.7297802 -0.7642791 -0.9478641 1.1880479
0000e0 77 ce 57 bf 6f 74 ec 3f ce a1 95 3f 77 12 7f bf
       -0.84299415 1.8473033 1.1690004 -0.9963755
0000f0 2e a7 c5 3f f3 3b ad 3f c3 bb 49 3f 2a 45 98 bf
       1.5441644 1.353392 0.78802127 -1.1896107

network.6.bias f4 [2]
000000 07 42 46 41 8f 3a 39 41
       12.39112 11.576797

exp_avg f4 [32, 4]
000000 00 00 00 00 00 00 00 00 00 00 00 00 00 00 00 00
       0.0 0.0 0.0 0.0
000010 04 00 00 00 04 00 00 00 04 00 00 80 04 00 00 80
       6e-45 6e-45 -6e-45 -6e-45
000020 47 c0 ac bb ad a4 59 bc 09 2b a9 3c 5f 7b 25 bd
       -0.0052719447 -0.013283891 0.020650404 -0.04040086
000030 04 00 00 00 04 00 00 00 04 00 00 80 04 00 00 80
       6e-45 6e-45 -6e-45 -6e-45
000040 e0 40 ba bc e1 1b 4b bc 3b fb 78 bc ab 8b c0 bb
       -0.022736013 -0.012396784 -0.015196617 -0.0058760247
000050 0e b5 ba bc 0b 70 21 bd b5 68 bd 3c 69 4e 09 bd
       -0.022791412 -0.039413493 0.023121217 -0.033522043
000060 c9 96 28 bb f4 fa 0f bc ba d9 17 3d b2 97 a9 bc
       -0.002572464 -0.008787859 0.037072875 -0.020702217
000070 0d 47 99 bc 41 70 06 bd fa 84 43 3c 31 c6 a4 bc
       -0.018710637 -0.032821897 0.01193356 -0.020114036
000080 04 00 00 00 04 00 00 00 04 00 00 80 04 00 00 80
       6e-45 6e-45 -6e-45 -6e-45
000090 c7 bc d3 bc cd 3d 88 bc 2e b2 e9 bc 0d 12 59 bc
       -0.025846852 -0.016631031 -0.028527346 -0.013248933
0000a0 b0 7e 4b bb 27 7f 3b bb d2 b7 05 3c 74 ca a6 bb
       -0.0031050853 -0.0028609724 0.008161502 -0.0050900523
0000b0 1f 9b 11 bc 82 36 2c bb 48 68 a8 bc 36 b4 29 bc
       -0.008887081 -0.0026277606 -0.020557538 -0.010357907
0000c0 2a 95 34 3a bc f7 96 b6 9a 49 e7 b9 31 02 93 b9
       0.0006888682 -4.4991884e-06 -0.0004411459 -0.00028039658
0000d0 ed 5c 3d bc 7e f5 d4 bc 67 cd d4 3c 45 28 b4 bc
       -0.0115578 -0.025995966 0.02597685 -0.021991858
0000e0 87 a4 c5 bc 90 eb 15 bd bf a6 52 3c 9a 55 ca bc
       -0.024126304 -0.036601603 0.012857138 -0.024699021
0000f0 95 49 3f bc 50 42 53 bc 3f e2 2f bc 33 ec 20 bc
       -0.011675258 -0.012894228 -0.010735094 -0.009821939
000100 05 b9 c7 bc 68 51 0c bd 80 6f c2 3c f3 91 35 bd
       -0.024380216 -0.034257323 0.023734808 -0.04432864
000110 49 7f c5 bc 11 8a 0d bd c8 11 b2 3c a9 65 e7 bc
       -0.024108546 -0.0345555 0.021736994 -0.028246718
000120 04 00 00 00 04 00 00 00 04 00 00 80 04 00 00 00
       6e-45 6e-45 -6e-45 6e-45
000130 d1 a6 6d 3b e1 da 3c 3b 61 3d 3c bc d8 7a f0 3c
       0.003626276 0.0028816985 -0.011489243 0.029355451
000140 dc 76 9f 3c 54 2c 9d 3c 0e 22 8d bc 07 b4 04 bb
       0.019465856 0.019186176 -0.017228153 -0.0020248906
000150 c2 93 89 bb fa 56 97 bb 72 36 ab bb 00 c5 9f bb
       -0.0041985223 -0.0046185227 -0.0052249962 -0.004875779
000160 04 00 00 00 04 00 00 00 04 00 00 80 04 00 00 00
       6e-45 6e-45 -6e-45 6e-45
000170 16 08 bf ba 73 bb c7 bb 52 36 e6 3b 97 86 0a bc
       -0.0014574553 -0.0060953437 0.0070255185 -0.00845494
000180 ce 92 0e bc 48 31 7c ba 8f 41 a5 bc 65 33 36 bb
       -0.008701993 -0.00096203806 -0.020172862 -0.002780163
000190 db a5 63 3a 90 36 af bb ca 61 a8 3a af 29 1d bc
       0.0008684077 -0.0053470805 0.0012846526 -0.009592458
0001a0 ef 87 48 bc 5c 53 61 bc 08 26 1b bc bd 93 14 bc
       -0.01223944 -0.013752785 -0.009469517 -0.009068427
0001b0 04 00 00 00 04 00 00 00 04 00 00 80 04 00 00 80
       6e-45 6e-45 -6e-45 -6e-45
0001c0 04 00 00 00 04 00 00 00 04 00 00 80 04 00 00 00
       6e-45 6e-45 -6e-45 6e-45
0001d0 04 00 00 00 04 00 00 00 04 00 00 80 04 00 00 80
       6e-45 6e-45 -6e-45 -6e-45
0001e0 73 49 80 bc aa 9b 1b bc 52 12 ac bb 80 44 d1 3c
       -0.015660023 -0.009497562 -0.0052512074 0.025545359
0001f0 aa 3f ae bb a9 ca 0c bb 83 e1 3e bc b3 f5 bc 3b
       -0.005317648 -0.00214831 -0.011650446 0.0057665943

exp_avg_sq f4 [32, 4]
000000 00 00 00 00 00 00 00 00 00 00 00 00 00 00 00 00
       0.0 0.0 0.0 0.0
000010 19 7e fc 13 96 f9 70 13 48 cc e3 15 a3 23 f3 15
       6.3738085e-27 3.0415314e-27 9.200687e-26 9.8203143e-26
000020 e0 1b 36 3c e2 58 90 3c 9b 91 54 3b 1a 66 56 3c
       0.011115044 0.017620508 0.003243542 0.013085866
000030 7c bc d3 0c cd 16 11 0b 3d ad 52 0c 0f 82 63 0d
       3.2623137e-31 2.7943138e-32 1.6229944e-31 7.010633e-31
000040 ed cd 02 3c d7 22 86 3b 01 72 84 3b 89 f0 a8 3c
       0.007983667 0.0040935087 0.0040419106 0.020622509
000050 eb fe 93 3b 4e b8 f7 3b 35 da b9 3a f3 13 b5 3b
       0.0045164726 0.0075598126 0.0014179411 0.00552606
000060 e0 1c 4d 3c eb 5d a2 3c dc f3 a6 3b 31 56 5d 3c
       0.012519091 0.019820174 0.0050949883 0.013509319
000070 40 0e 9a 3b 39 55 fa 3b 44 2d 0d 3b c3 91 bb 3b
       0.0047014058 0.007639554 0.0021541873 0.0057241633
000080 f4 01 00 00 f4 01 00 00 f4 01 00 00 f4 01 00 00
       7e-43 7e-43 7e-43 7e-43
000090 58 a5 f1 3b 8a 4f 82 3b 9a 23 83 3b 5d 86 44 3c
       0.007374447 0.003976767 0.004002047 0.011994925
0000a0 62 24 13 39 81 31 2c 39 d6 b9 32 39 91 6e 31 39
       0.00014032566 0.0001642164 0.00017044632 0.00016921225
0000b0 96 3d ab 3b 7d 09 2b 3b 15 f1 2d 3b 58 49 56 3c
       0.0052258475 0.0026098185 0.0026541401 0.01307901
0000c0 70 b1 d3 37 8d 4a e8 36 c6 5f aa 38 d3 cf 0c 39
       2.5235786e-05 6.9228176e-06 8.124071e-05 0.00013428861
0000d0 5e 7a 87 3b 42 0d e1 3b 9c 07 14 3b 80 21 e1 3b
       0.0041344604 0.0068680355 0.0022587543 0.0068704486
0000e0 38 29 81 3b ad 45 ec 3b 8a c3 cc 3a 15 c8 b8 3b
       0.0039416812 0.0072104544 0.001562224 0.005639086
0000f0 f3 1f 8a 3a d3 29 cb 3a e0 73 d3 39 0a df a3 3a
       0.0010538086 0.0015500135 0.0004033139 0.0012502384
000100 42 4b 54 3c de 41 a7 3c 3a bb 84 3b b5 2d 53 3c
       0.012957396 0.02041715 0.0040506395 0.012889315
000110 0d 2f a2 3b 39 6f f8 3b 82 b8 20 3b 49 90 d7 3b
       0.0049494565 0.007581618 0.0024524038 0.0065784794
000120 50 ed 0a 00 82 82 05 00 e9 05 07 00 28 86 89 00
       1.003487e-39 5.05995e-40 6.44969e-40 1.2629589e-38
000130 50 2d c4 3b bf 47 29 3b 3e 0a 9c 3b ff 5c 2e 3c
       0.005986847 0.0025830118 0.004761963 0.010642289
000140 91 bb b8 3b d8 80 37 3b 08 67 8f 3b 65 39 0f 3c
       0.005637594 0.002800038 0.004376296 0.008741711
000150 ab 25 ba 38 0a 80 ed 38 e2 2f d1 38 6a e4 1e 39
       8.876187e-05 0.0001132489 9.9748155e-05 0.00015153145
000160 cf 6a bf 0c f9 1f ae 0b 1f f4 16 0b 54 75 b2 0e
       2.9492493e-31 6.707047e-32 2.9072605e-32 4.399337e-30
000170 6e a2 fc 3a 23 9d 56 3b 66 34 28 3a 7a 6e 09 3b
       0.0019274482 0.003274747 0.00064164994 0.002097039
000180 ca fa 29 3c 09 f0 b8 3b 22 ee 8a 3b f1 de 44 3c
       0.010374734 0.005643849 0.0042398134 0.012016044
000190 0a 09 4e 3b d5 0d b8 3b f6 fc 8d 3a fb 3c 5f 3b
       0.0031438493 0.0056168833 0.0010832835 0.0034063447
0001a0 a0 51 09 3b e7 60 47 3b 4b 7f 47 3a bf 9e fe 3a
       0.0020953193 0.0030422749 0.00076102157 0.0019425972
0001b0 f4 01 00 00 f4 01 00 00 f4 01 00 00 f4 01 00 00
       7e-43 7e-43 7e-43 7e-43
0001c0 31 7e ab 0c 45 f9 56 0e 36 00 a4 0e ee fb 93 0e
       2.642267e-31 2.6497555e-30 4.0429325e-30 3.6480897e-30
0001d0 9a b7 66 16 6e 55 74 16 f8 a5 e9 17 69 ba a6 17
       1.8637186e-25 1.973712e-25 1.5099168e-24 1.0774555e-24
0001e0 84 7e 71 3b 7e 54 f0 3a 71 14 f7 3a bc c1 03 3c
       0.003684909 0.0018335728 0.0018850697 0.008041795
0001f0 85 f1 9f 3b 51 af 0b 3b e1 6f 7b 3b 10 ff 0a 3c
       0.0048810863 0.0021314214 0.0038366246 0.008483663

exp_avg f4 [32]
000000 00 00 00 00 04 00 00 00 04 6a c7 bc 04 00 00 00
       0.0 6e-45 -0.024342544 6e-45
000010 cf 07 50 bd cb c3 7d bd c3 70 79 ba 9e 6c 43 bd
       -0.050788697 -0.0619543 -0.0009515399 -0.047711007
000020 04 00 00 00 0f 5f 8a bd 8b 2f 35 bc d9 06 e1 bc
       6e-45 -0.06756412 -0.011058698 -0.027469086
000030 80 a4 85 3a 43 bd 4e bd 87 53 50 bd 62 c8 81 bc
       0.001019612 -0.050473463 -0.050860908 -0.01584262
000040 d5 a6 14 bd e0 2b 3b bd 04 00 00 00 ef 11 4f 3c
       -0.036291916 -0.04569614 6e-45 0.012638553
000050 71 41 a8 3c 45 94 cc bb 04 00 00 00 6c ad 13 bc
       0.020539017 -0.006243261 6e-45 -0.009013515
000060 48 14 11 bd 65 18 66 bc aa 63 87 bc 04 00 00 00
       -0.035419732 -0.014043902 -0.016527016 6e-45
000070 04 00 00 00 04 00 00 00 85 5b 06 bd a9 a0 ac bc
       6e-45 6e-45 -0.032802124 -0.021072702

exp_avg_sq f4 [32]
000000 00 00 00 00 5e e4 f5 15 dd 39 0e 3d 52 81 a8 0d
       0.0 9.931501e-26 0.03472315 1.0384932e-30
000010 a3 b9 4d 3d 23 67 78 3c 6d 95 17 3d 61 8a 90 3c
       0.050225865 0.015161308 0.037007738 0.01764411
000020 f4 01 00 00 46 8f 1d 3d 92 84 0d 3a 5c 70 fe 3c
       7e-43 0.038466714 0.00053984777 0.031059437
000030 60 ee 63 39 e3 fa 90 3c 9f 01 84 3c fa 41 11 3b
       0.00021737209 0.017697757 0.016114054 0.002216457
000040 6a 76 1a 3d d2 55 91 3c a0 21 97 00 b1 4f 12 3d
       0.037710585 0.017741118 1.3879222e-38 0.03572053
000050 66 9c ba 3c ae 85 b3 39 00 5d bd 0e b3 58 df 3b
       0.022779655 0.0003424114 4.6681653e-30 0.0068159937
000060 73 64 23 3d 0a 02 33 3c 7f c7 8e 3b f4 01 00 00
       0.039890718 0.010925779 0.004357278 7e-43
000070 19 0d a5 0e 8b c1 f0 17 cb 25 d4 3c 22 a7 f0 3c
       4.0688253e-30 1.5558494e-24 0.025896927 0.02937657

exp_avg f4 [32, 32]
000000 00 00 00 00 04 00 00 00 05 0e 98 b6 04 00 00 00
       0.0 6e-45 -4.531585e-06 6e-45
000010 13 f6 9d 37 74 12 22 38 7e 72 f6 b6 41 0a 3c 38
       1.8830446e-05 3.8640996e-05 -7.3447e-06 4.4832243e-05
000020 04 00 00 00 a5 4a a5 38 b9 2c 45 39 4a 3c c0 36
       6e-45 7.881717e-05 0.00018804045 5.7290645e-06
000030 70 cb 12 38 29 21 e6 36 f3 bb 20 37 42 bf c6 36
       3.499858e-05 6.8583945e-06 9.5805035e-06 5.923125e-06
000040 da 54 55 37 3d 6e 25 38 04 00 00 00 7f 67 12 36
       1.2715545e-05 3.9441733e-05 6e-45 2.1815938e-06
000050 60 b2 45 b6 90 fe 01 3a 04 00 00 80 97 88 37 38
       -2.9459115e-06 0.0004958892 -6e-45 4.375781e-05
000060 ed 3d 10 37 a6 e3 0b 37 d6 64 3e 38 04 00 00 00
       8.597487e-06 8.338049e-06 4.539344e-05 6e-45
000070 04 00 00 80 04 00 00 00 f1 ce 17 39 63 37 4b 36
       -6e-45 6e-45 0.00014477574 3.0281597e-06
000080 00 00 00 00 04 00 00 00 f8 78 b4 b7 04 00 00 00
       0.0 6e-45 -2.1514003e-05 6e-45
000090 60 19 4e b6 ad 04 cf 37 e4 89 1c b8 03 7f 03 38
       -3.0711162e-06 2.46785e-05 -3.732172e-05 3.1351123e-05
0000a0 04 00 00 80 a4 f5 4a 38 63 88 0f 39 ef 3b dd 34
       -6e-45 4.8389324e-05 0.00013688351 4.1208065e-07
0000b0 40 ce cf 37 6e d8 95 36 33 56 0e b6 3c 14 8a b6
       2.4772366e-05 4.4657418e-06 -2.1209823e-06 -4.115076e-06
0000c0 91 fa fe b6 71 b1 fb 37 04 00 00 00 a9 85 1e b6
       -7.5989597e-06 3.000416e-05 6e-45 -2.3621635e-06
0000d0 44 d3 3a 35 4c 2e a9 38 04 00 00 80 31 7b 05 b8
       6.959783e-07 8.0671714e-05 -6e-45 -3.1824402e-05
0000e0 5f 91 0b 37 5b 89 6f 35 92 a9 c0 b7 04 00 00 80
       8.3188925e-06 8.9234317e-07 -2.2967146e-05 -6e-45
0000f0 04 00 00 80 04 00 00 00 e2 ff 1f 39 74 82 28 34
       -6e-45 6e-45 0.00015258745 1.5693678e-07
000100 00 00 00 00 04 00 00 00 08 e6 c4 36 04 00 00 00
       0.0 6e-45 5.8680343e-06 6e-45
000110 5f a5 d8 b6 43 7f 38 38 a3 17 81 b7 5e 1c 37 38
       -6.4565534e-06 4.398754e-05 -1.5389005e-05 4.365702e-05
000120 04 00 00 80 e6 a9 37 38 9a 76 1e 39 f0 9f ea 35
       -6e-45 4.378883e-05 0.00015112237 1.7480907e-06
000130 40 72 b5 37 8e 69 b4 36 d7 29 bd 36 8f 1a df 34
       2.1630083e-05 5.376706e-06 5.6375097e-06 4.155631e-07
000140 a1 25 00 b6 f4 05 2f 38 04 00 00 00 99 bc 36 35
       -1.909539e-06 4.1728796e-05 6e-45 6.807473e-07
000150 99 26 31 36 2a 5b 41 39 04 00 00 80 45 d3 95 37
       2.6397522e-06 0.00018439876 -6e-45 1.7860564e-05
000160 fd 14 19 37 c2 24 cc 37 4b 6f 0d 38 04 00 00 80
       9.124397e-06 2.4335812e-05 3.372067e-05 -6e-45
000170 04 00 00 80 04 00 00 00 8b eb 16 39 00 45 99 33
       -6e-45 6e-45 0.00014392861 7.137169e-08
000180 00 00 00 00 04 00 00 80 41 86 93 ba 04 00 00 80
       0.0 -6e-45 -0.0011255221 -6e-45
000190 7d 81 40 15 ff df 60 ba ee b0 83 ba 11 f4 0d ba
       3.887624e-26 -0.00085783 -0.0010047236 -0.0005415092
0001a0 04 00 00 80 04 00 00 00 e1 72 49 ba 04 00 00 00
       -6e-45 6e-45 -0.000768466 6e-45
0001b0 04 00 00 80 c8 8c 69 ba c6 66 42 ba 56 f5 35 36
       -6e-45 -0.00089092227 -0.0007415827 2.7113906e-06
0001c0 aa 12 62 ba 5f 39 25 ba 04 00 00 80 c6 5e 8b a4
       -0.0008623997 -0.00063027994 -6e-45 -6.044219e-17
0001d0 04 00 00 80 38 5a 8c b4 04 00 00 00 65 ba 0a ba
       -6e-45 -2.6142675e-07 6e-45 -0.0005292057
0001e0 04 00 00 80 28 37 2a ba 90 12 ba 36 04 00 00 00
       -6e-45 -0.0006493204 5.545393e-06 6e-45
0001f0 04 00 00 00 04 00 00 00 95 ee 8b 2a 82 45 b2 95
       6e-45 6e-45 2.485691e-13 -7.200329e-26
000200 00 00 00 00 04 00 00 00 5f 93 32 35 04 00 00 00
       0.0 6e-45 6.652462e-07 6e-45
000210 f4 49 92 b4 b1 7d 72 b6 90 fb e7 b4 d6 67 22 b5
       -2.7248427e-07 -3.6133972e-06 -4.321014e-07 -6.0500804e-07
000220 04 00 00 00 18 fa aa 38 0f 60 d2 37 90 d7 14 37
       6e-45 8.152815e-05 2.5078682e-05 8.871677e-06
000230 8a 7a 54 38 62 60 5f 36 7f eb 07 36 9f 9a 68 37
       5.0658862e-05 3.3285692e-06 2.0253644e-06 1.3864278e-05
000240 fc 2b 89 34 ab 69 87 36 04 00 00 00 42 fb 64 36
       2.555024e-07 4.035615e-06 6e-45 3.4120899e-06
000250 f9 4e 72 b6 a0 ca ab 39 04 00 00 00 ca 9f b5 34
       -3.6106778e-06 0.0003276663 6e-45 3.383014e-07
000260 9d 29 2a 37 1b de 3f b8 25 0e 74 38 04 00 00 00
       1.01424785e-05 -4.57448e-05 5.8187306e-05 6e-45
000270 04 00 00 80 04 00 00 00 b3 a5 84 39 ca 0b 3d 36
       -6e-45 6e-45 0.00025300457 2.8170057e-06
000280 00 00 00 00 04 00 00 00 c7 0c f3 ba 04 00 00 80
       0.0 6e-45 -0.0018543237 -6e-45
000290 8b 7a 23 ba 73 52 b2 ba c5 cd dc ba 2d e4 84 ba
       -0.0006236217 -0.0013604894 -0.0016845992 -0.0010138802
0002a0 04 00 00 00 b9 9e a5 b9 3c d0 a1 ba d6 40 52 ba
       6e-45 -0.0003158951 -0.0012345384 -0.00080205256
0002b0 5a 03 87 b8 55 4e c3 ba 78 2d 85 ba 18 0b 1e b5
       -6.437926e-05 -0.0014900664 -0.0010160645 -5.887573e-07
0002c0 78 2c a8 ba fb 04 98 ba 04 00 00 00 56 18 29 ba
       -0.0012830636 -0.0011598164 6e-45 -0.0006450465
0002d0 0a dc b9 b9 61 32 46 ba 04 00 00 80 42 1a 70 ba
       -0.00035449892 -0.00075606076 -6e-45 -0.0009159186
0002e0 da 50 87 ba 69 98 96 ba 97 ae e4 b5 04 00 00 00
       -0.0010323778 -0.0011489514 -1.7038136e-06 6e-45
0002f0 04 00 00 00 04 00 00 80 9e 67 43 ba b0 4c e1 b9
       6e-45 -6e-45 -0.00074541 -0.0004297248
000300 00 00 00 00 04 00 00 00 0d 47 0e bb 04 00 00 00
       0.0 6e-45 -0.002170983 6e-45
000310 5e ce c0 b9 18 fd e7 ba 30 cf ef ba 2a 69 bc ba
       -0.0003677485 -0.0017699329 -0.0018296 -0.0014374603
000320 00 00 00 00 4b 41 b1 b9 3b 42 06 bb ab ea df b9
       0.0 -0.00033808718 -0.0020486254 -0.00042708716
000330 d3 d6 ef b8 36 b1 f4 ba ab 26 bd ba 58 85 a7 b3
       -0.00011436422 -0.0018668536 -0.001443108 -7.8007986e-08
000340 d1 92 dd ba 2e 47 de ba 00 00 00 00 5b cf 45 b9
       -0.0016904717 -0.0016958469 0.0 -0.0001886463
000350 fe c0 99 b9 54 bd ab b9 04 00 00 00 5f 84 40 ba
       -0.00029326224 -0.00032756722 6e-45 -0.00073439436
000360 bd 94 10 ba f7 81 5e ba 4a 79 33 36 00 00 00 00
       -0.0005515328 -0.0008487994 2.6743678e-06 0.0
000370 04 00 00 00 04 00 00 80 6b 1d 2d ba 7a 72 bc b8
       6e-45 -6e-45 -0.000660381 -8.9858615e-05
000380 00 00 00 00 04 00 00 80 96 13 64 bb 04 00 00 00
       0.0 -6e-45 -0.0034801713 6e-45
000390 9e 19 1a a4 b3 81 36 bb 6b cb 3b bb 59 0b 11 bb
       -3.3415126e-17 -0.0027848303 -0.0028655182 -0.0022132008
0003a0 04 00 00 80 9c 15 ee a2 62 e2 55 bb 5c 49 d9 0a
       -6e-45 -6.453291e-18 -0.0032636155 2.0923935e-32
0003b0 9d 6f 88 aa 86 3b 54 bb e1 2e 14 bb 74 34 97 33
       -2.42359e-13 -0.0032384112 -0.002261095 7.0410266e-08
0003c0 d3 db 4b bb e4 db 2d bb 04 00 00 80 70 9c fd 2a
       -0.0031106367 -0.002652877 -6e-45 4.5050378e-13
0003d0 70 9f cd 9e 1b c3 2f b4 04 00 00 00 cf 4a 7d ba
       -2.1771161e-20 -1.6369124e-07 6e-45 -0.00096623314
0003e0 36 64 09 85 e8 12 80 ba 92 57 e6 35 04 00 00 00
       -6.460115e-36 -0.000977126 1.7161822e-06 6e-45
0003f0 04 00 00 00 04 00 00 00 39 c0 ee b1 67 1a 38 27
       6e-45 6e-45 -6.948565e-09 2.5549442e-15
