models/rl_coach_interrupted_model.pth (torch, 84661 bytes, 24 tensors)

network.0.weight f4 [64, 4]
0	0xbe0936c6	-0.133998
1	0xbc60025b	-0.013672437
2	0xbc5d4caa	-0.013507048
3	0x3c454473	0.012040245
4	0x3d95fc95	0.07323567
5	0xbe7a3278	-0.24433315
6	0x3cb6053f	0.022219298
7	0xbd5aab59	-0.053386066
8	0xbeb2f23d	-0.34950438
9	0x3efb243a	0.49051076
10	0xbd89c630	-0.067272544
11	0x3dbf99c6	0.09355502
12	0x3e4d97bf	0.20077418
13	0x3d81ac84	0.06331733
14	0xbdbc2210	-0.091861844
15	0x3e8d292d	0.27570477
16	0x3e583800	0.21115112
17	0xbd86b665	-0.06577758
18	0xbe095aa3	-0.13413481
19	0x3dba3c42	0.090935245
20	0xbd5af66d	-0.053457666
21	0x3af6f305	0.0018840736
22	0x3ce02d8c	0.027365468
23	0xbc8bc93a	-0.017063726
24	0xbec93db6	-0.39304894
25	0xbe086246	-0.13318738
26	0x3e2ba79a	0.16763154
27	0x3e679b4c	0.22617835
28	0xbe1d86e7	-0.15383492
29	0x3e86eee0	0.26354122
30	0xbd231686	-0.039816402
31	0x3de1d9aa	0.11027844
32	0xbf0752f2	-0.5286094
33	0x3f13ab87	0.57683605
34	0xbdc4623b	-0.095890485
35	0x3d921168	0.07132226
36	0xbeb6187c	-0.35565555
37	0xbe5a3a8f	-0.21311401
38	0x3de2a4df	0.11066603
39	0xbe6e2091	-0.2325461
40	0x3dafccb7	0.08583968
41	0xbea35d2e	-0.31907028
42	0x3be2b2a2	0.0069182673
43	0xbd897bf2	-0.06713094
44	0xbcf6e244	-0.030137189
45	0x3e1116fd	0.14168926
46	0x3cabd617	0.02097611
47	0xbd52e989	-0.051492248
48	0x3ec1915c	0.37806213
49	0xbebedb35	-0.37276617
50	0x3bc78be1	0.006089673
51	0x3c31cd6c	0.010852199
52	0xbf128e39	-0.57248265
53	0x3f18df9e	0.5971621
54	0xbdb90bb2	-0.09035434
55	0x3d89e55b	0.06733199
56	0x3d6826a9	0.056677494
57	0xbdd2b5d3	-0.102885865
58	0x3d028f54	0.03187497
59	0x3c723aae	0.014784498
60	0xbe4855b4	-0.19563943
61	0x3d0d06a4	0.03443016
62	0xbbcff2ed	-0.0063460977
63	0x3c9b655c	0.01896923
64	0xbe1e38ed	-0.15451403
65	0xbda4ee40	-0.08053255
66	0x3e97eb0e	0.2967152
67	0x3c0ecad9	0.008715355
68	0xbe8c0b0b	-0.27352175
69	0xbee00d40	-0.4376011
70	0x3c5d10e4	0.013492797
71	0x3e6a9a9a	0.22910538
72	0x3d13c070	0.036072195
73	0x3e20986b	0.15683143
74	0xbe504eac	-0.20342511
75	0x3e2e706a	0.1703507
76	0xbead1a7a	-0.33809263
77	0xbe6989d5	-0.22806485
78	0xbc106c63	-0.008814904
79	0xbced66fe	-0.028979775
80	0xbeb6bfb5	-0.35693136
81	0xbec99152	-0.39368683
82	0xbc00a58f	-0.007851972
83	0x3e57a8a6	0.21060428
84	0xbe770d37	-0.24126135
85	0x3e6dc142	0.23218253
86	0xbcb478cb	-0.022030255
87	0x3cd5e9ad	0.026112402
88	0x3f07a05b	0.5297906
89	0xbd8eeb19	-0.06978435
90	0x3dc63b20	0.09679246
91	0x3e1dbd68	0.15404284
92	0x3e95228b	0.29127917
93	0xbe383db2	-0.17992285
94	0xbdd18722	-0.10230853
95	0x3d4e69ee	0.05039399
96	0xbe697ee1	-0.22802307
97	0x3f0558b0	0.5208845
98	0xbdb92832	-0.0904087
99	0x3e302631	0.17202069
100	0x3ec70d99	0.38877562
101	0xbeabc867	-0.33551332
102	0xbd333a26	-0.043756627
103	0xbb49e39d	-0.0030805834
104	0x3f0f4f68	0.5598054
105	0xbf12469a	-0.5713898
106	0x3d50736d	0.05089133
107	0xbce79d92	-0.028273378
108	0xbe7b831f	-0.24561737
109	0xbe56ecbc	-0.20988744
110	0x3d05d62b	0.03267495
111	0x3aea4ef1	0.001787631
112	0x3ed65264	0.41859734
113	0xbee59a8c	-0.44844472
114	0x3ca89a07	0.020581258
115	0xbc25a1d6	-0.0101093855
116	0x3ed01b1a	0.40645677
117	0xbe8ca221	-0.27467445
118	0x3bf57b61	0.0074915146
119	0x3cc8d3d1	0.024515064
120	0x3e99093b	0.29889855
121	0xbe9dc244	-0.30812275
122	0x3ce89699	0.028392123
123	0xbcbbb174	-0.022911765
124	0x3dd6bdb2	0.104854
125	0xbeaae6da	-0.3337925
126	0xbe51916f	-0.20465635
127	0x3e0a2324	0.13489968
128	0x3edf697e	0.43635172
129	0xbea1ab58	-0.31576037
130	0x3e637fd2	0.22216728
131	0xbbc03e8f	-0.0058668326
132	0x3dd3eea6	0.10348253
133	0x3d13bb7e	0.03606748
134	0xbe2c60cb	-0.16833799
135	0x3def584a	0.11686762
136	0xbe816282	-0.25270468
137	0x3efaecf3	0.49008903
138	0xbd7a7bdc	-0.061153278
139	0x3de5e573	0.112254046
140	0xbed4d1dc	-0.4156636
141	0x3e773bb1	0.24143864
142	0xbc851b27	-0.016248299
143	0x3c2acb49	0.0104244435
144	0xbe952fc8	-0.29138017
145	0xbe8c3779	-0.27386072
146	0xbe61b506	-0.22041711
147	0x3dcd412c	0.10022196
148	0x3d065b77	0.03280207
149	0x3e8388c2	0.25690275
150	0xbdc35c21	-0.095390566
151	0x3e88e426	0.26736563
152	0xbf06a325	-0.5259269
153	0x3f19e1e8	0.6011033
154	0xbdd9a8d8	-0.106279075
155	0x3dbf200f	0.093322866
156	0x3e2e1cc0	0.17003155
157	0xbe39c7f8	-0.18142688
158	0xbdd11c52	-0.1021048
159	0x3d07eaff	0.033183094
160	0xbd2e9b07	-0.042628314
161	0x3eb79e26	0.35862845
162	0xbd948ed6	-0.07253806
163	0x3e2ab38a	0.16670051
164	0xbe2b413b	-0.16724102
165	0x3eca9124	0.39563859
166	0xbd46e907	-0.048562076
167	0x3de251de	0.11050771
168	0xbecd8cdc	-0.4014653
169	0xbe80f287	-0.25185034
170	0xbc93b28c	-0.018029474
171	0xbcfbdaf6	-0.030744057
172	0x3d341f28	0.043975025
173	0xbe8c66dd	-0.27422228
174	0x3cc16a94	0.02361039
175	0xbd5c6ccf	-0.053814705
176	0xbef0f4e8	-0.4706185
177	0x3f07a7fd	0.52990705
178	0xbdc8175a	-0.09770079
179	0x3d9d32ce	0.07675706
180	0xbeb4579a	-0.35223085
181	0xbd405837	-0.04695913
182	0x3d019cc7	0.031643655
183	0x3bbf0258	0.005829137
184	0x3f022278	0.50833845
185	0xbeec1ef7	-0.46117374
186	0x3c184baf	0.009295388
187	0x3baa00d4	0.005188087
188	0x3ed55196	0.41663808
189	0xbeada43d	-0.33914366
190	0x3d4c29d0	0.049844563
191	0xbb5994dc	-0.00332003
192	0xbe83a8bb	-0.2571467
193	0xbdea4a6e	-0.114399776
194	0x3cf72277	0.030167801
195	0xbc5a48e1	-0.01332304
196	0x3e6f1557	0.23347984
197	0x3ca871f8	0.020562157
198	0xbb0b2876	-0.0021233833
199	0xbda01667	-0.07816773
200	0xbe50fc99	-0.20408858
201	0xbd1ec26a	-0.038759626
202	0xbc6be708	-0.014398344
203	0x3cc86a74	0.024464823
204	0xbe72b91b	-0.23703425
205	0x3ef6a331	0.4817138
206	0xbd2adc36	-0.041713916
207	0x3dd21767	0.1025837
208	0x3e59c0dd	0.21264978
209	0x3e05bdb9	0.13060655
210	0x3e0e085e	0.1387038
211	0xbd89ab47	-0.06722122
212	0xbe89fa32	-0.26948696
213	0xbe0216c2	-0.12703994
214	0x3d6a4cdf	0.057202216
215	0xbb4e5d74	-0.0031488808
216	0x3f06616e	0.52492416
217	0xbf0711ee	-0.52761734
218	0x3d4a4542	0.049382456
219	0xbcc0b098	-0.023521706
220	0x3f032622	0.5123006
221	0xbf09550f	-0.53645414
222	0x3d418819	0.047248933
223	0xbcdb8a69	-0.026799398
224	0xbd93004e	-0.071777925
225	0x3e7aa373	0.24476413
226	0xbd0c15f5	-0.034200627
227	0xbdd017d1	-0.101607926
228	0x3f06ddd3	0.52682227
229	0xbf0a1d3d	-0.53950864
230	0x3d554219	0.05206499
231	0xbcd23517	-0.02566008
232	0x3e4a9738	0.19784248
233	0x3daa75e9	0.08323271
234	0xbd96d0b5	-0.073640265
235	0xbdcb415f	-0.09924578
236	0xbe56c9f3	-0.20975475
237	0xbc9d431d	-0.019197041
238	0x3e0feba8	0.1405474
239	0xbd62f076	-0.055405103
240	0xbe878863	-0.26471242
241	0xbe90cf42	-0.28283125
242	0x3c192082	0.009346129
243	0xbca9b422	-0.020715777
244	0xbf179fb1	-0.59228045
245	0x3f125b3b	0.57170457
246	0xbd8b8171	-0.06811798
247	0x3cd3132c	0.025765978
248	0xbec0042e	-0.3750319
249	0x3ef63df4	0.4809414
250	0xbd9ba97c	-0.07600686
251	0x3dafafaa	0.08578427
252	0x3e09eac6	0.13468465
253	0x3d8e7538	0.069559515
254	0xbc449869	-0.011999228
255	0x3d31718b	0.043321174

network.0.bias f4 [64]
0	0x3e412d26	0.18864879
1	0x3e2bab87	0.16764651
2	0xbdf3fdac	-0.119136184
3	0xbe2dbc2c	-0.16966313
4	0x3e3fa0c4	0.18713671
5	0x3e120df5	0.14263137
6	0x3e46cbad	0.19413634
7	0x3e1c1f8a	0.15246406
8	0xbdb1f453	-0.08689179
9	0x3dbcee08	0.09225088
10	0x3e63a3f6	0.22230515
11	0x3e23f486	0.16011247
12	0x3e0653e4	0.13117939
13	0xbdc98f16	-0.098417446
14	0x3e211a69	0.15732731
15	0x3e363179	0.1779231
16	0xbcdd6efe	-0.027030464
17	0x3d8625ea	0.065502
18	0x3e56277f	0.20913504
19	0x3e6c206d	0.23059244
20	0x3dc7ad8a	0.09749897
21	0x3dd80b56	0.10549037
22	0xbb954951	-0.004555859
23	0x3e322bff	0.17399596
24	0xbe227b02	-0.15867236
25	0x3e206b44	0.15665919
26	0xbd42b76b	-0.047538202
27	0x3e64e052	0.22351196
28	0x3e195c26	0.14976558
29	0x3da32563	0.07966115
30	0xbcc5d37f	-0.0241487
31	0xbd8cf2ee	-0.06882273
32	0xbdc597f6	-0.09648125
33	0x3e4889b3	0.19583778
34	0xbe37e7f7	-0.17959581
35	0x3e3c01ad	0.18360014
36	0xbd06df9b	-0.03292809
37	0xbe2fd5c6	-0.17171392
38	0xbdc24f40	-0.09487772
39	0x3e566d07	0.20940028
40	0xbe4fcaa1	-0.2029214
41	0xbe260f7d	-0.16216846
42	0x3e84f387	0.25967047
43	0x3e5a3515	0.21309312
44	0xbdb0569c	-0.086102694
45	0x3e8451bc	0.25843608
46	0x3e12f527	0.1435133
47	0x3e0bf674	0.13668233
48	0x3e4da0fb	0.2008094
49	0x3e3f4673	0.18679218
50	0x00000000	0.0
51	0xbe447d7e	-0.19188496
52	0x3e2bfa82	0.1679478
53	0x3e70a8d1	0.23501898
54	0xbd4622ba	-0.04837296
55	0xbd12bd8c	-0.035825297
56	0x3e5b3776	0.21407875
57	0xbd39b83f	-0.045341726
58	0x3e3e8f45	0.1860934
59	0x3e8bc40b	0.27298006
60	0x3e6ed187	0.23322116
61	0xbdaa0759	-0.08302183
62	0xbdd56447	-0.10419517
63	0x3e26cdda	0.16289464

network.3.weight f4 [64, 64]
0	0x3bb1546e	0.005411676
1	0x3e896cc9	0.2684081
2	0xbf882c09	-1.0638438
3	0xbea42e67	-0.32066652
4	0xbd76db4b	-0.060267728
5	0x3d9e9257	0.07742756
6	0x3e7e589e	0.24838492
7	0x3dd94708	0.10609251
8	0xbfbd1586	-1.4772193
9	0x3e7f0995	0.24905999
10	0x3e144463	0.14479212
11	0x3e056731	0.13027646
12	0x3daa4bd5	0.08315245
13	0xbfa2ec7c	-1.2728419
14	0x3d88e86d	0.06684957
15	0x3e2537f5	0.16134627
16	0xbbda3a4a	-0.0066597806
17	0x3deb4a65	0.11488799
18	0xbe59b72b	-0.2126128
19	0x3ecd24b9	0.4006708
20	0x3e9343d4	0.28762686
21	0x3cc87b03	0.024472719
22	0xbdb8ecbd	-0.09029529
23	0xbdef4fd9	-0.116851516
24	0xbea2b082	-0.3177529
25	0x3e7497c6	0.23886022
26	0xbf42d30d	-0.7610329
27	0x3e58c1eb	0.21167724
28	0x3d9a9250	0.07547438
29	0x3e5e9d39	0.21739663
30	0xbf7a5449	-0.9778486
31	0xbe9f4edc	-0.31114852
32	0xbdcc5480	-0.099770546
33	0x3da0c33f	0.0784974
34	0xbf40dfeb	-0.7534167
35	0x3eb39425	0.35073963
36	0xbe389e08	-0.18029034
37	0xbe64febc	-0.22362798
38	0xbfa0c065	-1.2558714
39	0x3d6a7da6	0.057248734
40	0xbeabe059	-0.335696
41	0xbf391fd3	-0.72314185
42	0x3e330744	0.1748324
43	0x3cb44fbd	0.022010678
44	0xbfbbbc0c	-1.4666762
45	0x3dc09c50	0.09404814
46	0x3e372b1d	0.1788754
47	0xbd0a9331	-0.03383178
48	0x3e14a594	0.14516288
49	0xbe4144b0	-0.18873858
50	0xbe454100	-0.19263077
51	0xbf6b88ce	-0.9200562
52	0x3d1a0d9a	0.037610628
53	0x3ebc6628	0.3679669
54	0xbf564949	-0.83705574
55	0xbf14f14c	-0.5818069
56	0xbe562520	-0.209126
57	0xbf33d9e8	-0.70254374
58	0x3e447525	0.19185312
59	0x3dbc1b2e	0.091848716
60	0x3ef6f870	0.48236418
61	0xbfaa9f62	-1.332989
62	0xbfacf157	-1.3511151
63	0x3e21aca4	0.15788513
64	0x3df5d849	0.12004144
65	0x3e138a1b	0.14408152
66	0xbf9613a5	-1.1724745
67	0xbe7e2abe	-0.24820992
68	0x3da36912	0.07979025
69	0x3e2c8f9b	0.16851656
70	0x3e10d056	0.14141974
71	0xbcb27638	-0.021784887
72	0xbfb502d0	-1.4141483
73	0x3e30845d	0.17237993
74	0x3e42e24b	0.19031636
75	0xbcc02f87	-0.023460163
76	0xbc1de677	-0.009637467
77	0xbfa6577f	-1.2995452
78	0xbd1606a7	-0.036627438
79	0xbc42102c	-0.011844676
80	0x3cdd5daa	0.027022202
81	0xbdf5bbdb	-0.11998721
82	0xbd399699	-0.045309637
83	0x3e25ec08	0.1620332
84	0xbde026b1	-0.1094488
85	0x3c665c9d	0.014060167
86	0xbd3bf33d	-0.045886267
87	0x3d29c53f	0.041447874
88	0xbe82c374	-0.25539744
89	0x3dd7a345	0.10529188
90	0xbf5cb511	-0.86213785
91	0x3ea61ef3	0.32445487
92	0x3e080eb6	0.13286862
93	0xbe2453e0	-0.16047621
94	0xbf791d86	-0.97310674
95	0xbd2fe143	-0.042939436
96	0xbe9d3c76	-0.3071019
97	0xbcf7e66f	-0.030261246
98	0xbf1ce0a1	-0.61280257
99	0x3e3c9a65	0.18418272
100	0x3db996b5	0.09061948
101	0xbea365ab	-0.31913504
102	0xbf9ffd63	-1.2499202
103	0x3da91634	0.08256188
104	0xbe8547be	-0.26031297
105	0xbf11eb7d	-0.5699995
106	0x3e5d11ca	0.21588817
107	0xbdb1d6f1	-0.08683575
108	0xbfc35e55	-1.5263163
109	0x3eb64690	0.3560071
110	0xbdc94d96	-0.098292515
111	0x3c48eb47	0.012263126
112	0x3edc2fca	0.4300521
113	0xbdcf4a46	-0.101215884
114	0x3c3ce2a3	0.011528644
115	0xbf2fac74	-0.6862252
116	0x3d743622	0.059621938
117	0x3e5b74fb	0.21431343
118	0xbf74f7df	-0.9569072
119	0xbf71f283	-0.9451067
120	0xbde063d2	-0.10956539
121	0xbf1c1aac	-0.609782
122	0xb6e1e877	-6.732585e-06
123	0x3e80c5cf	0.25150916
124	0x3ec10818	0.37701488
125	0xbf9bd894	-1.2175469
126	0xbfb3c651	-1.4044896
127	0x3dfd6aa1	0.123738535
128	0x3ea7ee03	0.32798776
129	0xbdadaf8c	-0.084807485
130	0xbda923a9	-0.08258755
131	0xbdf0f074	-0.11764613
132	0x3cb13822	0.021633212
133	0x3e7eb91f	0.24875306
134	0x3eca2370	0.39480162
135	0x3de65b12	0.11247839
136	0x3dc57f4d	0.09643421
137	0xbdbd0cc9	-0.09230954
138	0xbe8225af	-0.25419375
139	0x3e393a51	0.18088652
140	0xbf3ec24a	-0.7451521
141	0xbdda59f0	-0.106616855
142	0xbda26a9b	-0.0793049
143	0x3eab03d9	0.33401373
144	0xbe05481d	-0.1301579
145	0xbe621937	-0.22079931
146	0x3c30f5dc	0.010800805
147	0xbe9c6e06	-0.3055269
148	0xbe7e8032	-0.2485359
149	0x3db2a60d	0.08723078
150	0xbed8a312	-0.42311913
151	0xbd7945c8	-0.060857564
152	0x3dd5f334	0.10446778
153	0xbe6afb33	-0.22947387
154	0xbe5ef898	-0.21774518
155	0x3de986ee	0.11402689
156	0xbf49cc20	-0.78827095
157	0xbf32f8f1	-0.69911104
158	0xbdee55fe	-0.116374955
159	0xbe69a995	-0.22818597
160	0xbe914698	-0.2837417
161	0x3d611822	0.054954655
162	0x3dde16d9	0.108442016
163	0x3e859e40	0.26097298
164	0x3e0c4d2e	0.13701317
165	0x3d9f52db	0.07779475
166	0x3e09313d	0.13397689
167	0xbe087f25	-0.13329752
168	0x3dc88ff2	0.097930804
169	0x3d6e9173	0.05824418
170	0xbeaaf262	-0.33388048
171	0xbef74fbb	-0.48303017
172	0x3d9d224a	0.07672556
173	0x3e7ae184	0.2450009
174	0xbf2bef04	-0.67161584
175	0xbeaa976b	-0.33318648
176	0xbb313340	-0.0027038604
177	0x3dcd59cb	0.10026892
178	0xbc225935	-0.009908964
179	0xbd9ad2e4	-0.075597554
180	0x3dea8241	0.11450625
181	0x3e02d105	0.12775047
182	0xbedaceb9	-0.42735842
183	0xbe6b8abe	-0.23002145
184	0x3e2cab6e	0.1686227
185	0xbea45209	-0.32093838
186	0x3c5735c3	0.013135376
187	0x3e3d78f1	0.18503167
188	0xbefcd0dc	-0.49378097
189	0x3eaa0b6f	0.33211848
190	0x3d07c7c7	0.033149507
191	0x3df2f33a	0.11862798
192	0xbe4bb3bf	-0.19892786
193	0xbcbdc9f9	-0.023167597
194	0xbe0b1bfb	-0.13584892
195	0xbe1ca9b2	-0.15299109
196	0xbe296ee6	-0.1654621
197	0x3c042ad2	0.00806685
198	0xbd71dee8	-0.05905047
199	0xbe2520bb	-0.16125767
200	0xbe12e24b	-0.14344136
201	0x3e266b62	0.16251901
202	0xbe19ed99	-0.15032043
203	0xbd4bfb68	-0.049800307
204	0x3e59ad6f	0.21257566
205	0xbc75dce7	-0.0150062805
206	0xbdb8a855	-0.09016482
207	0xbe49b479	-0.19697751
208	0xbe1fecf1	-0.1561773
209	0x3e12328e	0.14277098
210	0x3cc005b4	0.02344022
211	0xbe0e10f6	-0.13873658
212	0x3d571a90	0.052515566
213	0xbe18d166	-0.14923629
214	0x3e753246	0.23944959
215	0xbd18e2d3	-0.03732569
216	0xbe869b0a	-0.2629016
217	0xbe2ab661	-0.16671135
218	0xbe2fec47	-0.17179976
219	0x3e12797d	0.14304157
220	0x3cb7eb9c	0.022451214
221	0x3ca4e12a	0.020126898
222	0xbd5b6b80	-0.053569317
223	0xbd9b34ff	-0.075784676
224	0xbe495d4d	-0.19664498
225	0x3c7e0746	0.015504664
226	0xbe30eb03	-0.1727715
227	0xbe478028	-0.19482481
228	0x3c261bdf	0.010138481
229	0x3d55e738	0.05222246
230	0xbb8865eb	-0.00416254
231	0xbd332bc9	-0.04374293
232	0xbe373cad	-0.1789424
233	0x3d91de48	0.07122475
234	0xbdaa6aeb	-0.08321174
235	0x3e16431b	0.14674036
236	0x3e023f56	0.12719473
237	0x3df9ba88	0.12193781
238	0x3d44f8cf	0.048088845
239	0xbe2bbe43	-0.16771798
240	0xbdd5150e	-0.104044065
241	0xbe0f521a	-0.13996163
242	0xbdc408ab	-0.09571966
243	0xbdd85fcb	-0.10565146
244	0x3e40abaf	0.18815492
245	0x3e41ac35	0.18913348
246	0xbcc98818	-0.024601027
247	0x3e52993e	0.2056627
248	0xbe30ea8d	-0.17276974
249	0x3e0d37bf	0.13790797
250	0xbe06dfbe	-0.13171288
251	0x3d0476ef	0.032339986
252	0xbe01748d	-0.12642117
253	0xbd4bfa4c	-0.04979925
254	0xbd0ae050	-0.033905327
255	0xbe3530cf	-0.176944

network.3.bias f4 [64]
0	0x3f1be5a3	0.6089727
1	0x3f17e11c	0.59327865
2	0x3b43c526	0.0029872148
3	0xbc90de8c	-0.017684244
4	0xbe1b36fc	-0.15157694
5	0xbc9a8bd1	-0.018865498
6	0x3f3e3011	0.74292094
7	0x3f1d4f47	0.6144909
8	0x3f1b2a97	0.6061186
9	0x3f21c8ab	0.6319682
10	0x3f1bcae9	0.6085649
11	0xbda7c29e	-0.08191417
12	0x3f43c457	0.76471466
13	0xbe88f4e9	-0.26749352
14	0x3f310b93	0.69158286
15	0xbec8ad24	-0.39194596
16	0xbeb801d8	-0.35938907
17	0x3f273ab8	0.6532397
18	0x3f20a000	0.6274414
19	0x3f2b49e0	0.669096
20	0x3f1c1a0c	0.60977244
21	0x3f3145bf	0.6924705
22	0xbea0792d	-0.3134245
23	0x3f3220ad	0.6958111
24	0xbda17206	-0.07883076
25	0x3dc29654	0.09501329
26	0x3d8b9026	0.068146035
27	0xbeb09961	-0.3449202
28	0xbd57bcd4	-0.052670315
29	0x3f240e28	0.640841
30	0xbb899dfe	-0.0041997423
31	0x3f14cf1f	0.5812854
32	0x3f179ac6	0.5922054
33	0x3f31e8f9	0.69496113
34	0x3f1c432e	0.6104001
35	0x3ed4fa4b	0.41597208
36	0x3f46f8f2	0.7772361
37	0x3f375080	0.7160721
38	0x3e9cb588	0.30607247
39	0xbdd5267b	-0.1040773
40	0x3f21cd2b	0.63203686
41	0x3f38c469	0.721747
42	0x3f1a332e	0.60234344
43	0x3ce6c360	0.028169334
44	0x3f216250	0.6304064
45	0x3f28e325	0.65971595
46	0x3f226261	0.63431364
47	0xbea7d590	-0.32780123
48	0xbeb84003	-0.35986337
49	0xbe9e8345	-0.30959526
50	0x3f06f46a	0.52716696
51	0x3f203481	0.62580115
52	0x3f2959d1	0.66152674
53	0x3f37c3ce	0.7178315
54	0x3f193408	0.5984502
55	0x3f31f0bd	0.6950796
56	0xbcc9b8a2	-0.024624173
57	0x3f1ddec3	0.6166803
58	0xbd5b471b	-0.05353461
59	0x3f3110d1	0.69166285
60	0x3f35a815	0.709596
61	0xbb6a8e28	-0.0035790298
62	0x3de5787e	0.11204623
63	0xbd0becde	-0.03416144

network.6.weight f4 [2, 64]
0	0x3f540ac7	0.82828945
1	0x3f7c2c8e	0.98505485
2	0xbef0c859	-0.47027853
3	0x3badc408	0.0053029098
4	0xbea86b7f	-0.32894513
5	0xbee1362f	-0.4398665
6	0x3f08c1f9	0.5342098
7	0x3f61a8b4	0.88148046
8	0x3f72713f	0.9470405
9	0x3f497474	0.7869332
10	0x3f641939	0.89100987
11	0xbedb8bdc	-0.42880142
12	0x3f0252b6	0.50907457
13	0xbeab9ed0	-0.33519602
14	0x3f375dbf	0.7162742
15	0xbf6c99ef	-0.92422384
16	0xbf597bf3	-0.84954756
17	0x3f495768	0.78648996
18	0x3f461f46	0.7739147
19	0x3f2d7632	0.67758477
20	0x3ed617bd	0.41814986
21	0x3f33c0f1	0.7021628
22	0xbf81a275	-1.0127703
23	0x3f138c34	0.5763581
24	0xbee04e5a	-0.43809777
25	0xbef8e9d5	-0.486159
26	0xbf1d7612	-0.61508286
27	0xbf35b112	-0.7097331
28	0xbea8bf43	-0.3295842
29	0x3f330e85	0.6994403
30	0xbefbd4e5	-0.49185863
31	0x3ed3abd0	0.4134202
32	0x3f26c576	0.6514505
33	0x3f2e0941	0.6798287
34	0x3f5392ff	0.82646173
35	0x3ee94fb9	0.45568636
36	0x3edf9299	0.43666533
37	0x3f2e2054	0.6801808
38	0x3ef2c1f8	0.4741361
39	0xbecb4367	-0.3969986
40	0x3ee1d0a6	0.441045
41	0x3f11f877	0.5701975
42	0x3f4466c4	0.7671931
43	0xbe586852	-0.21133545
44	0x3f265451	0.64972407
45	0x3f3b1d61	0.73091704
46	0x3f613bbf	0.8798179
47	0xbf3ee036	-0.7456087
48	0xbf38e67e	-0.72226703
49	0xbf5ed4df	-0.87043566
50	0x3ea324e8	0.31864095
51	0x3f31751d	0.69319326
52	0x3f54af5c	0.8308008
53	0x3efc201c	0.49243248
54	0x3f5b3db8	0.8564105
55	0x3f5177b1	0.8182326
56	0xbef04bae	-0.4693274
57	0x3f5c7e3f	0.86130136
58	0xbe9f96c5	-0.31169716
59	0x3f05b65a	0.5223137
60	0x3f2d7593	0.6775753
61	0xbf17bba6	-0.59270704
62	0x3efc4ab2	0.49275738
63	0xbf15cf3b	-0.58519334
64	0x3f51fc25	0.8202537
65	0x3f582092	0.844247
66	0xbf2e6f92	-0.6813899
67	0xbead52e9	-0.33852318
68	0xbeab1a15	-0.33418337
69	0xbecceef9	-0.40026072
70	0x3f0d4016	0.5517591
71	0x3f635644	0.88803506
72	0x3f4a0be6	0.78924406
73	0x3f58091f	0.8438892
74	0x3f712b63	0.9420683
75	0xbf0e5895	-0.55603915
76	0x3f010d65	0.50411063
77	0xbeefd34b	-0.4684089
78	0x3f434415	0.7627576
79	0xbf519561	-0.8186856
80	0xbf5e3a38	-0.86807585
81	0x3f143061	0.5788632
82	0x3f1537be	0.5828818
83	0x3f41eb1a	0.7574936
84	0x3f1640de	0.5869273
85	0x3f38275b	0.7193505
86	0xbedca8a1	-0.43097404
87	0x3f336b38	0.7008548
88	0xbece250f	-0.40262648
89	0xbf08c6d7	-0.53428406
90	0xbeafa433	-0.34304962
91	0xbf1b9cfa	-0.607864
92	0xbf18ff80	-0.5976486
93	0x3f0f9d0c	0.5609901
94	0xbea5d7e0	-0.32391262
95	0x3f2fd6fb	0.6868741
96	0x3f541265	0.8284057
97	0x3f49d0c1	0.7883416
98	0x3f4c0e08	0.7970891
99	0x3e3de517	0.18544422
100	0x3ee58169	0.44825295
101	0x3f1a4228	0.60257196
102	0x3dc86f70	0.0978688
103	0xbeb5d54a	-0.3551429
104	0x3f2792f9	0.6545864
105	0x3f269b55	0.6508077
106	0x3f5113e7	0.81670994
107	0xbeb94358	-0.36184192
108	0x3f41912d	0.75612146
109	0x3f1d09dd	0.61343175
110	0x3f859a02	1.0437624
111	0xbf65280c	-0.8951423
112	0xbf6718a3	-0.9027197
113	0xbed16b6a	-0.40902263
114	0x3efc350a	0.49259216
115	0x3f48a718	0.78379965
116	0x3f31c118	0.6943526
117	0x3f042e93	0.51633567
118	0x3f59c54a	0.85066664
119	0x3f614e82	0.8801042
120	0xbf0a265b	-0.53964776
121	0x3f6265a5	0.8843635
122	0xbd82a1fe	-0.06378554
123	0x3f131740	0.5745735
124	0x3f2facbd	0.6862295
125	0xbee165a3	-0.44022855
126	0xbdfea876	-0.12434475
127	0xbee3162c	-0.44352853

network.6.bias f4 [2]
0	0x41263054	10.386799
1	0x411cc7e5	9.798802

network.0.weight f4 [64, 4]
0	0xbe09236f	-0.13392423
1	0xbc71954b	-0.014745067
2	0xbc493005	-0.012279515
3	0x3c33bdf2	0.010970579
4	0x3d95add8	0.07308549
5	0xbe7ae531	-0.24501492
6	0x3cb54019	0.02212529
7	0xbd55ab7a	-0.052165486
8	0xbeb25d56	-0.34836835
9	0x3efbcc8d	0.49179497
10	0xbd8792b1	-0.06619776
11	0x3dbcd3e3	0.09220102
12	0x3e4b57b0	0.19857669
13	0x3d76c104	0.060242668
14	0xbdbbfa6b	-0.09178623
15	0x3e8b9e8c	0.272694
16	0x3e5682a3	0.20948271
17	0xbd8c7ffe	-0.0686035
18	0xbe08e976	-0.13370308
19	0x3dbc1184	0.09183028
20	0xbd5ce9b5	-0.053933818
21	0x39d0b203	0.0003980548
22	0x3ce7aa20	0.028279364
23	0xbc8d6d97	-0.01726417
24	0xbecac58f	-0.3960385
25	0xbe0b807c	-0.13623232
26	0x3e2a53c6	0.1663352
27	0x3e669e65	0.2252136
28	0xbe1d2a23	-0.15348105
29	0x3e868233	0.2627121
30	0xbd1d5bd4	-0.038417652
31	0x3ddfa3e8	0.109199345
32	0xbf06a7e6	-0.5259994
33	0x3f1455bf	0.5794334
34	0xbdc19a07	-0.094532065
35	0x3d96a5e9	0.073558636
36	0xbeb77c6b	-0.3583711
37	0xbe5dfb49	-0.21677889
38	0x3de44466	0.111458585
39	0xbe6bbf0e	-0.230221
40	0x3dae8740	0.08521891
41	0xbea4100d	-0.32043496
42	0x3bbaeede	0.0057047447
43	0xbd8a96cb	-0.06767043
44	0xbd01ed28	-0.03172031
45	0x3e0e1469	0.13874973
46	0x3ca9785f	0.02068728
47	0xbd5d300d	-0.054000903
48	0x3ec0bebd	0.37645522
49	0xbebfc149	-0.37452152
50	0x3be7f19c	0.0070783626
51	0x3c4e8a85	0.012606268
52	0xbf121c79	-0.57074696
53	0x3f1939a2	0.59853566
54	0xbdb443e9	-0.08802015
55	0x3d8e2af8	0.069417894
56	0x3d614039	0.054992888
57	0xbdd7e262	-0.10541226
58	0x3d050b53	0.032481503
59	0x3c7717e2	0.015081378
60	0xbe486f2d	-0.1957366
61	0x3d07da63	0.033167254
62	0xbbbd5df8	-0.005779024
63	0x3c96ab97	0.018392367
64	0xbe1ccb23	-0.15311866
65	0xbda14f83	-0.07876494
66	0x3e98eb03	0.298668
67	0x3c2a9a53	0.01041277
68	0xbe8c6a45	-0.27424827
69	0xbee044c2	-0.43802458
70	0x3c5f460b	0.013627539
71	0x3e6a6a75	0.22892173
72	0x3d10193a	0.035180308
73	0x3e1e6ea3	0.15471892
74	0xbe4fa5f8	-0.20278156
75	0x3e2db798	0.16964567
76	0xbead7174	-0.3387562
77	0xbe69ec10	-0.22843957
78	0xbbbe9461	-0.005816028
79	0xbcdae4f9	-0.02672051
80	0xbeb71123	-0.35755262
81	0xbec9a907	-0.3938677
82	0xbbdf5c3c	-0.006816415
83	0x3e579c25	0.21055658
84	0xbe75903b	-0.23980801
85	0x3e6dd405	0.2322541
86	0xbcafa955	-0.021443048
87	0x3cce60b2	0.025192592
88	0x3f070643	0.5274393
89	0xbd94cf89	-0.07266147
90	0x3dc65e0a	0.09685905
91	0x3e1d7c60	0.15379477
92	0x3e948203	0.2900544
93	0xbe3a58bd	-0.18197913
94	0xbdd3d5bf	-0.10343503
95	0x3d50a3f4	0.050937608
96	0xbe69ba9e	-0.22825095
97	0x3f0526e0	0.52012444
98	0xbdb3cba5	-0.087790765
99	0x3e2cfd83	0.16893582
100	0x3ec62e7f	0.3870735
101	0xbeacee8f	-0.33775756
102	0xbd3038b5	-0.04302283
103	0xbb12f16c	-0.002242173
104	0x3f0ef6c1	0.55845267
105	0xbf126c05	-0.57196075
106	0x3d474952	0.048653908
107	0xbccd3d42	-0.025053624
108	0xbe7b417a	-0.24536696
109	0xbe572bbb	-0.21012776
110	0x3d09283d	0.03348564
111	0x3b0ab413	0.0021164462
112	0x3ed59491	0.4171491
113	0xbee6ce7a	-0.45079404
114	0x3c9b0558	0.018923447
115	0xbc0f77c5	-0.008756583
116	0x3ecf6a85	0.40510955
117	0xbe8dc1cc	-0.27686918
118	0x3be008ca	0.0068369852
119	0x3cc4ac0d	0.024007821
120	0x3e98acb0	0.2981925
121	0xbe9da2ad	-0.30788174
122	0x3ccb0b0b	0.02478554
123	0xbcb6a8aa	-0.022297222
124	0x3dd59c1a	0.10430165
125	0xbeab50fb	-0.3346022
126	0xbe511383	-0.204176
127	0x3e09f8af	0.13473772
128	0x3edec386	0.43508548
129	0xbea1adff	-0.3157806
130	0x3e65ddf5	0.22447951
131	0xbb346932	-0.0027528522
132	0x3dd450dc	0.10366985
133	0x3d0fe2fe	0.035128586
134	0xbe2c5a73	-0.16831379
135	0x3defe9dd	0.11714528
136	0xbe80dcb8	-0.25168395
137	0x3efb9ccb	0.4914306
138	0xbd6dfacd	-0.05810051
139	0x3de4208a	0.11139019
140	0xbed56b9a	-0.41683656
141	0x3e750281	0.23926736
142	0xbc7c601b	-0.015403773
143	0x3c283d37	0.010268501
144	0xbe951d1a	-0.29123765
145	0xbe8c1620	-0.2736063
146	0xbe62133c	-0.2207765
147	0x3dccd4ad	0.10001502
148	0x3cfe8682	0.031069998
149	0x3e824a7f	0.2544746
150	0xbdc21764	-0.09477118
151	0x3e8776e7	0.26457903
152	0xbf061695	-0.5237821
153	0x3f1a768c	0.6033714
154	0xbdd73aa4	-0.10509232
155	0x3dc162c7	0.094426684
156	0x3e2dd5f9	0.16976155
157	0xbe3b3460	-0.18281698
158	0xbdd078d8	-0.10179299
159	0x3d0bfa2a	0.034174122
160	0xbd2a72df	-0.041613456
161	0x3eb7f71a	0.3593071
162	0xbd8fbc67	-0.07018357
163	0x3e2814e3	0.16414218
164	0xbe2b5d18	-0.16734731
165	0x3eca7f39	0.39550188
166	0xbd3fc24a	-0.046816148
167	0x3ddc65ab	0.10761579
168	0xbece2c9b	-0.40268406
169	0xbe817e83	-0.25291833
170	0xbc7cd158	-0.015430771
171	0xbcf2b8f8	-0.029629216
172	0x3d2f9cc6	0.04287412
173	0xbe8d4ae1	-0.2759619
174	0x3cc025e2	0.023455564
175	0xbd584a07	-0.052804973
176	0xbef0e40e	-0.47048992
177	0x3f07bebd	0.5302542
178	0xbdc61fd4	-0.096740395
179	0x3d9d7aed	0.07689462
180	0xbeb4aacb	-0.35286555
181	0xbd438407	-0.047733333
182	0x3d06f26c	0.032946035
183	0x3bc74e96	0.006082366
184	0x3f01c033	0.506839
185	0xbeed3717	-0.46331093
186	0x3c0553eb	0.008137683
187	0x3bd9f32a	0.006651302
188	0x3ed54fe0	0.41662502
189	0xbeae0c3a	-0.33993703
190	0x3d4d07ea	0.050056376
191	0xbb02707d	-0.0019903474
192	0xbe836827	-0.256654
193	0xbde9bb90	-0.11412728
194	0x3cf854d4	0.030313887
195	0xbc3fead8	-0.011713706
196	0x3e6e6f04	0.23284537
197	0x3c9d9df9	0.019240366
198	0xba3819b0	-0.00070228707
199	0xbda15d1f	-0.078790896
200	0xbe50fc99	-0.20408858
201	0xbd1ec26a	-0.038759626
202	0xbc6be708	-0.014398344
203	0x3cc86a74	0.024464823
204	0xbe70f8a7	-0.23532353
205	0x3ef7a213	0.4836584
206	0xbd1cb544	-0.038258806
207	0x3dd0da69	0.101979084
208	0x3e5a078f	0.21291946
209	0x3e051636	0.12996754
210	0x3e0eca64	0.13944393
211	0xbd88252c	-0.06647715
212	0xbe8a2771	-0.26983216
213	0xbe02c13e	-0.12769029
214	0x3d6cece9	0.057843123
215	0xbb19935c	-0.002343378
216	0x3f06698d	0.5250481
217	0xbf06d399	-0.5266662
218	0x3d37c9ea	0.044870295
219	0xbcbcab95	-0.023031035
220	0x3f02b0a8	0.51050806
221	0xbf099206	-0.5373844
222	0x3d325cae	0.043545417
223	0xbcc73000	-0.02431488
224	0xbd91fa42	-0.07127811
225	0x3e79feba	0.24413577
226	0xbd0881e7	-0.03332701
227	0xbdd2650c	-0.102731794
228	0x3f06c5a9	0.52645355
229	0xbf0a0023	-0.5390646
230	0x3d4f9e55	0.050688107
231	0xbcc772d2	-0.024346743
232	0x3e48e673	0.1961916
233	0x3da483a8	0.08032924
234	0xbd95435f	-0.07288241
235	0xbdcdf7b9	-0.10057015
236	0xbe56e3b4	-0.209853
237	0xbca78ae3	-0.020451969
238	0x3e125ae9	0.14292492
239	0xbd61bf28	-0.05511394
240	0xbe87b165	-0.2650253
241	0xbe90be70	-0.28270292
242	0x3c433c06	0.011916166
243	0xbc9c5e1a	-0.01908784
244	0xbf177a4e	-0.59171
245	0x3f125957	0.5716757
246	0xbd84aa62	-0.064778104
247	0x3cd2c546	0.025728833
248	0xbebfcbf1	-0.37460282
249	0x3ef685e9	0.4814904
250	0xbd9a0e60	-0.07522273
251	0x3dad52b5	0.08463041
252	0x3e0914ff	0.13386916
253	0x3d89eb59	0.06734342
254	0xbc34d1dc	-0.0110363625
255	0x3d2ed9ab	0.042688053

network.0.bias f4 [64]
0	0x3e406871	0.18789841
1	0x3e2a5528	0.16634047
2	0xbdf3a88b	-0.118973814
3	0xbe2df02b	-0.16986148
4	0x3e3d64aa	0.18495432
5	0x3e10cbc0	0.14140224
6	0x3e43cd0b	0.19121186
7	0x3e1b38f3	0.15158443
8	0xbdae469d	-0.08509562
9	0x3db7d871	0.0897683
10	0x3e622f66	0.22088394
11	0x3e2126b0	0.15737414
12	0x3e04bccd	0.12962647
13	0xbdc9b87e	-0.09849642
14	0x3e1ec67f	0.15505408
15	0x3e358339	0.17725839
16	0xbcd2eb1d	-0.025746876
17	0x3d841c50	0.06450713
18	0x3e54505e	0.20733783
19	0x3e6b574b	0.22982518
20	0x3dc5ba46	0.096546695
21	0x3dd8efaa	0.10592587
22	0xbbdb4acc	-0.006692266
23	0x3e30c16a	0.17261282
24	0xbe220f01	-0.15826036
25	0x3e1e34b1	0.15449788
26	0xbd451b3a	-0.04812167
27	0x3e6449cd	0.22293778
28	0x3e188000	0.14892578
29	0x3d9f23e3	0.07770517
30	0xbcc59d48	-0.02412285
31	0xbd8d57ba	-0.06901498
32	0xbdc81c95	-0.097710766
33	0x3e47fd84	0.19530302
34	0xbe369f41	-0.17834188
35	0x3e3a23ae	0.18177673
36	0xbd0627ab	-0.032752674
37	0xbe2fafa2	-0.17156842
38	0xbdbe70e4	-0.09298876
39	0x3e551fef	0.20812963
40	0xbe4ee72e	-0.20205376
41	0xbe26a2ed	-0.16273089
42	0x3e845dd6	0.2585284
43	0x3e58525e	0.2112517
44	0xbdb00de9	-0.08596403
45	0x3e840c69	0.25790718
46	0x3e11b016	0.14227328
47	0x3e0b9fa7	0.13635121
48	0x3e4db0ff	0.2008705
49	0x3e3dbd10	0.18529153
50	0x00000000	0.0
51	0xbe42bb0b	-0.19016664
52	0x3e2af4dc	0.16694969
53	0x3e6fc884	0.23416334
54	0xbd40b3d6	-0.047046505
55	0xbd160ab5	-0.036631305
56	0x3e5af3c2	0.21382049
57	0xbd383e83	-0.04498149
58	0x3e3c0dbe	0.18364617
59	0x3e8b677b	0.27227387
60	0x3e6e5eff	0.23278426
61	0xbdacc8c4	-0.084367305
62	0xbdd5bfe8	-0.10436994
63	0x3e24baa8	0.16086829

network.3.weight f4 [64, 64]
0	0x3b6d534d	0.0036212981
1	0x3e88164e	0.26579517
2	0xbf87f409	-1.0621349
3	0xbea3ce88	-0.31993508
4	0xbd7e8561	-0.06213892
5	0x3d9c7c3a	0.07640882
6	0x3e7d3085	0.2472554
7	0x3dd71642	0.10502292
8	0xbfbd1b1f	-1.4773902
9	0x3e7e19d3	0.24814539
10	0x3e12b82b	0.14328067
11	0x3e03d534	0.128743
12	0x3da6ac55	0.081383385
13	0xbfa29e68	-1.2704592
14	0x3d845f74	0.06463519
15	0x3e237a3d	0.15964599
16	0xbc188635	-0.009309341
17	0x3de9c70d	0.11414919
18	0xbe5a989d	-0.2134728
19	0x3ecbe53b	0.39823326
20	0x3e92acbf	0.2864742
21	0x3cb92dd3	0.022604859
22	0xbdb95c67	-0.090508275
23	0xbdefea5f	-0.117146246
24	0xbea26ffd	-0.31726065
25	0x3e72f981	0.2372799
26	0xbf40c884	-0.7530596
27	0x3e563745	0.20919521
28	0x3d99c63f	0.075085156
29	0x3e5e2b51	0.21696211
30	0xbf788433	-0.9707672
31	0xbe9f02ba	-0.31056768
32	0xbdcc7d4c	-0.09984836
33	0x3d9fd98a	0.07805164
34	0xbf407cfc	-0.7519071
35	0x3eb21046	0.3477804
36	0xbe3931f5	-0.18085463
37	0xbe64902d	-0.22320624
38	0xbfa09aaa	-1.25472
39	0x3d6623da	0.056186534
40	0xbeab3ab6	-0.3344323
41	0xbf388931	-0.7208434
42	0x3e30f211	0.17279841
43	0x3ca2c758	0.019870445
44	0xbfbb9709	-1.4655467
45	0x3dbef676	0.093243524
46	0x3e373424	0.17890984
47	0xbd08fafb	-0.03344248
48	0x3e12ae0d	0.14324208
49	0xbe41db5f	-0.1893134
50	0xbe454100	-0.19263077
51	0xbf6b041e	-0.9180316
52	0x3d1596c8	0.03652075
53	0x3ebb4eba	0.365835
54	0xbf544079	-0.8291088
55	0xbf12b0cb	-0.57301015
56	0xbe56fe9b	-0.20995562
57	0xbf3223c9	-0.69585854
58	0x3e4307f4	0.19046003
59	0x3dba4153	0.09094491
60	0x3ef5e700	0.48027802
61	0xbfaa335c	-1.3296924
62	0xbfaca614	-1.3488183
63	0x3e2160fd	0.15759654
64	0x3df470b3	0.11935558
65	0x3e11fe3e	0.14257142
66	0xbf95a3be	-1.1690595
67	0xbe7c5d8d	-0.24645062
68	0x3da2ed64	0.07955435
69	0x3e2c3582	0.16817287
70	0x3e0f1365	0.13972242
71	0xbcae8ef0	-0.021308392
72	0xbfb4d9c2	-1.4128954
73	0x3e3055df	0.17220257
74	0x3e422437	0.18959127
75	0xbcc69ccd	-0.02424469
76	0xbc24100a	-0.01001359
77	0xbfa5e34c	-1.295999
78	0xbd18e6c2	-0.037329443
79	0xbc5158ae	-0.012777491
80	0x3cc32185	0.023819694
81	0xbdf6c036	-0.1204838
82	0xbd369fbf	-0.04458594
83	0x3e23ccbe	0.15996072
84	0xbde1ec04	-0.110313445
85	0x3c6319e4	0.013861153
86	0xbd39be94	-0.045347765
87	0x3d2e8abb	0.042612772
88	0xbe81bcfc	-0.25339496
89	0x3dd6fc3e	0.1049733
90	0xbf5a8f2e	-0.85374725
91	0x3ea51032	0.3223892
92	0x3e086e61	0.13323356
93	0xbe23a3a5	-0.15980394
94	0xbf772089	-0.9653402
95	0xbd2b3420	-0.041797757
96	0xbe9d7c64	-0.30758965
97	0xbcebea65	-0.028798291
98	0xbf1c0166	-0.60939634
99	0x3e39dc14	0.1815036
100	0x3dba0020	0.09082055
101	0xbea2d44d	-0.31802598
102	0xbf9f86a4	-1.2462964
103	0x3daa99bb	0.08330103
104	0xbe83c694	-0.2573744
105	0xbf10d0b9	-0.56568485
106	0x3e5b516e	0.21417782
107	0xbdb403a3	-0.08789756
108	0xbfc31e9c	-1.5243716
109	0x3eb5c37b	0.35500702
110	0xbdc74270	-0.09729469
111	0x3c61a533	0.013772297
112	0x3edb9311	0.4288564
113	0xbdce1d57	-0.1006419
114	0x3c3ce2a3	0.011528644
115	0xbf2e9a5f	-0.682043
116	0x3d775c68	0.06039086
117	0x3e594c82	0.21220592
118	0xbf72be6e	-0.9482182
119	0xbf6f9a99	-0.9359527
120	0xbdde9a79	-0.10869307
121	0xbf1a40fb	-0.602554
122	0x3a2627ee	0.00063383474
123	0x3e80b7ac	0.2514013
124	0x3ec032b5	0.37538686
125	0xbf9b6f7a	-1.2143395
126	0xbfb34309	-1.4004833
127	0x3dffa807	0.124832205
128	0x3ea6808b	0.32519946
129	0xbdaffc53	-0.08593049
130	0xbda35455	-0.079750694
131	0xbdebae21	-0.11507822
132	0x3cad7ae1	0.021176757
133	0x3e7fd6b4	0.24984246
134	0x3ec91c97	0.39279625
135	0x3de3f733	0.11131134
136	0x3dc407d4	0.095718056
137	0xbdb7c18b	-0.08972462
138	0xbe839a8f	-0.25703856
139	0x3e3b5008	0.18292248
140	0xbf3e9907	-0.7445225
141	0xbddce7ea	-0.107864216
142	0xbda580df	-0.08081221
143	0x3eaa3f08	0.33251214
144	0xbe01c81c	-0.12673992
145	0xbe63601b	-0.2220463
146	0x3c2802db	0.010254587
147	0xbe9c8c47	-0.30575773
148	0xbe80a7b8	-0.2512796
149	0x3db0ec25	0.08638791
150	0xbed96ef4	-0.42467463
151	0xbd7ae3b4	-0.06125231
152	0x3dd89e3d	0.105770566
153	0xbe6bbc2e	-0.23021004
154	0xbe5bcf70	-0.2146585
155	0x3de26741	0.1105485
156	0xbf4a19e0	-0.7894573
157	0xbf32c86c	-0.6983707
158	0xbde5d9d9	-0.11223192
159	0xbe68cec5	-0.22735126
160	0xbe8fd5de	-0.28092855
161	0x3d623824	0.05522932
162	0x3de8d7b5	0.11369268
163	0x3e843795	0.25823656
164	0x3e0c4d2e	0.13701317
165	0x3da0c006	0.078491256
166	0x3e08f9d3	0.1337655
167	0xbe07e669	-0.13271488
168	0x3dd0f31f	0.10202622
169	0x3d7726d9	0.060339782
170	0xbeab50e0	-0.3346014
171	0xbef8cba0	-0.48592854
172	0x3d9cbd6f	0.07653319
173	0x3e7639c7	0.24045478
174	0xbf2bd8ca	-0.6712767
175	0xbea9ae6d	-0.3314089
176	0xbc0de4a9	-0.008660474
177	0x3dd03841	0.101669796
178	0xbc225935	-0.009908964
179	0xbd90fa88	-0.07079035
180	0x3def2aa6	0.116780564
181	0x3dfe0b04	0.12404445
182	0xbedaceb9	-0.42735842
183	0xbe6b8abe	-0.23002145
184	0x3e2e7e6a	0.1704041
185	0xbea2c1c6	-0.31788462
186	0x3c7d3f5f	0.015457003
187	0x3e3c17b9	0.18368424
188	0xbefd936e	-0.49526542
189	0x3ea7aac1	0.32747462
190	0x3d06df8d	0.03292804
191	0x3df6a7e4	0.12043741
192	0xbe4c2203	-0.1993485
193	0xbcbf97be	-0.023387786
194	0xbe0b1bfb	-0.13584892
195	0xbe1ca9b2	-0.15299109
196	0xbe29fbfb	-0.16600029
197	0x3bf7e1d4	0.0075647626
198	0xbd71dee8	-0.05905047
199	0xbe2520bb	-0.16125767
200	0xbe12e24b	-0.14344136
201	0x3e266b62	0.16251901
202	0xbe1a20be	-0.15051553
203	0xbd4e7249	-0.05040196
204	0x3e595a2f	0.21225809
205	0xbc75dce7	-0.0150062805
206	0xbdb98e16	-0.09060304
207	0xbe4a2b68	-0.1974312
208	0xbe1fecf1	-0.1561773
209	0x3e12328e	0.14277098
210	0x3cbaa406	0.02278329
211	0xbe0e10f6	-0.13873658
212	0x3d571a90	0.052515566
213	0xbe198b69	-0.14994587
214	0x3e747ad0	0.23874974
215	0xbd1af763	-0.037833583
216	0xbe8776cd	-0.26457825
217	0xbe2ab661	-0.16671135
218	0xbe2fec47	-0.17179976
219	0x3e12797d	0.14304157
220	0x3ca1ca92	0.019749913
221	0x3ca167de	0.019702848
222	0xbd5b6b80	-0.053569317
223	0xbd9b34ff	-0.075784676
224	0xbe49775a	-0.19674435
225	0x3c4de5bc	0.01256698
226	0xbe30eb03	-0.1727715
227	0xbe488c68	-0.1958481
228	0x3c261bdf	0.010138481
229	0x3d55e738	0.05222246
230	0xbb8865eb	-0.00416254
231	0xbd350160	-0.044190764
232	0xbe373cad	-0.1789424
233	0x3d91de48	0.07122475
234	0xbdaa6aeb	-0.08321174
235	0x3e160e77	0.14653955
236	0x3e023f56	0.12719473
237	0x3df9ba88	0.12193781
238	0x3d4385d6	0.047735058
239	0xbe2c2cda	-0.16813985
240	0xbdd5150e	-0.104044065
241	0xbe0f521a	-0.13996163
242	0xbdc408ab	-0.09571966
243	0xbdd85fcb	-0.10565146
244	0x3e4001be	0.18750665
245	0x3e41ac35	0.18913348
246	0xbcc98818	-0.024601027
247	0x3e52993e	0.2056627
248	0xbe30ea8d	-0.17276974
249	0x3e0d37bf	0.13790797
250	0xbe06dfbe	-0.13171288
251	0x3d029091	0.03187615
252	0xbe01748d	-0.12642117
253	0xbd4bfa4c	-0.04979925
254	0xbd0ae050	-0.033905327
255	0xbe3530cf	-0.176944

network.3.bias f4 [64]
0	0x3f1a91f0	0.6037893
1	0x3f16e09a	0.58936465
2	0x3b70a9dd	0.003672234
3	0xbc956ad2	-0.018239412
4	0xbe1a746d	-0.15083475
5	0xbc949869	-0.018139081
6	0x3f3cd69d	0.73764974
7	0x3f1c68e2	0.6109754
8	0x3f1a132e	0.60185516
9	0x3f2079bf	0.6268577
10	0x3f1a94ef	0.60383505
11	0xbda7c29e	-0.08191417
12	0x3f421d27	0.7582573
13	0xbe882722	-0.26592356
14	0x3f2f96ee	0.68589675
15	0xbec72f82	-0.38903433
16	0xbeb77a40	-0.35835457
17	0x3f265ada	0.6498238
18	0x3f1f6a14	0.6227124
19	0x3f29f1ac	0.66384387
20	0x3f1af1c5	0.6052516
21	0x3f2fdafe	0.6869353
22	0xbe9f5f9f	-0.3112764
23	0x3f310631	0.6915007
24	0xbda4f531	-0.08054579
25	0x3dc29654	0.09501329
26	0x3d8d2cd4	0.06893316
27	0xbeb0749e	-0.34463972
28	0xbd4c0700	-0.049811363
29	0x3f22da8b	0.6361472
30	0xbbce5891	-0.006297179
31	0x3f13b988	0.57704973
32	0x3f163d89	0.58687645
33	0x3f30a490	0.690011
34	0x3f1abc2a	0.60443366
35	0x3ed134f5	0.40860716
36	0x3f45b5ef	0.77230734
37	0x3f35eadd	0.710615
38	0x3e98dee9	0.29857567
39	0xbdd1ce11	-0.10244382
40	0x3f2031bf	0.62575907
41	0x3f3780db	0.7168099
42	0x3f18f344	0.59746194
43	0x3ce6c360	0.028169334
44	0x3f1ff7c9	0.62487465
45	0x3f275ed4	0.6537907
46	0x3f217782	0.6307298
47	0xbea6e6c6	-0.3259794
48	0xbeb74e29	-0.3580182
49	0xbe9e1f4a	-0.30883247
50	0x3f058d6d	0.52168924
51	0x3f1f1018	0.6213393
52	0x3f27cff3	0.6555168
53	0x3f36a18b	0.71340245
54	0x3f17fd9f	0.5937137
55	0x3f30a17e	0.6899642
56	0xbcce88aa	-0.02521165
57	0x3f1d011b	0.6132981
58	0xbd4e496b	-0.050362986
59	0x3f2fd35d	0.6868189
60	0x3f3420e4	0.7036269
61	0xbbbc74da	-0.0057512345
62	0x3dd8a66a	0.10578616
63	0xbd0be477	-0.034153428

network.6.weight f4 [2, 64]
0	0x3f52f9af	0.82412237
1	0x3f7b759f	0.9822635
2	0xbef015f7	-0.46891758
3	0x3b0bcc0a	0.0021331334
4	0xbea8d0cc	-0.329718
5	0xbee05458	-0.4381435
6	0x3f0845cc	0.532315
7	0x3f60c2dd	0.8779734
8	0x3f719346	0.94365346
9	0x3f48a9f3	0.7838432
10	0x3f62e2d8	0.88627386
11	0xbedb8bdc	-0.42880142
12	0x3f0159c2	0.50527585
13	0xbea95d55	-0.3307902
14	0x3f365ac4	0.7123225
15	0xbf6bd6fd	-0.9212492
16	0xbf585ac3	-0.8451349
17	0x3f491231	0.7854338
18	0x3f45898c	0.77163005
19	0x3f2c6f1e	0.6735705
20	0x3ed4b7e8	0.4154656
21	0x3f330b9f	0.6993961
22	0xbf813dee	-1.0097024
23	0x3f1322e6	0.57475126
24	0xbedeb245	-0.43495384
25	0xbef8e9d5	-0.486159
26	0xbf1d0bbe	-0.6134604
27	0xbf347af7	-0.7050013
28	0xbea96b24	-0.33089554
29	0x3f32c08a	0.6982504
30	0xbefbb160	-0.49158764
31	0x3ed23988	0.41059518
32	0x3f25c18b	0.6474845
33	0x3f2d727e	0.67752826
34	0x3f524c7d	0.8214796
35	0x3ee74ede	0.45177358
36	0x3edeab35	0.43489996
37	0x3f2d7910	0.6776285
38	0x3ef029a4	0.4690677
39	0xbecc0558	-0.39847827
40	0x3edfcd32	0.4371124
41	0x3f11568d	0.5677269
42	0x3f43b1e7	0.7644333
43	0xbe586852	-0.21133545
44	0x3f25979e	0.64684474
45	0x3f3a71e1	0.72830015
46	0x3f601802	0.87536633
47	0xbf3dbb03	-0.7411348
48	0xbf37b828	-0.71765375
49	0xbf5de914	-0.86683774
50	0x3ea1a4af	0.31570956
51	0x3f30df23	0.6909048
52	0x3f541a27	0.82852405
53	0x3efb2a5b	0.49055752
54	0x3f5a33eb	0.8523547
55	0x3f505763	0.8138334
56	0xbeef7eed	-0.46776524
57	0x3f5bd994	0.8587887
58	0xbea1366b	-0.3148683
59	0x3f0512af	0.51981634
60	0x3f2cf743	0.6756479
61	0xbf16e5f8	-0.58944654
62	0x3ef9208e	0.4865765
63	0xbf153e06	-0.58297765
64	0x3f512a22	0.81704915
65	0x3f56feef	0.8398275
66	0xbf2ed955	-0.6830037
67	0xbead52e9	-0.33852318
68	0xbeabc109	-0.33545712
69	0xbecdbc0b	-0.40182528
70	0x3f0caaeb	0.549483
71	0x3f629fb9	0.8852497
72	0x3f4927af	0.7857618
73	0x3f571fb7	0.8403277
74	0x3f7088bd	0.93958646
75	0xbf0e5895	-0.55603915
76	0x3f00788a	0.5018393
77	0xbeef1b50	-0.46700525
78	0x3f425ce4	0.7592299
79	0xbf50fbf4	-0.8163445
80	0xbf5d3111	-0.86402994
81	0x3f138016	0.5761732
82	0x3f149432	0.5803863
83	0x3f414e07	0.75509685
84	0x3f162eee	0.5866536
85	0x3f3749dd	0.7159708
86	0xbedb13b1	-0.4278846
87	0x3f32ff4d	0.6992081
88	0xbece24a6	-0.40262336
89	0xbf08c6d7	-0.53428406
90	0xbeb05d8f	-0.3444638
91	0xbf1a93dd	-0.6038187
92	0xbf18ff80	-0.5976486
93	0x3f0eadbd	0.55733854
94	0xbea5d7e0	-0.32391262
95	0x3f2fb67b	0.6863782
96	0x3f5371c2	0.82595456
97	0x3f4940bf	0.7861442
98	0x3f4b65f2	0.7945243
99	0x3e38c84e	0.1804516
100	0x3ee49c2f	0.4465041
101	0x3f197794	0.59948087
102	0x3dbe1a13	0.09282317
103	0xbeb5d54a	-0.3551429
104	0x3f271a1b	0.6527421
105	0x3f262bec	0.6491077
106	0x3f504106	0.8134922
107	0xbeb94358	-0.36184192
108	0x3f40e9f1	0.75356966
109	0x3f1c2223	0.6098959
110	0x3f856c00	1.0423584
111	0xbf64142a	-0.8909327
112	0xbf661543	-0.8987619
113	0xbed0271b	-0.40654835
114	0x3efb8d63	0.49131307
115	0x3f4800f6	0.78126466
116	0x3f30d38c	0.69072795
117	0x3f03dea8	0.5151162
118	0x3f5913e5	0.8479598
119	0x3f608387	0.87700695
120	0xbf0a8579	-0.54109913
121	0x3f61bdf2	0.8818046
122	0xbd82a1fe	-0.06378554
123	0x3f12afc6	0.5729946
124	0x3f2efeed	0.68357736
125	0xbee16f50	-0.44030237
126	0xbe0664a7	-0.13124333
127	0xbee469e7	-0.44612047

network.6.bias f4 [2]
0	0x4126047b	10.376094
1	0x411caa35	9.791554

exp_avg f4 [64, 4]
0	0xbb7ad994	-0.003827666
1	0xbb99381b	-0.0046758777
2	0x3a969368	0.0011488022
3	0xbb6736c3	-0.0035280443
4	0xbbd73608	-0.0065677203
5	0xbbdadc49	-0.006679092
6	0x3b423852	0.002963562
7	0x3b414de2	0.0029495885
8	0xbc9f6df6	-0.019461613
9	0xbcbfb673	-0.023402428
10	0xbbd5245b	-0.006504578
11	0x3a9f4035	0.0012149872
12	0x3b2335ae	0.0024903822
13	0x3afc2f25	0.0019240124
14	0xbaaa6e5b	-0.0013002859
15	0xbaac3b0d	-0.0013140157
16	0xba771eec	-0.000942691
17	0xbac022bc	-0.0014658789
18	0x3af69309	0.001881213
19	0xb9389d7d	-0.00017606276
20	0xbb119250	-0.0022212453
21	0xbb4b19f4	-0.003099081
22	0xba652ba8	-0.0008742162
23	0x3b66c420	0.0035212114
24	0x3935b5ba	0.00017329204
25	0xb9688abb	-0.00022176925
26	0x3a3977b4	0.0007075027
27	0x3ad6a250	0.0016375277
28	0xbbb11da7	-0.005405146
29	0xbbbce4ee	-0.0057645952
30	0xb9cf29e9	-0.00039513342
31	0xba33feb1	-0.000686626
32	0xbc54d5df	-0.012990444
33	0xbc880cab	-0.016607603
34	0x3c20621b	0.009789015
35	0xbc0542ae	-0.008133573
36	0xb9385c13	-0.00017581908
37	0xba93fae2	-0.0011289979
38	0xba9b67e4	-0.0011856523
39	0xba8c5f80	-0.0010709614
40	0xbb8edbbc	-0.0043596905
41	0xbb9d6ab9	-0.004803982
42	0xbb2abe16	-0.0026053241
43	0x3b0c5d61	0.0021417963
44	0xbb3fa3f5	-0.0029242013
45	0xbb4ce981	-0.003126711
46	0x3a58fcf3	0.00082774385
47	0xbb1d569b	-0.002400792
48	0xbbbe9fa9	-0.005817373
49	0xbbb882a7	-0.0056308093
50	0x3ba7875b	0.005112571
51	0x3bb12971	0.0054065515
52	0x3a7baf00	0.0009600967
53	0x3a85f8ce	0.0010221244
54	0x3ca25e76	0.019820433
55	0x3c10be46	0.008834427
56	0xbc49f4da	-0.012326444
57	0xbc52ad7b	-0.012858744
58	0x3b1f2eec	0.0024289442
59	0x3a819f01	0.0009889306
60	0xbc2f6480	-0.010705113
61	0xbc4d3601	-0.012525083
62	0x3af25a8a	0.0018490118
63	0xb9aa8ef6	-0.0003253144
64	0xb95a8f4c	-0.00020843482
65	0xb9c90284	-0.00038339582
66	0xb9e522f4	-0.00043704326
67	0xbb62c425	-0.0034601775
68	0x399a0a52	0.00029380858
69	0x39cd7722	0.00039189408
70	0x3a934522	0.0011235813
71	0x3ad7c1e4	0.0016460982
72	0xbaf53c6c	-0.0018710024
73	0xbb1b062d	-0.0023654804
74	0xbae41700	-0.0017401874
75	0xbb2c6167	-0.0026303174
76	0xbbd0cc86	-0.0063720373
77	0xbc352363	-0.0110558
78	0x3b0bb93d	0.0021320127
79	0xbcb45a35	-0.02201567
80	0x39d98d7c	0.0004149488
81	0x398202ff	0.00024797764
82	0x3a0eed69	0.0005452247
83	0x3aba125e	0.0014196148
84	0xbc536643	-0.012902799
85	0xbc6344c1	-0.013871373
86	0x3a0496c6	0.00050578674
87	0x3986ae79	0.00025688464
88	0xba2cdaac	-0.0006593864
89	0xba57dbd8	-0.00082343584
90	0x3af4b52c	0.0018669716
91	0xba27e7a9	-0.00064050645
92	0x3aa13325	0.0012298567
93	0x3a867549	0.0010258342
94	0xb9e5c9a8	-0.0004382853
95	0x39f4afcd	0.00046670288
96	0xbaf9cde9	-0.0019058558
97	0xbb47c207	-0.003048064
98	0xbb89e802	-0.0042085657
99	0xbb2bf830	-0.002624046
100	0xbae52159	-0.0017481252
101	0xbaf07db6	-0.0018348012
102	0x3a18b836	0.00058257894
103	0xb94965af	-0.00019206734
104	0x3cccfe78	0.025023684
105	0x3cd175e4	0.02556891
106	0x3c07c11b	0.008285786
107	0x3c1e66bb	0.009668048
108	0xbb95875a	-0.0045632543
109	0xbc029b8d	-0.0079716565
110	0x39aff0b4	0.0003355794
111	0xbbddd0d9	-0.0067692813
112	0xbc13a74b	-0.009012054
113	0xbc13cc0f	-0.009020819
114	0x3b3c8fd4	0.0028772252
115	0x3b7487d6	0.003731241
116	0xbb698c4d	-0.0035636604
117	0xbb7cb160	-0.0038557872
118	0x3b88b0f5	0.0041714855
119	0x3b483e3d	0.0030554675
120	0x3cc98d40	0.024603486
121	0x3cd42cae	0.025900211
122	0x3cb49d47	0.022047652
123	0x3cf4f2c9	0.029900925
124	0x3a78f3fb	0.0009496805
125	0x3a362bf6	0.00069493
126	0xba6f6d73	-0.00091334357
127	0x3a8d2231	0.0010767636
128	0x3b57c33c	0.0032922765
129	0x3b7ba7eb	0.0038399647
130	0x3af09302	0.0018354359
131	0xba7c07e1	-0.0009614211
132	0xbaf32c6c	-0.0018552667
133	0xbb2592c9	-0.0025264493
134	0xbae5e83b	-0.0017540524
135	0xbb07fc0e	-0.0020749602
136	0xbc931f06	-0.017959129
137	0xbcb4611e	-0.022018965
138	0xbc3bb313	-0.011456269
139	0xbbff5b61	-0.0077928756
140	0xbc3cfa38	-0.011534266
141	0xbc56a9b0	-0.01310198
142	0x3b2480f3	0.0025101274
143	0xbb0b6878	-0.0021271985
144	0xb4c22f63	-3.6169794e-07
145	0xb4e1c10b	-4.2049973e-07
146	0x35c2a8da	1.4503269e-06
147	0xb40addf2	-1.2932995e-07
148	0xb9cf03dd	-0.00039484995
149	0xbaa3adbb	-0.0012487689
150	0xbaf23b0d	-0.0018480733
151	0xbb015332	-0.0019733426
152	0x3bb16209	0.005413298
153	0x3baeb66d	0.0053318054
154	0x3afb8aa1	0.0019191095
155	0x3b66a1c1	0.0035191628
156	0xbb6d4c8b	-0.0036208953
157	0xbb893ace	-0.0041879183
158	0x3a77de78	0.00094554527
159	0x3aa64fe5	0.0012688605
160	0xbab7edc9	-0.0014032657
161	0xbb3edb6c	-0.0029122485
162	0xbb570a7c	-0.0032812646
163	0xbb8715ba	-0.004122463
164	0xbc48b8d1	-0.012251095
165	0xbc7a236b	-0.015267233
166	0xbc09e9a3	-0.00841752
167	0xbc14b811	-0.009077088
168	0xbc1b6639	-0.009484821
169	0xbc6e993f	-0.014562904
170	0x39158727	0.00014260095
171	0xbca66451	-0.020311506
172	0xbb8e4f49	-0.0043429476
173	0xbb7115ed	-0.003678675
174	0x3af8bb7f	0.0018976777
175	0x3b133ada	0.0022465498
176	0x3ba1943b	0.0049310005
177	0x3b76b22f	0.0037642827
178	0x3a03dd1a	0.00050302
179	0x3a949131	0.0011334774
180	0x3b9d310f	0.004797108
181	0x3b189a27	0.0023285241
182	0xbc0ea2c8	-0.008705802
183	0xbbdda1ae	-0.0067636585
184	0xbb95d6af	-0.0045727114
185	0xbba17fcf	-0.004928566
186	0x3ae7563f	0.0017649605
187	0x3b8d3caa	0.0043102102
188	0xbb87c84f	-0.0041437517
189	0xbb91f28c	-0.0044539627
190	0x3b215894	0.0024619447
191	0xb9876c3b	-0.00025829845
192	0xbba14701	-0.0049217944
193	0xbc163d87	-0.009169943
194	0xbb18eea1	-0.0023335593
195	0xbbacf58b	-0.0052782944
196	0xba151b3c	-0.0005687957
197	0xba072387	-0.00051551353
198	0x3aaa1db6	0.0012978825
199	0x3a22a996	0.000620508
200	0x00000000	0.0
201	0x00000000	0.0
202	0x00000000	0.0
203	0x00000000	0.0
204	0xbc346632	-0.011010693
205	0xbc7cfad9	-0.015440666
206	0xbc230037	-0.009948782
207	0x3b50cc19	0.0031859933
208	0xb825b777	-3.950993e-05
209	0xb8d3f6de	-0.000101072466
210	0xba0b249d	-0.0005307885
211	0xba3f103a	-0.000728849
212	0xbb2f2884	-0.002672703
213	0xbba26b02	-0.004956604
214	0x3b51cf78	0.003201453
215	0x3a0bf1f8	0.00053384854
216	0x3ca844b0	0.020540565
217	0x3ca7e93a	0.020496953
218	0x3c3f2433	0.011666345
219	0xbb2822d7	-0.0025655532
220	0x3c712d69	0.014720299
221	0x3c919c68	0.017774776
222	0x3c81421d	0.015778596
223	0x3ca20bc6	0.019781005
224	0xbb398c7e	-0.00283125
225	0xbb588652	-0.0033039046
226	0x38a3c4ed	7.809126e-05
227	0xb98c6318	-0.00026776711
228	0x3ca3cd84	0.019995458
229	0x3cb58055	0.02215592
230	0x3c47c881	0.0121938
231	0x3c170564	0.009217594
232	0x3a7934c9	0.0009506462
233	0x3a2fd4a2	0.0006707405
234	0xb99ebe9a	-0.00030278118
235	0x3a578abf	0.0008222274
236	0xbaf5e7f3	-0.0018761143
237	0xbb2ef8a9	-0.0026698506
238	0x38ad6c24	8.2694256e-05
239	0x35484e74	7.461997e-07
240	0xbbcb449e	-0.006203248
241	0xbc1bf354	-0.009518463
242	0xbb28a015	-0.0025730182
243	0xbc91a375	-0.017778138
244	0xbaa67821	-0.0012700596
245	0xbb5c975c	-0.0033659553
246	0xbc421ef9	-0.011848205
247	0xbc076649	-0.008264133
248	0x3c211dc9	0.0098337615
249	0x3bd9f236	0.0066511882
250	0xbc9544ee	-0.018221345
251	0xbc5ca75e	-0.013467638
252	0xbb446f33	-0.0029973506
253	0xbb6ceed5	-0.0036153097
254	0x39ea739c	0.00044718094
255	0xbb6aa07c	-0.0035801223
